saved_models/DNN/fold2.pt (torch, 31579 bytes, 20 tensors)

emb_layers.0.weight f4 [16, 8]
-1.0197188 0.36106005 0.48801458 -0.43350515 -0.24443121 1.0476319 0.14405766 -0.21902926
0.32419512 0.024703208 0.19757971 -1.8872854 0.45429036 -0.11183394 0.36353138 1.0411763
0.024024645 0.13602637 -1.132137 0.5905235 0.2701677 -1.6697804 -0.71740705 0.88997513
-0.45561227 0.6911518 -1.2914133 0.40335935 0.42337796 -0.25308582 -0.23639768 0.79317504
-1.2292222 0.39402953 -0.3690849 1.2151068 -0.73856163 -0.3432328 -0.8743378 0.47214818
-0.43265405 -0.030585684 0.105048195 -0.41853565 0.18026122 -0.6505173 -0.20636953 0.5277401
0.7011083 -1.2347114 0.60127664 -0.8309131 -0.3435819 1.3065407 0.46253064 0.33142132
-0.57527953 0.4304037 0.52888757 0.99525386 -0.44923696 -1.0704372 -1.7805696 0.74824727
-0.0705605 0.38982353 -0.8161322 1.0110807 -0.7587541 0.2824102 -0.75459665 -1.7771658
-0.7174144 -1.7348831 0.1353492 0.32514516 -0.07248243 0.25142244 0.50508857 -1.1389176
-1.6089247 -0.06904356 0.41806436 1.4051307 -1.0668324 -0.028384518 0.9155959 -0.5981636
-0.22760014 0.45131588 0.6553493 0.6735157 -1.2256224 -0.6221863 0.31378242 -0.086039335
-0.7928771 -0.7539078 -0.23424923 0.32223853 0.20219938 -1.1213676 0.40136522 -0.6654525
-0.11315035 -0.30977148 -0.57216656 0.35542703 1.3685402 -1.088002 1.3743836 0.47575042
-1.4257214 0.8745319 0.100200236 -1.0699414 -0.5853517 0.62297547 0.39158252 0.7232097
-0.20035765 1.8335197 -0.3278846 0.5261603 0.25518107 -0.5770081 0.06349726 -0.5886455
00000000: 2586 82bf dddc b83e 0cdd f93e 63f4 ddbe
00000010: 2d4c 7abe cd18 863f da83 133e 3549 60be
00000020: e7fc a53e 625e ca3c 5652 4a3e 9192 f1bf
00000030: bf98 e83e 3109 e5bd c920 ba3e 4445 853f
00000040: 55cf c43c 7f4a 0b3e dde9 90bf 8c2c 173f
00000050: 6c53 8a3e 5dbb d5bf fda7 37bf 69d5 633f
00000060: 0346 e9be 53ef 303f 084d a5bf 1e85 ce3e
00000070: ffc4 d83e 7794 81be 3c12 72be 850d 4b3f
00000080: 2757 9dbf 3dbe c93e b2f8 bcbe 9f88 9b3f
00000090: 6012 3dbf 36bc afbe 9ad4 5fbf 68bd f13e
000000a0: d584 ddbe d48e fabc 8223 d73d 4e4a d6be
000000b0: 6696 383e 4d88 26bf 8952 53be fa19 073f
000000c0: d57b 333f 060b 9ebf 44ed 193f b9b6 54bf
000000d0: f7e9 afbe ba3c a73f d1d0 ec3e 0eb0 a93e
000000e0: 8545 13bf e05d dc3e 2d65 073f f5c8 7e3f
000000f0: 6302 e6be 1604 89bf b4e9 e3bf 228d 3f3f
00000100: 0682 90bd f396 c73e 0aee 50bf 186b 813f
00000110: b53d 42bf 1298 903e 3f2d 41bf 2b7a e3bf
00000120: 78a8 37bf a610 debf fb98 0a3e 6d79 a63e
00000130: ab71 94bd 71ba 803e 7c4d 013f 0dc8 91bf
00000140: 3ff1 cdbf b666 8dbd 880c d63e 53db b33f
00000150: f78d 88bf a686 e8bc 7e64 6a3f 4021 19bf
00000160: 0310 69be e012 e73e f9c4 273f 866b 2c3f
00000170: 32e1 9cbf 9a47 1fbf 17a8 a03e 6435 b0bd
00000180: fef9 4abf 1a00 41bf 08df 6fbe 73fc a43e
00000190: 5b0d 4f3e f988 8fbf be7f cd3e 185b 2abf
000001a0: 5fbb e7bd 5e9a 9ebe 8279 12bf 88fa b53e
000001b0: 532c af3f a643 8bbf cdeb af3f 8f95 f33e
000001c0: 0a7e b6bf 53e1 5f3f c835 cd3d d7f3 88bf
000001d0: 9cd9 15bf 527b 1f3f 817d c83e 4524 393f
000001e0: 8e2a 4dbe c6b0 ea3f 7ee0 a7be 71b2 063f
000001f0: 18a7 823e ceb6 13bf da0a 823d 79b1 16bf

emb_layers.1.weight f4 [16, 8]
0.029603226 -1.0301175 -0.16944967 0.42083788 -1.5113906 -0.93541163 -0.02183998 -0.17972323
0.46654347 -0.7020756 0.3411191 -0.2269183 0.08615634 -2.1277754 0.785534 -0.51867026
0.9293231 0.39909753 1.6186739 0.9433244 1.179599 -1.0378718 -0.4074705 -1.2035928
-1.8566335 -0.094443925 0.6027968 -0.94319004 -0.39260986 -0.13857067 0.8103895 1.5508729
0.54082245 -0.7576785 -1.5832417 -0.046902027 -0.15231454 1.246338 0.287059 -0.15034968
0.49993795 -1.8317646 -0.24457888 1.1658332 1.8192085 0.9053251 0.58552504 0.51062614
0.15568396 0.8312239 1.0103238 0.30668792 1.3364 -0.64684975 -0.6019166 -0.68261516
-0.042624753 0.2718836 -0.37679267 -0.08305374 -1.6610485 1.8044138 0.15204594 -0.18189706
-1.3900733 -0.97576404 -0.12223933 -0.71576285 1.421646 -0.7235519 0.679877 1.6139772
0.09047161 -0.31193602 0.20583925 2.0416436 0.39734524 0.6191885 0.2606009 -0.40719604
0.74196696 -0.63762873 0.7374928 -0.063212484 0.13134506 0.57402545 0.3125839 0.4176347
0.6785591 0.0955443 -0.3231381 -0.67041254 -1.0321192 -0.37603623 0.16887015 1.65448
0.40032214 -0.49884695 1.2229359 0.1223183 -0.09918257 1.6654937 -0.6755943 1.7974166
-0.58135873 -1.1629089 -1.5131407 -1.1623627 0.38639948 -2.0958624 -0.2350355 0.35028535
0.72400594 0.45307192 -1.3432095 -0.010200001 -1.1635089 0.54350257 1.6004198 0.55188453
-1.4181315 0.6963395 0.901219 0.0330814 -1.5033654 0.60795116 0.052605808 0.11694305
00000000: 7782 f23c e4da 83bf 3784 2dbe 1078 d73e
00000010: 3f75 c1bf 2377 6fbf c2e9 b2bc 5e09 38be
00000020: c9de ee3e 3abb 33bf 2aa7 ae3e 455d 68be
00000030: bc72 b03d 792d 08c0 c218 493f 93c7 04bf
00000040: 1ee8 6d3f 8356 cc3e b530 cf3f b57d 713f
00000050: 1afd 963f fcd8 84bf f99f d0be 540f 9abf
00000060: 2ba6 edbf d16b c1bd e450 1a3f e774 71bf
00000070: 2904 c9be 78e5 0dbe b075 4f3f 0183 c63f
00000080: 5773 0a3f 38f7 41bf aaa7 cabf 571c 40bd
00000090: 58f8 1bbe 0188 9f3f 66f9 923e 44f5 19be
000000a0: def7 ff3e 4377 eabf e372 7abe 063a 953f
000000b0: d3db e83f 63c3 673f f8e4 153f 65b8 023f
000000c0: 9e6b 1f3e 17cb 543f 4a52 813f 3306 9d3e
000000d0: 280f ab3f f297 25bf 3517 1abf debf 2ebf
000000e0: 4b97 2ebd 5434 8b3e f8ea c0be 1418 aabd
000000f0: 3d9d d4bf 08f7 e63f eeb1 1b3e 3943 3abe
00000100: eced b1bf accb 79bf 9d58 fabd 3c3c 37bf
00000110: 7ff8 b53f b33a 39bf 6b0c 2e3f ce96 ce3f
00000120: 2e49 b93d 14b6 9fbe 86c7 523e 4aaa 0240
00000130: d670 cb3e 2383 1e3f 7b6d 853e 007c d0be
00000140: 8cf1 3d3f a33b 23bf 54cc 3c3f 8c75 81bd
00000150: 527f 063e 55f3 123f ff0a a03e 37d4 d53e
00000160: 0db6 2d3f bbac c33d 5b72 a5be 28a0 2bbf
00000170: 7b1c 84bf d287 c0be 4cec 2c3e 00c6 d33f
00000180: 06f7 cc3e de68 ffbe 2a89 9c3f 0482 fa3d
00000190: 3b20 cbbd e62e d53f bff3 2cbf bf11 e63f
000001a0: edd3 14bf 33da 94bf 98ae c1bf 4dc8 94bf
000001b0: 27d6 c53e 9c22 06c0 25ad 70be 9a58 b33e
000001c0: 7458 393f 0bf9 e73e 4aee abbf e81d 27bc
000001d0: dced 94bf fc22 0b3f 8eda cc3f 4e48 0d3f
000001e0: 5585 b5bf 4e43 323f 4ab6 663f 5d80 073d
000001f0: 476e c0bf b0a2 1b3f 3079 573d d67f ef3d

bn_cont.weight f4 [34]
0.9322519 0.78361577 0.8868594 0.9038375 1.5869716 0.80408937 0.8684455 0.8907642
0.905045 1.4791393 1.2284949 0.8030782 0.7679175 0.862772 0.7893195 0.7433467
0.78858227 0.94115067 0.92508656 0.8888413 0.9196307 0.87295645 1.0428365 0.89517045
0.95085156 0.94499177 0.83058876 0.84421045 0.8301044 0.89225405 0.87552243 1.6989421
1.2252964 1.3512726
00000000: 0fa8 6e3f 0b9b 483f 3809 633f e561 673f
00000010: e321 cb3f cdd8 4d3f 7252 5e3f 1f09 643f
00000020: 07b1 673f 7054 bd3f 523f 9d3f 8896 4d3f
00000030: 3e96 443f a0de 5c3f d810 4a3f f84b 3e3f
00000040: 87e0 493f 40ef 703f 79d2 6c3f 1a8b 633f
00000050: eb6c 6b3f 137a 5f3f ab7b 853f e429 653f
00000060: 026b 733f fbea 713f 77a1 543f 2d1e 583f
00000070: b981 543f c36a 643f 3d22 603f ef76 d93f
00000080: 83d6 9c3f 80f6 ac3f

bn_cont.bias f4 [34]
-0.2189877 -0.08714987 0.01650475 0.18776031 -0.010311895 -0.085013814 -0.12610361 -0.113169566
-0.23400483 0.046820015 0.105581716 0.02386041 -0.039752122 0.048357096 0.1693796 0.059089847
-0.104679145 -0.18957272 -0.09388264 -0.1549102 -0.24638212 -0.29903808 0.12496976 0.2191289
-0.26391047 -0.12790993 -0.013377864 -0.29290935 -0.24279442 0.07798693 -0.23604009 0.27505603
-0.031371973 0.013906905
00000000: 503e 60be a27b b2bd f834 873c 3d44 403e
00000010: 39f3 28bc b91b aebd 4e21 01be 72c5 e7bd
00000020: f69e 6fbe 58c6 3f3d 3a3b d83d e876 c33c
00000030: 1fd3 22bd 1712 463d d971 2d3e 3208 723d
00000040: 0562 d6bd 5a1f 42be 8b45 c0bd c8a0 1ebe
00000050: 984b 7cbe 851b 99be 25f0 ff3d 5463 603e
00000060: 461f 87be d2fa 02be d42e 5bbc 37f8 95be
00000070: 1a9f 78be 9db7 9f3d 7eb4 71be 25d4 8c3e
00000080: e67f 00bd cad9 633c

bn_cont.running_mean f4 [34]
89.22692 -0.8031598 5.7566867 0.27254075 0.42123803 1.0645657 1.0948746 -0.111024246
0.59338605 0.016867032 2.3644807 61317.01 123919.21 193149.06 0.96468973 4.912557
0.51133686 2.3103855 -129.80106 -3.594828 -2.1235437 27.014793 -24.22629 3.4102
1.6026475 89.506035 2219.8816 6.465086 54.03426 3.360638 176.7505 0.27691942
70.70649 7.1855803
00000000: 2f74 b242 e19b 4dbf c736 b840 768a 8b3e
00000010: 83ac d73e b043 883f da24 8c3f ae60 e3bd
00000020: 26e8 173f bb2c 8a3c a753 1740 0385 6f47
00000030: 9b07 f247 449f 3c48 e8f5 763f ab33 9d40
00000040: f9e6 023f 5bdd 1340 12cd 01c3 a911 66c0
00000050: 24e8 07c0 4c1e d841 71cf c1c1 b840 5a40
00000060: 8e23 cd3f 1703 b342 1bbe 0a45 fce1 ce40
00000070: 1523 5842 b114 5740 21c0 3043 62c8 8d3e
00000080: b969 8d42 46f0 e540

bn_cont.running_var f4 [34]
34.20518 3.51351 0.3079612 0.19822614 0.24367617 1.008718 0.6558703 0.833659
0.43514028 0.28978115 0.32019705 3.590216e+10 6.4581313e+10 8.691311e+10 0.6660561 6.508388
0.24988109 31.651983 71.624146 6.8412595 125.13466 15.614445 67.52574 0.03243853
0.009843851 38.603607 149512.17 0.21980177 0.21264698 3.3930817 4927.649 439.1767
47.175476 0.6406615
00000000: 1bd2 0842 59dd 6040 17ad 9d3e cbfb 4a3e
00000010: 3f86 793e ac1d 813f 1ee7 273f ad6a 553f
00000020: b5ca de3e 325e 943e def0 a33e f8be 0551
00000030: 8a95 7051 66e3 a151 a782 2a3f b744 d040
00000040: d4e0 7f3e 4337 fd41 903f 8f42 99eb da40
00000050: f244 fa42 c4d4 7941 2e0d 8742 44de 043d
00000060: 1b48 213c 186a 1a42 0b02 1248 b713 613e
00000070: 21c0 593e 4028 5940 31fd 9945 9e96 db43
00000080: b0b3 3c42 6402 243f

fc1.weight f4 [64, 50]
0.04054674 -0.03872324 0.002473253 -0.035387438 0.040410034 -0.037048966 -0.07423277 -0.077302225
0.09339999 0.034728568 0.071165845 -0.0006822272 -0.021606421 0.045126185 0.030490233 0.030431751
0.05625246 0.054434076 0.041475296 -0.05854481 0.17091958 0.003909388 0.15251942 -0.030558825
0.11262946 -0.37624273 -0.019323716 -0.116027184 0.05237311 0.07263471 -0.045554046 -0.040934764
0.008953535 -0.03748176 0.022759872 -0.057760525 -0.007950525 -0.09275288 -0.008875721 0.029981056
0.03429744 0.09699646 0.031030644 -0.060174406 -0.05582253 -0.11748882 -0.028246298 0.18384896
-0.09521386 -0.19949992 0.00031009057 0.004606859 0.061089884 -0.08113587 0.025663177 0.048677184
-0.02927332 0.012862465 0.010850362 0.107145704 -0.07011848 0.03252728 0.01227281 0.012061156
0.0050774766 -0.0013882482 0.021090595 -0.0033393467 -0.12821364 0.044568732 -0.18765423 0.042540964
0.065932944 0.018496474 -0.036333717 0.0016931414 -0.013292496 -0.010608402 0.027889863 0.0059438283
-0.09631647 -0.07127271 -0.049949955 0.06997921 0.049845964 -0.029478408 0.11413661 0.20241384
-0.07258724 -0.03752265 0.03774432 -0.07264228 0.00057776173 0.13863707 0.0020098656 -0.057349227
0.11235868 -0.40313926 -0.009764202 -0.102014065 -0.007983253 0.05084069 -0.011819276 0.029008364
-0.018893117 -0.02026928 0.07182674 -0.0009930319 -0.041351367 0.061305933 0.015746875 0.0006338944
-0.0027088022 -0.029179303 0.036543928 0.016695406 0.1025195 -0.073171824 0.051590204 -0.078127876
0.2037785 0.082139954 -0.06319103 0.037416168 0.078944445 -0.19411324 -0.18500265 0.017714133
-0.024136515 0.033641204 0.020543598 0.06887935 -0.009674781 -0.13357574 -0.08792219 0.036457393
0.114823304 -0.06301332 -0.16698249 0.06993803 0.09995261 0.1674603 -0.102272585 0.06809785
0.064844534 -0.060834516 0.11163863 0.19084515 0.09621923 -0.17402525 -0.017644247 0.07380398
0.05577418 0.031493243 -0.13021418 0.05570738 0.07391876 0.069021896 -0.13016129 0.03934157
-0.09760662 0.10261199 0.07260189 0.09903996 -0.09142512 -0.048689473 -0.12626427 -0.045651905
0.09104541 -0.0060202824 -0.17938398 -0.08670329 0.13334644 -0.09914851 0.012757259 -0.04200704
-0.14931144 0.01464208 0.0068284245 -0.094683744 0.16042455 0.09588732 0.016396731 -0.004370938
-0.07622137 0.012241295 5.0271574e-05 -0.043395538 0.08510218 0.03032103 0.13408887 0.09666854
-0.13092478 0.13131653 0.10476008 0.016337063 -0.06841708 -0.19068691 0.060701996 -0.20383094
0.08493092 -0.0066986876 -0.08465576 -0.019681655 0.07367056 -0.009164939 -0.085751526 0.03348989
-0.058112994 -0.00855368 -0.003771534 -0.04730056 0.033100408 -0.0047576614 0.008710191 -0.0067404686
-0.036368206 0.12256653 -0.07601854 -0.110178225 0.12278464 -0.013234399 0.018054422 0.09119976
0.11458221 -0.20577404 0.06784194 -0.010497382 0.09962933 0.052066308 -0.007138944 0.059099883
-0.025961367 0.05292222 0.088715985 0.05986589 0.06668828 -0.07831742 -0.081421286 -0.077911936
0.06703959 0.069892876 -0.011151227 -0.034294687 -0.08143803 0.012352504 0.01406936 -0.38396788
0.07121085 0.07170811 0.039630894 0.04694575 0.032083575 0.035016045 -0.0019676934 -0.00010979565
00000000: 5714 263d 439c 1ebd 4d16 223b 6bf2 10bd
00000010: fe84 253d a8c0 17bd 5a07 98bd a150 9ebd
00000020: 7e48 bf3d 8b3f 0e3d 66bf 913d 7ed7 32ba
00000030: f3ff b0bc 3cd6 383d a7c6 f93c 024c f93c
00000040: fb68 663d 44f6 5e3d 00e2 293d afcc 6fbd
00000050: 8b05 2f3e 531a 803b 0d2e 1c3e 8056 fabc
00000060: 46aa e63d e3a2 c0be c54c 9ebc a99f edbd
00000070: 3085 563d 82c1 943d e196 3abd 36ab 27bd
00000080: d9b1 123c 7986 19bd e972 ba3c 4d96 6cbd
00000090: eb42 02bc 39f5 bdbd 796b 11bc d59a f53c
000000a0: 797b 0c3d 14a6 c63d fa33 fe3c 7079 76bd
000000b0: 2aa6 64bd fa9d f0bd c864 e7bc e742 3c3e
000000c0: 7cff c2bd b549 4cbe a793 a239 22f5 963b
000000d0: 6339 7a3d 902a a6bd 953b d23c ba61 473d
000000e0: 9ace efbc 17bd 523c b7c5 313c 356f db3d
000000f0: 479a 8fbd 533b 053d e513 493c 289c 453c
00000100: f660 a63b e1f5 b5ba 2fc6 ac3c f1d8 5abb
00000110: 704a 03be b48d 363d 6e28 40be 6f3f 2e3d
00000120: da07 873d eb85 973c aad2 14bd 66ec dd3a
00000130: c5c8 59bc ddce 2dbc 4879 e43c 72c4 c23b
00000140: 9241 c5bd 6df7 91bd 5398 4cbd 4351 8f3d
00000150: 482b 4c3d b47c f1bc 74c0 e93d 9345 4f3e
00000160: 9ea8 94bd 5ab1 19bd ca99 1a3d 7ac5 94bd
00000170: ef74 173a e0f6 0d3e f3b7 033b 06e7 6abd
00000180: 4f1c e63d 4568 cebe 08fa 1fbc c0ec d0bd
00000190: 31cc 02bc 543e 503d a3a5 41bc f3a2 ed3c
000001a0: bdc5 9abc c30b a6bc e619 933d 9f28 82ba
000001b0: 0d60 29bd ee1b 7b3d 97ff 803c ef2b 263a
000001c0: 2986 31bb 6f09 efbc 16af 153d cec4 883c
000001d0: bef5 d13d 1cdb 95bd 4050 533d 8201 a0bd
000001e0: 50ab 503e fe38 a83d 4c6a 81bd b241 193d
000001f0: a0ad a13d 9fc5 46be 5671 3dbe 3b1d 913c
00000200: f1b9 c5bc 5ccb 093d 0c4b a83c 9e10 8d3d
00000210: f982 1ebc 14c8 08be 8d10 b4bd 5954 153d
00000220: 7b28 eb3d 210d 81bd 75fd 2abe ab3b 8f3d
00000230: f4b3 cc3d b67a 2b3e 4a74 d1bd e376 8b3d
00000240: 36cd 843d 9d2d 79bd cba2 e43d e96c 433e
00000250: 960e c53d ad33 32be ab8a 90bc 8b26 973d
00000260: 7773 643d 0fff 003d de56 05be 6c2d 643d
00000270: b862 973d 5a5b 8d3d 0049 05be a024 213d
00000280: fbe5 c7bd 3c26 d23d 4db0 943d 76d5 ca3d
00000290: 183d bbbd 9d6e 47bd 6c4b 01be 7efd 3abd
000002a0: 0476 ba3d ca45 c5bb 6fb0 37be 7f91 b1bd
000002b0: f88b 083e 600e cbbd d303 513c 930f 2cbd
000002c0: 19e5 18be 56e5 6f3c fac0 df3b 8de9 c1bd
000002d0: 5546 243e 9260 c43d 7052 863c 163a 8fbb
000002e0: f319 9cbd b68f 483c b1da 5238 85bf 31bd
000002f0: 0d4a ae3d cf63 f83c 984e 093e 28fa c53d
00000300: 2511 06be d777 063e 748c d63d 4ed5 853c
00000310: 411e 8cbd 6e43 43be a8a2 783d 0fb9 50be
00000320: 43f0 ad3d aa80 dbbb 0060 adbd 6c3b a1bc
00000330: 97e0 963d 8a28 16bc 7f9e afbd b22c 093d
00000340: e407 6ebd bc24 0cbc d72b 77bb 3bbe 41bd
00000350: 4b94 073d 28e6 9bbb 30b5 0e3c 26df dcbb
00000360: d4f6 14bd 2904 fb3d 9caf 9bbd 1fa5 e1bd
00000370: 8376 fb3d 18d5 58bc dee6 933c f1c6 ba3d
00000380: 14aa ea3d 6eb6 52be b7f0 8a3d 36fd 2bbc
00000390: 760a cc3d 7b43 553d ceed e9bb b812 723d
000003a0: efac d4bc f8c4 583d bab0 b53d ef35 753d
000003b0: dd93 883d e264 a0bd 34c0 a6bd 4b90 9fbd
000003c0: 0d4c 893d ff23 8f3d a3b3 36bc 9678 0cbd
000003d0: fbc8 a6bd 2862 4a3c 2c83 663c 7097 c4be
000003e0: fed6 913d b4db 923d 0154 223d 304a 403d
000003f0: 116a 033d fc6c 0f3d 6bf4 00bb 1742 e6b8

fc1.bias f4 [64]
-0.07198005 -0.20781332 -0.036805063 -0.0034442095 -0.2748002 -0.07371642 -0.21363115 -0.076279685
0.0038482177 -0.1290338 -0.030133175 -0.22928074 -0.10522628 -0.14538528 -0.08860381 -0.18905766
-0.18743077 -0.21411732 -0.19572935 0.029075008 -0.28195179 -0.015977535 -0.07242666 -0.0553162
-0.09011098 -0.24828734 -0.14285125 -0.23266278 -0.24897829 -0.06684527 -0.12356573 0.0009397708
-0.11681879 -0.23067467 -0.17998901 -0.14657065 -0.1554068 -0.13070114 -0.1571459 -0.089477874
-0.17719442 -0.37526104 -0.06996301 -0.29604998 -0.06513793 -0.08503544 -0.13452235 -0.10156182
-0.12123397 -0.10901096 -0.061860982 -0.37476966 -0.2860943 -0.05925225 0.07722494 0.0073945713
-0.1951037 -0.06454341 -0.09292294 -0.1516073 -0.07666258 -0.22293389 0.017531278 -0.24098179
00000000: 476a 93bd 04cd 54be e8c0 16bd 3fb8 61bb
00000010: 9db2 8cbe a2f8 96bd 20c2 5abe 8638 9cbd
00000020: 6132 7c3b 7021 04be d9d9 f6bc 92c8 6abe
00000030: e080 d7bd e1df 14be ea75 b5bd 5598 41be
00000040: daed 3fbe 9241 5bbe 466d 48be b62e ee3c
00000050: fc5b 90be 52e3 82bc 6e54 94bd 3d93 62bd
00000060: 1b8c b8bd 093f 7ebe 9947 12be 273f 6ebe
00000070: 2af4 7ebe 2ce6 88bd 0810 fdbd f35a 763a
00000080: b13e efbd fb35 6cbe 0a4f 38be 9e16 16be
00000090: f622 1fbe 85d6 05be dbea 20be 2d40 b7bd
000000a0: 7472 35be 3722 c0be c448 8fbd dd93 97be
000000b0: 0967 85bd 1027 aebd 3ac0 09be a5ff cfbd
000000c0: 8449 f8bd 2341 dfbd f161 7dbd cfe1 bfbe
000000d0: f47a 92be 7db2 72bd 1c28 9e3d 294e f23b
000000e0: 44c9 47be 562f 84bd 624e bebd f23e 1bbe
000000f0: 4501 9dbd c848 64be c19d 8f3c eec3 76be

bn1.weight f4 [64]
1.0622721 1.0144901 1.0676464 0.9042279 0.9660098 0.9731355 1.2111678 1.0548818
1.0744059 0.88980633 1.0462689 0.96423185 0.9187445 0.9230558 0.9617972 0.8779961
1.2000488 1.0945375 1.1117266 0.94969755 1.0277734 1.0508738 0.9290223 0.92166144
1.1333207 0.97007847 0.9169989 1.0065147 0.96412134 0.8493984 0.9848326 0.98778456
0.95895076 0.9217047 0.92448956 0.9698209 0.9296245 0.9678127 0.96413517 0.9846218
1.171356 1.0478019 0.9526138 0.93303007 0.8169058 0.88401234 0.8783895 1.0195129
0.9354469 0.9949636 0.97071743 1.1283251 0.88080496 0.97525924 0.9190884 0.8536463
0.8740481 0.83668894 0.86216915 0.8639036 1.0882394 0.8826191 0.93149436 0.888511
00000000: 88f8 873f d0da 813f a3a8 883f 7b7b 673f
00000010: 6b4c 773f 681f 793f 8c07 9b3f 5e06 873f
00000020: 2286 893f 59ca 633f 24ec 853f e6d7 763f
00000030: d732 6b3f 634d 6c3f 5738 763f 5ac4 603f
00000040: 339b 993f ce19 8c3f 0f4d 8e3f 611f 733f
00000050: 148e 833f 0883 863f 68d4 6d3f 01f2 6b3f
00000060: a710 913f 1057 783f 71c0 6a3f 79d5 803f
00000070: a8d0 763f 2c72 593f fd1d 7c3f 73df 7c3f
00000080: cc7d 753f d7f4 6b3f 59ab 6c3f 2f46 783f
00000090: dffb 6d3f 93c2 773f 90d1 763f 2d10 7c3f
000000a0: feee 953f 5f1e 863f 7fde 733f 0fdb 6e3f
000000b0: bd20 513f a24e 623f 22de 603f 667f 823f
000000c0: 7379 6f3f efb5 7e3f f080 783f f56c 903f
000000d0: 6f7c 613f 97aa 793f 6149 6b3f 9088 5a3f
000000e0: 9ec1 5f3f 3f31 563f 1eb7 5c3f c928 5d3f
000000f0: 6e4b 8b3f 53f3 613f 6a76 6e3f 7575 633f

bn1.bias f4 [64]
-0.1755493 -0.2747012 -0.011939612 -0.035245378 -0.30471024 -0.05685888 -0.17533861 -0.062374685
-0.045030225 -0.10315412 -0.02731181 -0.19207604 -0.05964361 -0.02207374 -0.120697975 -0.09150098
-0.18196297 -0.20534505 -0.092174724 -0.20063141 -0.13045886 -0.0044922996 -0.16865753 -0.04234787
-0.18242432 -0.07478275 -0.057867553 -0.037439242 -0.22214776 -0.122647114 -0.19106269 -0.0058029527
-0.112775594 -0.09116949 0.1452959 -0.033611916 -0.06334519 -0.16839057 0.01678836 0.0003954479
-0.05958335 -0.68855095 0.060684007 -0.17925368 -0.18620454 -0.21844368 -0.17502277 -0.120788746
-0.08931793 -0.10031519 -0.0031651964 -0.3885483 -0.36712006 -0.07107391 -0.039705463 -0.10960699
-0.08853198 -0.074777305 -0.1530786 -0.061435517 -0.0055739 -0.08420727 -0.040170647 -0.26479608
00000000: 32c3 33be a3a5 8cbe 5d9e 43bc 755d 10bd
00000010: fb02 9cbe dbe4 68bd f78b 33be 997c 7fbd
00000020: 9d71 38bd 7842 d3bd 04bd dfbc 95af 44be
00000030: dc4c 74bd fdd3 b4bc 8030 f7bd de64 bbbd
00000040: 8054 3abe f945 52be 1ac6 bcbd 5272 4dbe
00000050: 0297 05be 2434 93bb 8fb4 2cbe f674 2dbd
00000060: 71cd 3abe b327 99bd 8706 6dbd e459 19bd
00000070: b47a 63be 692e fbbd f0a5 43be b226 bebb
00000080: e4f6 e6bd 12b7 babd 73c8 143e a6ac 09bd
00000090: 1fbb 81bd 946e 2cbe be87 893c 1e54 cf39
000000a0: ac0d 74bd e044 30bf cb8f 783d 478e 37be
000000b0: 67ac 3ebe b3af 5fbe 2b39 33be 1760 f7bd
000000c0: 52ec b6bd 0d72 cdbd 2f6f 4fbb ceef c6be
000000d0: 29f7 bbbe 338f 91bd 32a2 22bd a179 e0bd
000000e0: 4150 b5bd d824 99bd a3c0 1cbe cfa3 7bbd
000000f0: 43a5 b6bb dc74 acbd fa89 24bd 5a93 87be

bn1.running_mean f4 [64]
-0.08395355 -0.5853547 -0.16769212 -0.14794928 -0.5793349 -0.2528281 -0.29573292 -0.40757695
0.074056074 -0.081223145 -0.1477639 -0.4657899 -0.33645093 -0.274408 0.038175263 -0.3366264
-0.40589467 -0.3231451 -0.25906688 -0.020952232 -0.26733804 -0.18762985 -0.2920397 -0.28154346
-0.29683474 -0.3557908 -0.3091848 -0.28065994 -0.4607493 0.082169145 -0.41554257 -0.16621903
-0.34645095 -0.18747963 -0.26833656 -0.32039025 -0.30400637 -0.309283 -0.22010867 -0.33439332
-0.2962822 -0.7418884 -0.23626861 -0.37914076 0.060024105 -0.31809396 -0.33303577 -0.3568261
-0.2700842 -0.28808364 -0.29387593 -0.48943734 -0.17511368 -0.28616083 0.14876921 -0.0119868005
-0.290741 -0.19208942 0.1800283 -0.23310755 -0.25274593 -0.45407677 -0.17339765 -0.2674399
00000000: d7ef abbd ced9 15bf 7cb7 2bbe 0480 17be
00000010: 4b4f 14bf af72 81be 4e6a 97be edad d0be
00000020: b6aa 973d 5258 a6bd 6b4f 17be 047c eebe
00000030: 4c43 acbe 357f 8cbe aa5d 1c3d 4c5a acbe
00000040: 6dd1 cfbe 4673 a5be 6aa4 84be 04a4 abbc
00000050: 88e0 88be 0a22 40be 3a86 95be 7726 90be
00000060: b9fa 97be 362a b6be 784d 9ebe a9b2 8fbe
00000070: 55e7 ebbe 4c48 a83d ffc1 d4be 5235 2abe
00000080: 0562 b1be a9fa 3fbe 6963 89be 310a a4be
00000090: b9a6 9bbe 575a 9ebe 2b64 61be 9a35 abbe
000000a0: 4db2 97be 66ec 3dbf 66f0 71be bd1e c2be
000000b0: d6db 753d 36dd a2be aa83 aabe e9b1 b6be
000000c0: 7a48 8abe b37f 93be e876 96be 8897 fabe
000000d0: 0051 33be ac83 92be f556 183e 4964 44bc
000000e0: 01dc 94be 17b3 44be 5759 383e bfb3 6ebe
000000f0: ea67 81be c07c e8be 278f 31be e2ed 88be

bn1.running_var f4 [64]
0.92001283 0.9633372 0.6464172 0.59564 0.90008855 0.4704428 0.55648685 0.63355976
0.70822024 0.76289815 0.5830306 0.80263627 0.7442067 0.7269029 0.43435866 0.46508723
0.8895287 0.8448822 0.5353773 0.58115673 0.7782448 0.65577763 0.7419321 1.0357051
0.6125714 0.5944216 0.6402885 0.69897467 0.59912443 0.4582416 0.9727614 0.50259537
0.519503 0.5827656 0.84210235 0.58273035 0.5652931 0.5283746 0.5561594 0.55479836
0.64985734 0.8509923 0.4080041 0.64510137 0.4796922 0.5008863 0.49270228 0.8670716
0.6704608 0.5003888 0.67411005 0.8124042 0.7519679 0.67025846 0.31188312 0.49637908
0.4159677 0.53315413 0.47831383 0.5331745 0.71530527 0.68662554 0.3949016 0.61023563
00000000: f685 6b3f 449d 763f 997b 253f dd7b 183f
00000010: 346c 663f e1dd f03e ec75 0e3f f930 223f
00000020: ec4d 353f 4b4d 433f 7e41 153f 9279 4d3f
00000030: 5584 3e3f 4f16 3a3f 4264 de3e ea1f ee3e
00000040: 27b8 633f 334a 583f 7d0e 093f b0c6 143f
00000050: 0d3b 473f 0be1 273f 43ef 3d3f fc91 843f
00000060: 7bd1 1c3f 042c 183f f2e9 233f 01f0 323f
00000070: 3860 193f a59e ea3e e406 793f 17aa 003f
00000080: 26fe 043f 2030 153f 0594 573f d12d 153f
00000090: 0cb7 103f 8f43 073f 7660 0e3f 4407 0e3f
000000a0: 0d5d 263f a2da 593f eae5 d03e 5d25 253f
000000b0: 379a f53e 163a 003f 7943 fc3e 68f8 5d3f
000000c0: 52a3 2b3f 7b19 003f 7a92 2c3f b9f9 4f3f
000000d0: f880 403f 0f96 2b3f 25af 9f3e 6625 fe3e
000000e0: b8f9 d43e ca7c 083f 8de5 f43e 207e 083f
000000f0: 3f1e 373f b1c6 2f3f 8b30 ca3e 6738 1c3f

fc2.weight f4 [32, 64]
0.06449231 0.08234533 -0.03434488 -0.04929076 0.061291665 0.008931971 -0.10717241 -0.048336133
-0.19401488 -0.028353129 0.07905066 0.08827169 0.025460012 0.015221243 -0.013454105 -0.036058996
0.071892865 0.13364027 0.0371056 -0.059274994 -0.12830961 0.061396655 -0.0033214097 0.0017153104
0.033602484 -0.071202524 0.023665015 -0.0046394914 0.030665567 -0.018392347 -0.098860204 0.012721284
0.0653255 -0.0013991797 -0.043998685 -0.04726201 -0.013735582 5.1443632e-05 -0.035954874 -0.10465932
-0.24088797 -0.14551759 -0.071374014 -0.0056806915 -0.059333846 0.011869894 0.022625143 0.15714543
0.020958586 -1.1796961e-05 0.038029123 0.22343877 0.009718598 0.07896403 -0.06643198 0.032801736
0.0854012 -0.029189425 -0.06845676 -0.016023615 -0.107978106 -0.13119406 0.033535413 0.032981295
0.017565148 -0.14351878 -0.0690325 0.14815973 -0.043145314 0.0071507003 0.13696758 0.13017952
0.055440404 -0.08545068 0.042205144 0.093367465 -0.05811051 -0.015630402 0.025629867 -0.066669606
0.020542689 -0.13731025 0.14730665 0.030877864 -0.017235773 -0.017438818 -0.13301283 -0.08233138
0.10353997 0.042446084 0.08076329 -0.056433856 0.07519748 -0.015199992 0.15134941 0.05722569
-0.007446293 0.018625401 -0.016477766 0.13587467 -0.1103528 0.08418013 0.05252428 -0.12475631
-0.01378805 -0.05141971 -0.030305134 0.030184506 0.06792486 0.06447461 -0.033511445 -0.119948454
0.041254103 0.02306175 0.05999293 -0.20872042 0.09672042 -0.082640186 0.073396035 0.020660827
-0.009089291 -0.04585742 -0.056536052 0.11039329 0.064097166 -0.087768644 -0.026350409 -0.0340669
0.0077502932 -0.0029423728 0.113007486 0.085514724 -0.0024818683 0.05896663 -0.11983419 -0.04938068
-0.03954857 0.082268715 0.06408588 -0.19693501 -0.050680652 -0.019904435 0.009910794 0.016746687
0.08391349 0.110660486 0.2050624 -0.24224368 -0.22972135 0.05759026 -0.046264753 0.10452275
0.056683924 0.019286318 0.012761156 -0.07124581 0.047275726 -0.035076756 0.100998685 -0.13449128
0.043099802 -0.00066295423 -0.05830451 -0.08799568 0.104925364 0.019331513 0.07609482 0.03834515
-0.1772407 0.077827804 -0.083540075 -0.229916 0.0552671 -0.01895721 -0.05268615 -0.15425554
0.05265936 0.15611495 -0.024165446 -0.035863657 -0.015267726 0.008007958 -0.021834407 -0.09493003
-0.013786666 -0.1102091 -0.02047361 -0.040585253 -0.1546334 0.007401167 0.067709 -0.0111786835
-0.06414143 -0.0067691044 -0.09997524 -0.06502997 0.059897833 -0.06464462 0.14677832 0.048681937
0.08221907 0.076711036 -0.28882226 0.019110328 0.01931654 -0.009209778 -0.056993082 0.06299571
-0.08731389 -0.16973329 0.089717515 0.012384206 0.06505359 -0.073570445 -0.035888024 -0.030565064
-0.02758245 0.08492937 0.002759831 -0.18088989 -0.10815884 -0.0019416347 -0.108696274 -0.16737749
-0.11074907 0.057803486 0.1378096 0.105594695 0.051165726 0.0068808612 0.07891142 -0.1264209
0.05616969 -0.13080843 0.06309344 -0.031389195 -0.07101759 0.06471121 0.033253647 -0.035131425
-0.08889981 0.10359683 0.03442444 -0.13216998 -0.16182466 -0.024825122 -0.07982109 -0.01937139
-0.063182145 0.063507095 0.07416654 -0.047964618 0.12999102 -0.09885413 0.064564966 0.059186805
00000000: 8b14 843d aba4 a83d 38ad 0cbd 1ce5 49bd
00000010: f80c 7b3d 6757 123c 357d dbbd 1cfc 45bd
00000020: d6ab 46be d244 e8bc 50e5 a13d cac7 b43d
00000030: 8491 d03c 8562 793c 9b6e 5cbc 99b2 13bd
00000040: 913c 933d ffd8 083e 0bfc 173d 56ca 72bd
00000050: 9863 03be 0f7b 7b3d 02ac 59bb 44d4 e03a
00000060: c2a2 093d a1d2 91bd 22dd c13c e006 98bb
00000070: 5b36 fb3c 8cab 96bc 3877 cabd ef6c 503c
00000080: 60c9 853d ae64 b7ba f737 34bd cf95 41bd
00000090: 350b 61bc 2ec5 5738 6b45 13bd a057 d6bd
000000a0: 56ab 76be 9002 15be 8a2c 92bd 1825 babb
000000b0: 0c08 73bd f279 423c 5d58 b93c bbea 203e
000000c0: 57b1 ab3c 90eb 45b7 6dc4 1b3d 22cd 643e
000000d0: c13a 1f3c e5b7 a13d 7d0d 88bd 1d5b 063d
000000e0: d3e6 ae3d a91e efbc 0f33 8cbd f543 83bc
000000f0: a023 ddbd bc57 06be 6e5c 093d 6517 073d
00000100: c9e4 8f3c 96f6 12be e960 8dbd 2fb7 173e
00000110: 24b9 30bd 6c50 ea3b 3b41 0c3e c84d 053e
00000120: 7a15 633d c400 afbd 4ddf 2c3d 7137 bf3d
00000130: 4905 6ebd 540b 80bc baf5 d13c 138a 88bd
00000140: 2449 a83c 0f9b 0cbe 8ed7 163e 93f3 fc3c
00000150: 0932 8dbc dadb 8ebc 8434 08be 5b9d a8bd
00000160: c40c d43d f2db 2d3d 3967 a53d 3027 67bd
00000170: 2301 9a3d 6309 79bc 57fb 1a3e 7c65 6a3d
00000180: 0800 f4bb 4c94 983c 61fc 86bc bb22 0b3e
00000190: a600 e2bd a266 ac3d b323 573d 3c80 ffbd
000001a0: 46e7 61bc 799d 52bd 7942 f8bc 7f45 f73c
000001b0: 301c 8b3d 440b 843d 4c43 09bd 89a7 f5bd
000001c0: 10fa 283d ffeb bc3c 26bb 753d ceba 55be
000001d0: 5b15 c63d 423f a9bd a950 963d e540 a93c
000001e0: 40eb 14bc fdd4 3bbd 5992 67bd e115 e23d
000001f0: 6045 833d 0cc0 b3bd d0dc d7bc bc89 0bbd
00000200: 2cf6 fd3b d3d4 40bb 7870 e73d 5822 af3d
00000210: d7a6 22bb fe86 713d a16b f5bd 6543 4abd
00000220: aefd 21bd 807c a83d 753f 833d 55a9 49be
00000230: 8496 4fbd a00e a3bc e260 223c 5930 893c
00000240: d6da ab3d f7a1 e23d e1fb 513e ba0e 78be
00000250: 133c 6bbe c4e3 6b3d 1c80 3dbd 0610 d63d
00000260: 672d 683d 57fe 9d3c 2b14 513c 53e9 91bd
00000270: 31a4 413d a5ac 0fbd 66d8 ce3d 15b8 09be
00000280: 6b89 303d 1bca 2dba b6d0 6ebd 1437 b4bd
00000290: 1ce3 d63d 1f5d 9e3c 9ad7 9b3d ce0f 1d3d
000002a0: 967e 35be 2f64 9f3d 0f17 abbd 1a6f 6bbe
000002b0: c15f 623d 274c 9bbc 6fcd 57bd 2af5 1dbe
000002c0: 57b1 573d 99dc 1f3e 9df6 c5bc c5e5 12bd
000002d0: 7c25 7abc cf33 033c 12de b2bc ad6a c2bd
000002e0: 78e1 61bc 4fb5 e1bd 46b8 a7bc b93c 26bd
000002f0: 3858 1ebe 7d85 f23b 04ab 8a3d cc26 37bc
00000300: 955c 83bd 5dcf ddbb d2bf ccbd 6f2e 85bd
00000310: 6e57 753d 6664 84bd 0e4d 163e b666 473d
00000320: 7962 a83d ad1a 9d3d 83e0 93be 438d 9c3c
00000330: b83d 9e3c 9ce4 16bc 9471 69bd e503 813d
00000340: a0d1 b2bd 90ce 2dbe d1bd b73d 20e7 4a3c
00000350: d13a 853d 1aac 96bd 52ff 12bd 9663 fabc
00000360: 97f4 e1bc 73ef ad3d 48de 343b 333b 39be
00000370: 6282 ddbd 737e feba 279c debd 0165 2bbe
00000380: 69d0 e2bd 59c3 6c3d f61d 0d3e 0842 d83d
00000390: 2793 513d d978 e13b 509c a13d 7b74 01be
000003a0: 3012 663d a5f2 05be 2237 813d f591 00bd
000003b0: ac71 91bd 5087 843d fa34 083d f8e5 0fbd
000003c0: 1b11 b6bd 932a d43d a400 0d3d 9157 07be
000003d0: 5db5 25be 0e5e cbbc 3d79 a3bd c0b0 9ebc
000003e0: a465 81bd 0210 823d a0e4 973d 8c76 44bd
000003f0: 5e1c 053e 0974 cabd a33a 843d dd6d 723d

fc2.bias f4 [32]
-0.053947113 0.048931964 0.03561303 0.095821865 0.24084552 -0.03358845 0.14994769 0.25592184
0.050252765 0.07963157 0.01490085 0.18318653 -0.0016068647 0.06903804 0.27342585 0.059975658
0.07320883 0.15147048 0.061411507 0.16005452 0.04889691 0.2747413 0.09044543 -0.026127169
-0.024947768 0.09233654 -0.10945689 0.05890967 -0.16522177 -0.015217452 0.17991385 0.099414006
00000000: a6f7 5cbd e26c 483d f8de 113d 413e c43d
00000010: 35a0 763e 0b94 09bd e38b 193e 3008 833e
00000020: d8d5 4d3d e015 a33d b222 743c 4095 3b3e
00000030: 6f9d d2ba d163 8d3d 79fe 8b3e 09a9 753d
00000040: 83ee 953d 141b 1b3e a28a 7b3d 55e5 233e
00000050: 2048 483d e4aa 8c3e 743b b93d a508 d6bc
00000060: 435f ccbc f11a bd3d ef2a e0bd 444b 713d
00000070: e52f 29be 9f52 79bc 563b 383e 9299 cb3d

bn2.weight f4 [32]
1.0979809 1.0307374 1.1622567 1.1919901 1.111482 0.9770839 1.0493413 1.1806376
1.1302692 0.9538235 0.95984083 1.2998227 1.1342192 1.0436265 1.3018374 1.1372585
1.1142397 1.1102817 1.241886 1.2637197 0.9537729 1.1415055 1.0746661 0.99432874
1.1760659 1.2810165 0.98615617 1.1795242 1.0916399 1.2871592 1.2667531 1.2596868
00000000: a38a 8c3f 34ef 833f d4c4 943f 2293 983f
00000010: 0b45 8e3f 2c22 7a3f d150 863f 221f 973f
00000020: a9ac 903f c72d 743f 21b8 753f 9760 a63f
00000030: 182e 913f 8e95 853f 9ca2 a63f b091 913f
00000040: 689f 8e3f b61d 8e3f 1ff6 9e3f 91c1 a13f
00000050: 762a 743f da1c 923f a98e 893f 548c 7e3f
00000060: 5489 963f 59f8 a33f bb74 7c3f a6fa 963f
00000070: dbba 8b3f a2c1 a43f f724 a23f 6b3d a13f

bn2.bias f4 [32]
-0.040746097 -0.030505553 0.18484305 0.2069694 0.15919343 -0.09205781 0.05046893 0.16873671
0.13907531 -0.052553773 -0.05692383 0.33631384 0.140939 0.0002944564 0.30652115 0.08989051
0.105394095 0.14096956 0.30443057 0.34021908 -0.04840385 0.17834769 -0.02777354 -0.012528738
0.108960055 0.2681104 -0.017229674 0.12401179 -0.015313944 0.095708296 0.17659105 0.27526376
00000000: 61e5 26bd c8e6 f9bc 7f47 3d3e c9ef 533e
00000010: 9a03 233e ce88 bcbd 82b8 4e3d 51c9 2c3e
00000020: c269 0e3e a042 57bd f628 69bd 5431 ac3e
00000030: 5052 103e 4561 9a39 57f0 9c3e 8418 b83d
00000040: dcd8 d73d 535a 103e 53de 9b3e 3231 ae3e
00000050: 1e43 46bd c7a0 363e 5685 e3bc 5645 4dbc
00000060: 7326 df3d c445 893e 3f25 8dbc e5f9 fd3d
00000070: 56e7 7abc b602 c43d 49d4 343e 5fef 8c3e

bn2.running_mean f4 [32]
-0.18597125 0.18157215 -0.18475468 -0.15994178 -0.1064272 -0.26885927 -0.29189837 -0.025395527
0.16707006 -0.09608686 -0.10861792 -0.06819992 -0.0754033 -0.30158076 1.1756374 0.09240356
-0.11276065 -0.114299804 -0.049989637 -0.12025353 -0.08419096 -0.107783586 -0.23166232 -0.10459353
-0.06338039 -0.02632811 -0.20979035 -0.15202315 -0.25052714 -0.112969935 -0.21007775 -0.07415244
00000000: 3f6f 3ebe 0dee 393e 5530 3dbe c7c7 23be
00000010: 81f6 d9bd eca7 89be b473 95be 480a d0bc
00000020: 6a14 2b3e 30c9 c4bd 1273 debd 66ac 8bbd
00000030: 0c6d 9abd cb68 9abe 497b 963f 143e bd3d
00000040: 0eef e6bd 0416 eabd efc1 4cbd 7c47 f6bd
00000050: 4f6c acbd a4bd dcbd e338 6dbe 2235 d6bd
00000060: 94cd 81bd 0cae d7bc 48d3 56be f5ab 1bbe
00000070: 1845 80be c85c e7bd 9f1e 57be 3cdd 97bd

bn2.running_var f4 [32]
0.18531182 0.20878415 0.33284217 0.33518836 0.2154093 0.17170562 0.27552372 0.27883852
0.31474954 0.16876644 0.14488912 0.19535452 0.18784921 0.28067592 0.6706815 0.27074862
0.22971901 0.3012656 0.25996333 0.20489787 0.27148768 0.19643158 0.3998895 0.15873297
0.20778945 0.24065097 0.29193416 0.23206936 0.37002927 0.3837763 0.5288376 0.35208657
00000000: 62c2 3d3e 83cb 553e 4a6a aa3e cf9d ab3e
00000010: 4194 5c3e 99d3 2f3e 7211 8d3e ecc3 8e3e
00000020: da26 a13e 1cd1 2c3e d05d 143e 040b 483e
00000030: 8b5b 403e c1b4 8f3e c8b1 2b3f 909f 8a3e
00000040: 763b 6b3e 7c3f 9a3e ea19 853e bfd0 513e
00000050: 6f00 8b3e 5c25 493e 51be cc3e e58a 223e
00000060: c2c6 543e 356d 763e 6578 953e 97a3 6d3e
00000070: 7a74 bd3e 547e c43e e761 073f b144 b43e

fc3.weight f4 [5, 32]
0.08665218 -0.019381313 0.26720232 0.19247319 0.26321536 -0.050386064 -0.035643462 0.18114209
0.22677293 0.015085464 -0.0057939966 0.123389944 0.10382239 -0.097622804 0.077285565 0.09857223
0.02941129 0.23399854 0.10523675 0.01763566 -0.042188913 0.15332039 0.03423067 -0.03645422
-0.032230288 0.16033228 -0.012614998 0.21410894 0.041293714 0.109519966 0.050381232 0.19575676
-0.14674942 0.077459715 0.21695732 0.02529854 0.13757524 -0.17606586 -0.074259594 0.11187104
0.23255432 0.13606279 0.11352172 0.08462731 0.10301361 0.023966104 0.10198774 0.068958595
-0.005153812 0.110954985 0.060103733 -0.01021583 -0.2750904 0.06287296 -0.2245644 -0.27525958
-0.011218191 0.13358459 -0.17366102 0.05829495 -0.114092775 -0.06888035 -0.19964792 0.19813026
-0.0941102 -0.09621224 -0.0077679483 -0.16705985 -0.2385798 0.15352614 -0.124660745 -0.18996042
0.0076817595 0.024782378 -0.13655426 -0.15910421 -0.10752438 0.0014772807 0.111871734 0.0014254614
-0.268195 -0.0260716 -0.09534619 -0.23604953 -0.0031749636 -0.21306273 -0.31923386 0.0467913
0.08161881 -0.18318096 -0.1682633 -0.0057771867 0.15541935 0.050150014 -0.15266487 0.049489338
-0.2063293 -0.10047943 -0.32249826 -0.39143035 -0.15299813 -0.14358193 -0.36632964 -0.034325592
-0.2537612 -0.065976374 0.014963673 -0.4104134 -0.16566385 -0.28374314 -0.31412607 -0.23232032
-0.1259659 -0.07608231 -0.36022913 -0.43236563 -0.14207181 -0.0996018 -0.038813807 -0.18857661
-0.41994283 -0.104804315 -0.17249736 -0.17377095 -0.20373268 -0.14278124 -0.43698674 -0.15569349
-0.12056307 -0.37157354 -0.19235528 0.04858449 -0.013971443 0.013612771 0.1273827 -0.31638968
-0.2926374 -0.1458939 -0.31497303 0.019873284 0.13679796 0.19301526 -0.3026747 -0.2951313
-0.31666622 -0.23064888 -0.11856887 -0.025485639 0.07614489 -0.109446526 -0.13286006 -0.10216506
-0.35322493 -0.30043966 -0.044941697 -0.12981667 -0.30645698 -0.4621028 0.061614294 -0.33129963
00000000: b376 b13d 8fc5 9ebc bece 883e b117 453e
00000010: 2ac4 863e 9e61 4ebd e1fe 11bd 507d 393e
00000020: 2a37 683e 0629 773c 91db bdbb deb3 fc3d
00000030: d5a0 d43d 77ee c7bd e547 9e3d 3de0 c93d
00000040: f2ef f03c 509d 6f3e 5d86 d73d a978 903c
00000050: 48ce 2cbd 0500 1d3e 7635 0c3d 0551 15bd
00000060: e803 04bd 252e 243e 23af 4ebc 603f 5b3e
00000070: 9923 293d 014c e03d 8d5c 4e3d 7674 483e
00000080: 7b45 16be 33a3 9e3d 0f2a 5e3e e23e cf3c
00000090: 86e0 0c3e 9c4a 34be 6a15 98bd a51c e53d
000000a0: b822 6e3e 0b54 0b3e 137e e83d 1551 ad3d
000000b0: cdf8 d23d 9054 c43c f3de d03d 2a3a 8d3d
000000c0: 4fe1 a8bb 5e3c e33d 552f 763d 4c60 27bc
000000d0: a6d8 8cbe 8ac3 803d 36f4 65be d3ee 8cbe
000000e0: 81cc 37bc 66ca 083e 32d4 31be afc6 6e3d
000000f0: 79a9 e9bd 2411 8dbd 8170 4cbe a9e2 4a3e
00000100: d9bc c0bd ec0a c5bd 468a febb bd11 2bbe
00000110: 434e 74be f535 1d3e 224e ffbd fc84 42be
00000120: 45b7 fb3b 6a04 cb3c e1d4 0bbe 37ec 22be
00000130: be35 dcbd 51a1 c13a 021d e53d 8cd6 ba3a
00000140: db50 89be 1c94 d5bc dd44 c3bd f8b6 71be
00000150: 0d13 50bb 1e2d 5abe 9f72 a3be 3ca8 3f3d
00000160: c327 a73d ca93 3bbe 374d 2cbe 8e4e bdbb
00000170: 4026 1f3e 1a6a 4d3d 2e54 1cbe 55b5 4a3d
00000180: fd47 53be 29c8 cdbd 7e1e a5be 8f69 c8be
00000190: 8bab 1cbe 2407 13be 8f8f bbbe fe98 0cbd
000001a0: fdec 81be 9f1e 87bd 322a 753c b521 d2be
000001b0: c9a3 29be c846 91be 22d5 a0be 61e5 6dbe
000001c0: 34fd 00be 0bd1 9bbd f46f b8be 075f ddbe
000001d0: 467b 11be 07fc cbbd 3afb 1ebd 3a1a 41be
000001e0: bf02 d7be a5a3 d6bd 26a3 30be 03f1 31be
000001f0: 4d9f 50be 3f35 12be babc dfbe 1d6e 1fbe
00000200: c5e9 f6bd e33e bebe c8f8 44be 8800 473d
00000210: 7be8 64bc 1a08 5f3c 9c70 023e d4fd a1be
00000220: 92d4 95be 3665 15be 2544 a1be 4ccd a23c
00000230: c414 0c3e cba5 453e 2ef8 9abe 731b 97be
00000240: 1322 a2be 382f 6cbe 3cd4 f2bd 42c7 d0bc
00000250: daf1 9b3d 8025 e0bd 780c 08be ea3b d1bd
00000260: e6d9 b4be 3ad3 99be c914 38bd a9ee 04be
00000270: eee7 9cbe bd98 ecbe 455f 7c3d 1ba0 a9be

fc3.bias f4 [5]
0.18279564 0.009623415 0.0332514 -0.39718798 -0.06361797
00000000: c82e 3b3e 87ab 1d3c 9f32 083d 395c cbbe
00000010: 234a 82bd
