saved_models/DNN/fold1.pt (torch, 31579 bytes, 20 tensors)

emb_layers.0.weight f4 [16, 8]
0	0xbf7d3ad5	-0.98917896
1	0x3ea063a7	0.3132603
2	0x3efc72cd	0.49306336
3	0xbef69862	-0.48163134
4	0xbe5fc212	-0.21851376
5	0x3f80eb3a	1.0071785
6	0x3e45bfa1	0.19311382
7	0xbe73269d	-0.23745199
8	0x3ea5fce7	0.32419512
9	0x3cca5e62	0.024703208
10	0x3e4a5256	0.19757971
11	0xbff19291	-1.8872854
12	0x3ee898bf	0.45429036
13	0xbde50931	-0.11183394
14	0x3eba20c9	0.36353138
15	0x3f854544	1.0411763
16	0xbba92b9b	-0.005162669
17	0x3e437f44	0.19091517
18	0xbf8ee1ee	-1.1162698
19	0x3f18af10	0.59642124
20	0x3eb22d9a	0.34800416
21	0xbfd976a5	-1.6989332
22	0xbf3e7e3b	-0.7441136
23	0x3f5f0e18	0.8713088
24	0xbf0ff80a	-0.5623785
25	0x3f3e83f8	0.7442012
26	0xbf984053	-1.189463
27	0x3e80b573	0.25138435
28	0x3e912351	0.28347257
29	0xbe8d1216	-0.2755286
30	0xbe8179e3	-0.25288305
31	0x3f803df1	1.0018903
32	0xbfac65d4	-1.3468575
33	0x3ea99e8e	0.3312878
34	0xbee73ad8	-0.45162082
35	0x3faa0a7d	1.3284451
36	0xbf19a487	-0.60016674
37	0xbe9cf331	-0.3065429
38	0xbf7a023d	-0.97659665
39	0x3edb6270	0.4284854
40	0xbec61726	-0.38689536
41	0x3c5269ff	0.012842654
42	0x3e344444	0.17604166
43	0xbf08d027	-0.53442615
44	0x3da30148	0.07959229
45	0xbf3bc364	-0.7334502
46	0xbe1dd4fe	-0.15413281
47	0x3f177895	0.5916837
48	0x3f131c6b	0.5746524
49	0xbf949efe	-1.161102
50	0x3f14c826	0.581179
51	0xbf4988b0	-0.78724194
52	0xbead82a6	-0.3388874
53	0x3fa08976	1.254195
54	0x3ecae711	0.39629415
55	0x3eaee171	0.34156373
56	0xbf3053da	-0.6887795
57	0x3ef0e813	0.4705206
58	0x3f082991	0.53188425
59	0x3f758668	0.9590821
60	0xbef04ac6	-0.46932048
61	0xbf8a638c	-1.0811629
62	0xbfc3be1f	-1.5292395
63	0x3f41e779	0.75743824
64	0xbe082b3c	-0.13297743
65	0x3eaa67bd	0.3328227
66	0xbf6149f3	-0.8800346
67	0x3f884511	1.0646077
68	0xbf24a97c	-0.6432111
69	0x3ea70325	0.32619587
70	0xbf5ca373	-0.86186904
71	0xbfda1852	-1.7038672
72	0xbf42e818	-0.76135397
73	0xbfe30862	-1.7736933
74	0x3e82b2ee	0.25527138
75	0x3ea7e3e9	0.3279107
76	0xbd478c96	-0.048718058
77	0x3e77261d	0.24135633
78	0x3ef037c2	0.4691754
79	0xbf86cf3a	-1.053199
80	0xbfd95e60	-1.6981926
81	0xbdf289de	-0.11842702
82	0x3f2a622a	0.66556036
83	0x3fc2b331	1.5210935
84	0xbf9d123d	-1.2271191
85	0x3de9bed2	0.11413349
86	0x3f625e66	0.8842529
87	0xbeca2ac6	-0.3948576
88	0xbe3f76d8	-0.18697679
89	0x3ec886d6	0.39165372
90	0x3f27b74d	0.6551407
91	0x3f21627a	0.6304089
92	0xbf9883ad	-1.1915184
93	0xbf0e13e1	-0.5549908
94	0x3ea84e85	0.32872406
95	0xbd976e19	-0.07394046
96	0xbf4c7250	-0.7986193
97	0xbf523b47	-0.821217
98	0xbe8d0e4b	-0.27549967
99	0x3e92f271	0.28700593
100	0x3e5bcda0	0.21465158
101	0xbf94311e	-1.1577489
102	0x3ec1e1a1	0.37867454
103	0xbf36654c	-0.71248317
104	0xbdb631a2	-0.088961855
105	0xbed1711e	-0.40906614
106	0xbf168767	-0.5880036
107	0x3eabcb3e	0.335535
108	0x3fb282e8	1.39462
109	0xbf88f5ce	-1.0700014
110	0x3fb17c6d	1.3866097
111	0x3effeb6a	0.49984294
112	0xbfccae9b	-1.5990785
113	0x3f897bb6	1.0740879
114	0x3d0503b2	0.032474227
115	0xbf86ae70	-1.0521984
116	0xbf249d55	-0.6430257
117	0x3f415a3a	0.755283
118	0x3e7ded4f	0.24797557
119	0x3f2a525b	0.66531914
120	0xbe44873e	-0.19192216
121	0x3fdf67b6	1.7453525
122	0xbf143050	-0.5788622
123	0x3ecb2a15	0.39680544
124	0x3ea356e3	0.31902227
125	0xbf216e45	-0.6305888
126	0x3d25d2fd	0.040484417
127	0xbef915ac	-0.48649347

emb_layers.1.weight f4 [16, 8]
0	0xbd91e031	-0.07122839
1	0xbf77e431	-0.9683257
2	0xbde203b3	-0.11035862
3	0x3ee7bc09	0.45260647
4	0xbfb91ef3	-1.446257
5	0xbf671e5c	-0.902807
6	0xbd10463b	-0.035223227
7	0xbe0fefae	-0.14056274
8	0x3ef4e21a	0.47828752
9	0xbf2d7edf	-0.67771715
10	0x3e97df89	0.2966273
11	0xbe75b433	-0.23994522
12	0xbcfd2c3a	-0.030904878
13	0xc008677c	-2.1313162
14	0x3f43f6db	0.76548547
15	0xbf10fba3	-0.5663397
16	0x3f7e1a78	0.9925914
17	0x3ed65c2c	0.41867197
18	0x3fd5085d	1.6643177
19	0x3f807fe9	1.0039035
20	0x3fa3448f	1.2755297
21	0xbf78dd32	-0.9721252
22	0xbeafc31b	-0.3432854
23	0xbf926514	-1.1437097
24	0xbff6d7e0	-1.928463
25	0xbd9b5bda	-0.07585879
26	0x3f1e76a1	0.61899763
27	0xbf617bce	-0.88079536
28	0xbeda9665	-0.42692867
29	0xbe8e2430	-0.27761984
30	0x3f46d809	0.77673393
31	0x3fc2e73b	1.5226816
32	0x3f207669	0.6268068
33	0xbf5baf61	-0.8581448
34	0xbfbd1aad	-1.4773766
35	0x3d32030f	0.04345995
36	0xbd4c2a8c	-0.049845263
37	0x3f97ad69	1.1849796
38	0x3f07e6d9	0.5308662
39	0x3d401bff	0.0469017
40	0x3e9dffc6	0.30859202
41	0xbfe53363	-1.7906307
42	0xbeac8eb7	-0.33702633
43	0x3f83430d	1.0254837
44	0x3ff108bb	1.8830789
45	0x3f68d068	0.90943
46	0x3f130f7c	0.574455
47	0x3ef88e02	0.48545843
48	0xbcbab06b	-0.0227892
49	0x3f4e1fbb	0.80517167
50	0x3f665308	0.89970446
51	0x3ed867e2	0.42266756
52	0x3faa5f13	1.3310264
53	0xbf285193	-0.6574947
54	0xbf10770d	-0.5643166
55	0xbf0dc797	-0.55382675
56	0xbdc0d30f	-0.09415256
57	0x3e0cc2ee	0.13746235
58	0xbe8f7ef5	-0.28026548
59	0x3b40971e	0.0029386948
60	0xbfdc2bbd	-1.7200848
61	0x3fd9aa9e	1.7005193
62	0x3dbad17b	0.091219865
63	0xbd7c72bd	-0.06163286
64	0xbfa9bcdf	-1.3260764
65	0xbf7adb42	-0.9799081
66	0xbe4e6110	-0.20154214
67	0xbf290aa9	-0.6603189
68	0x3fb63d77	1.4237508
69	0xbf4d1c43	-0.8012125
70	0x3f3cabdc	0.73699737
71	0x3fe1a475	1.7628313
72	0x3e5f4fcd	0.21807785
73	0xbeabfca8	-0.335912
74	0x3e6f5f15	0.23376115
75	0x40000971	2.0005763
76	0x3e865b99	0.26241758
77	0x3f196e75	0.5993417
78	0x3e8cb488	0.27481484
79	0xbeb39109	-0.3507159
80	0x3f2b4e76	0.66916597
81	0xbf26ed78	-0.652061
82	0x3f25bc79	0.6474071
83	0xbd0efb06	-0.034907363
84	0x3e19985a	0.14999524
85	0x3f1c3979	0.61025196
86	0x3eabbf4b	0.33544382
87	0x3ebf89a3	0.37409696
88	0x3f2db60d	0.6785591
89	0x3dc3acbb	0.0955443
90	0xbea5725b	-0.3231381
91	0xbf2ba028	-0.67041254
92	0xbf841c7b	-1.0321192
93	0xbec087d2	-0.37603623
94	0x3e2cec4c	0.16887015
95	0x3fd3c600	1.65448
96	0x3ee325f9	0.44364908
97	0xbee03837	-0.4379289
98	0x3f95c848	1.1701746
99	0x3e09298e	0.13394758
100	0x3d869954	0.06572214
101	0x3fdeb5f7	1.7399281
102	0xbf3ce037	-0.73779625
103	0x3ff89e68	1.9423342
104	0xbf1ad92b	-0.6048762
105	0xbfa3c52b	-1.2794546
106	0xbfc204ca	-1.5157712
107	0xbf905d45	-1.1278464
108	0x3ee6cd7a	0.4507864
109	0xbff68fd6	-1.9262645
110	0xbe8d3085	-0.2757608
111	0x3e81f944	0.25385487
112	0x3f303c10	0.6884165
113	0x3f06337f	0.52422327
114	0xbfb5ddea	-1.4208348
115	0x3af72391	0.0018855204
116	0xbf96fadb	-1.1795305
117	0x3f014cbd	0.5050772
118	0x3fcf65f1	1.6202985
119	0x3f2089b5	0.62710124
120	0xbf93f1fe	-1.1558225
121	0x3ede446b	0.43411574
122	0x3f8193e3	1.0123256
123	0xbe45a2a1	-0.19300319
124	0xbfb3c22d	-1.4043633
125	0x3e579a59	0.21054973
126	0x3e88a30e	0.266869
127	0xbd83adaf	-0.06429612

bn_cont.weight f4 [34]
0	0x3f723c36	0.94623125
1	0x3f6336bc	0.88755393
2	0x3f4db612	0.8035594
3	0x3f5b9f80	0.8579025
4	0x3fcc287d	1.5949856
5	0x3f4d49ca	0.8019072
6	0x3f4c51a1	0.79812056
7	0x3f655cfc	0.8959501
8	0x3f639e3e	0.88913333
9	0x3fc5ac69	1.544324
10	0x3f9617c1	1.1725999
11	0x3f39322b	0.72342175
12	0x3f3e8c05	0.744324
13	0x3f5ffac5	0.8749202
14	0x3f3ace74	0.7297127
15	0x3f430f93	0.7619564
16	0x3f486ff5	0.7829583
17	0x3f71e301	0.94487005
18	0x3f56a99b	0.8385255
19	0x3f5d6331	0.8647948
20	0x3f764fba	0.96215403
21	0x3f474209	0.77835137
22	0x3f81e994	1.0149407
23	0x3f5e7e0f	0.869111
24	0x3f6c276b	0.9224765
25	0x3f727b2d	0.947192
26	0x3f5739c9	0.8407255
27	0x3f4dbb14	0.80363584
28	0x3f59777b	0.8494794
29	0x3f68119c	0.9065187
30	0x3f6bb748	0.9207654
31	0x3fd1991d	1.6374851
32	0x3fa29163	1.2700619
33	0x3fb0913d	1.3794323

bn_cont.bias f4 [34]
0	0xbe5a4217	-0.21314274
1	0xbdc2373b	-0.094831906
2	0x3d6922d9	0.056918
3	0x3e9a2d77	0.30112812
4	0xbc471324	-0.01215056
5	0xbd1c175f	-0.038108226
6	0xbe797e16	-0.24364504
7	0xbd92c305	-0.07166103
8	0xbe6838fa	-0.22677985
9	0x3dd1bfe2	0.10241677
10	0x3e3151cb	0.17316358
11	0xbdae75e2	-0.08518578
12	0xbc8db687	-0.01729895
13	0x3d39b570	0.045339048
14	0x3da5b9d5	0.08092085
15	0x3cbcb209	0.023034113
16	0xbe621609	-0.22078718
17	0xbe5a4d8f	-0.21318649
18	0xbe61df24	-0.22057778
19	0xbe0ae6e6	-0.13564643
20	0xbe723dc7	-0.23656379
21	0xbe6b7b91	-0.22996356
22	0x3e1f08a6	0.15530643
23	0x3e09c5a5	0.13454302
24	0xbdfe93a9	-0.12430508
25	0xbe1abb4d	-0.15110512
26	0xbd9b59a1	-0.07585455
27	0xbe91986f	-0.2843661
28	0xbea4d3d1	-0.32192853
29	0x3e0643a7	0.13111745
30	0xbe1af399	-0.15131988
31	0x3e9f38cc	0.3109802
32	0xba99d93a	-0.0011737712
33	0xbd382886	-0.04496052

bn_cont.running_mean f4 [34]
0	0x42b25f86	89.18657
1	0xbf4a9c38	-0.7914462
2	0x40b8711e	5.7638083
3	0x3e8d6851	0.2761865
4	0x3ed70008	0.4199221
5	0x3f88f11a	1.0698578
6	0x3f8c10f1	1.094267
7	0xbde037ae	-0.1094812
8	0x3f164f39	0.58714634
9	0x3bcf869f	0.0063331868
10	0x4017816f	2.367275
11	0x4773d356	62419.336
12	0x47f3d563	124842.77
13	0x483d30bb	193730.92
14	0x3f769305	0.96318084
15	0x409d1236	4.908473
16	0x3f03a999	0.5143066
17	0x400fd58a	2.2474084
18	0xc301be8d	-129.74434
19	0xc0655d11	-3.5838053
20	0xc0057544	-2.0852823
21	0x41d7d0fc	26.977043
22	0xc1c289a7	-24.317213
23	0x405a48e6	3.4106994
24	0x3fcd264a	1.602731
25	0x42b2e945	89.455605
26	0x450af979	2223.592
27	0x40ce985a	6.4560976
28	0x42582ca1	54.043583
29	0x40577d95	3.36704
30	0x4330e526	176.89511
31	0x3d85abd8	0.06526917
32	0x428d89f1	70.76942
33	0x40e608a8	7.1885567

bn_cont.running_var f4 [34]
0	0x42094e14	34.32625
1	0x4061656a	3.5218148
2	0x3e982806	0.29718035
3	0x3e4cba46	0.19992933
4	0x3e79539f	0.24348305
5	0x3f8159f3	1.0105575
6	0x3f28a360	0.6587429
7	0x3f576957	0.8414511
8	0x3edc088d	0.42975274
9	0x3e9407f9	0.28912333
10	0x3ea46ff0	0.32116652
11	0x5107c830	3.64487e+10
12	0x5171dd52	6.4925016e+10
13	0x51a2a3b5	8.731641e+10
14	0x3f2b6baa	0.6696116
15	0x40d2094f	6.5636363
16	0x3e7fcc9e	0.24980399
17	0x41fd82a1	31.688784
18	0x428fc783	71.88967
19	0x40d68c8c	6.7046566
20	0x42fc7cc9	126.24372
21	0x417699cc	15.412548
22	0x42857800	66.734375
23	0x3d028168	0.031861693
24	0x3c1dadb1	0.009623931
25	0x421b4c8e	38.82476
26	0x480fe6f5	147355.83
27	0x3e61fc44	0.22068888
28	0x3e5d43f8	0.2160796
29	0x405bffc6	3.4374862
30	0x45996eea	4909.8643
31	0x43df00a0	446.00488
32	0x4238f5cd	46.24004
33	0x3f212fb4	0.62963414

fc1.weight f4 [64, 50]
0	0x3d4cdd78	0.050015897
1	0x3b39749a	0.002829826
2	0x3cba77f5	0.022762278
3	0xbd1f7b65	-0.038936038
4	0xbc19930b	-0.009373437
5	0xbd3232c5	-0.04350545
6	0xbdd0f7b0	-0.10203493
7	0xbdbcca3c	-0.09218261
8	0x3d99378a	0.07481296
9	0x3d8b5503	0.06803324
10	0x3d6b0e81	0.05738688
11	0xbc52fa12	-0.012877004
12	0xbc639bc3	-0.013892117
13	0x3d5399bd	0.051660288
14	0xbca5121b	-0.020150235
15	0x3d39baf7	0.04534432
16	0x3d97d739	0.07414097
17	0xba29f9ea	-0.00064840785
18	0x3cc1b519	0.023645924
19	0xbd9a6b87	-0.075400405
20	0x3ddfba54	0.10924211
21	0xbd40effd	-0.04710387
22	0x3db609d6	0.08888595
23	0xbb7225a5	-0.0036948707
24	0x3cac0ecf	0.021003155
25	0xbedb0d72	-0.42783695
26	0xbd9635f6	-0.07334511
27	0xbd806c9f	-0.06270718
28	0x3d8c3142	0.06845333
29	0x3db550de	0.08853315
30	0x3c26e27a	0.010185832
31	0x3d5b6427	0.05356231
32	0x3b056c94	0.0020358907
33	0xbc8c3932	-0.017117117
34	0x3c8e97cd	0.017406369
35	0xbc9642bb	-0.018342366
36	0x3cb8510f	0.02249959
37	0x3d23ac8a	0.039959468
38	0xbdcbb0ac	-0.09945807
39	0x3c6af2ca	0.014340112
40	0x3d0bffda	0.034179546
41	0x3db32500	0.087472916
42	0x3c6d4e49	0.014483997
43	0xbdc357b2	-0.09538211
44	0xbc52ef0b	-0.012874375
45	0xbe0f5f42	-0.14001182
46	0xbdf6e697	-0.120557
47	0x3e30ae46	0.1725398
48	0xbda83aed	-0.08214364
49	0xbe029aff	-0.12754439
50	0xbc47e301	-0.012200118
51	0x3cb9ce16	0.022681277
52	0x3d25f117	0.040513124
53	0xbd6afa88	-0.05736783
54	0x39c19542	0.00036923034
55	0x3c98df6a	0.01866122
56	0xbc8973e7	-0.0167789
57	0xbd11dea0	-0.035612702
58	0xbca0f7b9	-0.019649373
59	0x3d9e7e90	0.07738984
60	0xbcea0f92	-0.028571878
61	0x3d0d3cbc	0.03448175
62	0x3c06956d	0.008214337
63	0xbc7a9073	-0.015293228
64	0x3a14e127	0.0005679302
65	0x3cd3adc7	0.0258397
66	0xbb999c2c	-0.0046878066
67	0x3ca46d1b	0.020071557
68	0xbd3b6276	-0.045748197
69	0x3c13d4a4	0.009022865
70	0xbe85f41c	-0.26162803
71	0xbcb96ea1	-0.02263576
72	0x3cce6022	0.025192324
73	0xbba58abd	-0.0050519393
74	0xbccfe92c	-0.02537974
75	0x3c683211	0.014172093
76	0x3d1e8f71	0.038711015
77	0xbc50362c	-0.012708228
78	0xbc6871fc	-0.014187332
79	0x3ba5556d	0.005045584
80	0xbc98cb81	-0.018651726
81	0x3aa08b7a	0.0012248599
82	0x3d7cc625	0.061712403
83	0x3d785aad	0.06063335
84	0x3dae82eb	0.08521064
85	0xbd29f203	-0.041490566
86	0x3dcfdfca	0.10150106
87	0x3e48a25c	0.19593185
88	0xbd94a5ae	-0.072581634
89	0x3cdd85f4	0.027041413
90	0x3d2b0269	0.041750345
91	0xbc2b8139	-0.010467821
92	0xbc521c2b	-0.012824099
93	0x3ce16764	0.02751512
94	0x3df1d2af	0.11807763
95	0xbd87c70e	-0.066297635
96	0x3d1ff139	0.039048407
97	0xbed65a07	-0.4186556
98	0xbd13859d	-0.036016095
99	0xbdfdf6cb	-0.12400588
100	0x3ca90fb9	0.02063738
101	0xbc107f80	-0.008819461
102	0x3ad0681e	0.001590017
103	0x3c05cbe2	0.008166285
104	0xbbc5b94b	-0.0060340515
105	0x3c4c6590	0.012475386
106	0x3dcd537c	0.10025689
107	0x3cf7a9da	0.030232359
108	0xbc9a436a	-0.018830974
109	0x3d8e8563	0.06959035
110	0xbc249578	-0.010045402
111	0x3c77c463	0.015122506
112	0xbb990119	-0.0046693203
113	0x39f8ba19	0.000474409
114	0xbd3867fc	-0.045021042
115	0x3b37c978	0.0028043669
116	0x3dbc9b29	0.09209282
117	0xbd89d71a	-0.067304805
118	0x3d0dae98	0.034590334
119	0xbd982026	-0.07428007
120	0x3e63901d	0.22222944
121	0x3d503a74	0.050836995
122	0xbcc75407	-0.02433206
123	0xbaefd0fd	-0.0018296536
124	0x3cda7b0a	0.026669998
125	0xbdfe4c44	-0.1241689
126	0xbe629ef3	-0.22130947
127	0xbbbb9e95	-0.0057256916
128	0x3d71d6c2	0.0590427
129	0x3d3a397c	0.045464978
130	0x3b98c535	0.004662181
131	0x3d31f1a0	0.043443322
132	0xbbf1cf7e	-0.0073794713
133	0xbdd4b09c	-0.10385248
134	0xbd8f846d	-0.0700768
135	0x3d03242e	0.032016926
136	0x3d8f3919	0.069933124
137	0xbc5d84d0	-0.0135204345
138	0xbe47fa79	-0.19529141
139	0x3d18c0f9	0.037293408
140	0x3d85f5d5	0.06541029
141	0x3e0cf4a3	0.13765197
142	0xbe0d18f5	-0.13779052
143	0x3d6af269	0.057360087
144	0x3d9cbedb	0.0765359
145	0xbd8a0fe6	-0.06741314
146	0x3ddcc699	0.10780067
147	0x3e4feacc	0.20304412
148	0x3dcb6b67	0.09932595
149	0xbe865fc1	-0.2624493
150	0xbc98c96a	-0.01865073
151	0x3dbd4f47	0.092436366
152	0xbd77f14c	-0.060532853
153	0x3cb0797f	0.021542309
154	0xbd0a9cf5	-0.033841092
155	0x3d04b2c4	0.032397047
156	0x3d5cd65f	0.053915378
157	0x3d86017e	0.06543253
158	0xbe0cd751	-0.13754012
159	0x3d7e96bb	0.062155467
160	0xbddcdce7	-0.10784321
161	0x3b1a3ac9	0.0023533574
162	0x3da489c1	0.08034087
163	0x3dafbfbd	0.08581493
164	0xbdd52e4c	-0.10409221
165	0x3c177899	0.009245061
166	0xbe1af9b3	-0.15134315
167	0xbca2d50d	-0.019876981
168	0x3e30e037	0.17273031
169	0x3c90ada4	0.017660923
170	0xbde822b4	-0.11334744
171	0xbcc52eee	-0.02407023
172	0x3e6a2f05	0.22869499
173	0xbe04e986	-0.12979707
174	0x3b961af4	0.00458085
175	0xbde52ddd	-0.11190388
176	0xbdd1f2ce	-0.102513894
177	0xbc72bdcc	-0.014815759
178	0xbe061505	-0.13093956
179	0x3db17118	0.08664149
180	0x3e005ab8	0.12534606
181	0x3d21135e	0.03932511
182	0x3de06f4a	0.10958727
183	0xbcfe0c89	-0.031011837
184	0xbd2802e1	-0.04101837
185	0x3cdaa4d9	0.026689934
186	0xbcaa0980	-0.020756483
187	0xbd26189b	-0.04055081
188	0x3d910303	0.070806526
189	0xbddc78b8	-0.10765213
190	0xbe0bec1e	-0.1366429
191	0x3daf95ab	0.08573469
192	0xbdf3b05a	-0.11898871
193	0x3d94d0c9	0.07266385
194	0x3e2f43f8	0.17115772
195	0x3b873c6e	0.004127077
196	0xbde76efc	-0.113004655
197	0xbd5c364c	-0.05376272
198	0xbd1081c8	-0.03528002
199	0xbe8179d3	-0.25288257
200	0x3d992a20	0.07478738
201	0xbd53237c	-0.051547512
202	0xbd957a00	-0.0729866
203	0x3d024d40	0.031811953
204	0x3d389bcf	0.045070466
205	0xbd7a07d8	-0.061042637
206	0xbd8d29b3	-0.06892719
207	0xbc922dfb	-0.01784419
208	0x3c6aafa0	0.014324099
209	0xbddfe6a8	-0.10932666
210	0xbcd2963f	-0.025706409
211	0xbc1df8df	-0.009641855
212	0x3d55c2fd	0.05218791
213	0x3ce2a8f5	0.027668456
214	0xbc037c23	-0.008025202
215	0xbccb76b4	-0.024836875
216	0xbcd342a6	-0.025788616
217	0x3ddd1963	0.10795858
218	0xbc78f5bc	-0.015195306
219	0xbe0cfe39	-0.13768853
220	0x3e68fd21	0.22752811
221	0xbcf3d95f	-0.029766737
222	0x3d93e560	0.07221484
223	0x3ddfc898	0.10926932
224	0x3e0027fb	0.12515251
225	0xbe021f52	-0.1270726
226	0x3c9a54a9	0.018839197
227	0x3cead31f	0.028665124
228	0x3d14a9b1	0.036294643
229	0x3df5f60e	0.12009822
230	0x3ce350df	0.027748523
231	0x3da83e98	0.08215064
232	0x3d5147e8	0.051093966
233	0x3d7423a6	0.05960431
234	0x3db7f5a5	0.089824
235	0xbbd0b88f	-0.0063696573
236	0x3dd9bb6d	0.10631452
237	0xbdc58b6f	-0.096457355
238	0xbdadd638	-0.084881246
239	0xbd7ef596	-0.062245928
240	0x3b162a7b	0.0022913504
241	0x3daed553	0.08536782
242	0xbc16ba31	-0.009199665
243	0xbd7646bb	-0.060126048
244	0xbd5f2ee0	-0.054488063
245	0x3c915a43	0.017743235
246	0x3d87bb00	0.06627464
247	0xbea8c912	-0.32965904
248	0x3e005853	0.12533693
249	0x3d924b41	0.0714326
250	0x3d3cf96a	0.046136297
251	0x3c462a03	0.012094977
252	0x3907354f	0.00012894462
253	0x3bf920f6	0.007602806
254	0xbd18c062	-0.037292846
255	0xbcb067f6	-0.021533947

fc1.bias f4 [64]
0	0xbddddd4e	-0.10833226
1	0xbe46ff93	-0.19433431
2	0xbda2dda3	-0.0795243
3	0xbd0c8180	-0.03430319
4	0xbe35be10	-0.17748284
5	0xbdda37d7	-0.10655182
6	0xbe82ad68	-0.25522923
7	0xbe06ee1c	-0.13176769
8	0xbb9f3150	-0.0048581734
9	0xbe8496ef	-0.25896403
10	0xbdc3f870	-0.0956887
11	0xbe296c2b	-0.16545169
12	0xbe187d01	-0.14891435
13	0xbdc52226	-0.09625654
14	0xbe043122	-0.12909368
15	0xbe728708	-0.23684323
16	0xbe3f8756	-0.1870397
17	0xbe3bf9da	-0.1835703
18	0xbe7afb91	-0.24510027
19	0xbdbd9f9e	-0.0925896
20	0xbe96307f	-0.29333875
21	0xbdcf77bb	-0.10130259
22	0xbe477fad	-0.19482298
23	0xbda55b24	-0.08074024
24	0xbdabd319	-0.08389873
25	0xbe5d2cfc	-0.21599191
26	0xbe236967	-0.15958177
27	0xbe4b3bf9	-0.19847097
28	0xbe852f6c	-0.26012743
29	0xbd721e32	-0.059110828
30	0xbde21787	-0.11039644
31	0xbc9b4aaf	-0.01895651
32	0xbe0c0bda	-0.13676396
33	0xbe52eb88	-0.2059766
34	0xbe105a76	-0.14097008
35	0xbe14160d	-0.14461537
36	0xbe30e9c2	-0.17276672
37	0xbd8d1df6	-0.0689048
38	0xbe24298e	-0.16031477
39	0xbdd96e17	-0.10616701
40	0xbe26ab3e	-0.16276261
41	0xbec90a08	-0.39265466
42	0x3d7f7c2d	0.062374283
43	0xbe9813f9	-0.29702738
44	0xbe6938ad	-0.22775526
45	0xbdbbd73c	-0.09171912
46	0xbe452609	-0.1925279
47	0xbd88c5d2	-0.06678356
48	0xbe167927	-0.14694653
49	0xbd3ee1e2	-0.046602137
50	0xbcb89d88	-0.022536054
51	0xbeebe46b	-0.46072707
52	0xbdf9eb35	-0.12203065
53	0xbdbc1e31	-0.09185446
54	0xbdaaabc1	-0.08333541
55	0xbb90a9c4	-0.004414769
56	0xbe3a1aae	-0.1817424
57	0xbdbdc177	-0.09265416
58	0xbd2e47eb	-0.042549055
59	0xbd96269d	-0.07331584
60	0xbd324380	-0.043521404
61	0xbe809812	-0.2511602
62	0xbda4c204	-0.08044818
63	0xbd1c7e78	-0.038206547

bn1.weight f4 [64]
0	0x3f8283c7	1.0196465
1	0x3f8631a7	1.0483903
2	0x3f9f84cd	1.2462403
3	0x3f6ba6d5	0.9205144
4	0x3f82c47e	1.0216215
5	0x3f852920	1.0403175
6	0x3f8b2a98	1.0872374
7	0x3f839922	1.0281107
8	0x3f84f9ca	1.038873
9	0x3f72275b	0.945913
10	0x3f818799	1.0119506
11	0x3f662b62	0.89909947
12	0x3f5cdb80	0.8627243
13	0x3f68591c	0.9076097
14	0x3f83b3e5	1.0289274
15	0x3f6d9c29	0.92816406
16	0x3f9d2b01	1.2278749
17	0x3f78dcd1	0.9721194
18	0x3f84ad84	1.0365453
19	0x3f79abf3	0.97528
20	0x3f743a86	0.954018
21	0x3f876034	1.0576234
22	0x3f629f96	0.8852476
23	0x3f6a31ee	0.91482437
24	0x3f89e2ad	1.0772301
25	0x3f654755	0.8956197
26	0x3f58cafe	0.8468474
27	0x3f83eace	1.0306032
28	0x3f8004ec	1.0001502
29	0x3f5d02e2	0.86332524
30	0x3f7cab45	0.98698837
31	0x3f7ca55f	0.98689836
32	0x3f8a15df	1.0787925
33	0x3f82d23a	1.0220406
34	0x3f7307c6	0.94933736
35	0x3f7ad14d	0.9797562
36	0x3f6e38b5	0.9305528
37	0x3f7d98db	0.99061364
38	0x3f6defdc	0.9294412
39	0x3f91ce64	1.139111
40	0x3f8209e8	1.0159273
41	0x3f834167	1.0254334
42	0x3f67994b	0.9046828
43	0x3f7e1662	0.99252903
44	0x3f70a3a6	0.9399971
45	0x3f5b6c14	0.8571179
46	0x3f7e1b30	0.99260235
47	0x3f82e2ef	1.0225505
48	0x3f640810	0.890748
49	0x3f89a926	1.0754745
50	0x3f6a9167	0.91628116
51	0x3f874e3e	1.0570753
52	0x3f504c84	0.81366754
53	0x3f70befe	0.9404143
54	0x3f6a12ae	0.9143475
55	0x3f676228	0.9038415
56	0x3f5ad642	0.8548318
57	0x3f68c889	0.9093099
58	0x3f7ca38e	0.98687065
59	0x3f6ef051	0.93335444
60	0x3f6b6b6e	0.919608
61	0x3f68501d	0.90747243
62	0x3f5fa73b	0.8736455
63	0x3f5689ee	0.83804214

bn1.bias f4 [64]
0	0xbe0eca7d	-0.1394443
1	0xbe6e1712	-0.23250988
2	0xbdec4ab3	-0.11537685
3	0xbd126f91	-0.03575093
4	0xbe753c5a	-0.23948804
5	0xbd6a0a34	-0.057138637
6	0xbe222ea8	-0.1583811
7	0xbdd22e2b	-0.10262712
8	0xbd654eb9	-0.05598328
9	0xbe418058	-0.18896616
10	0xbd1f0bf0	-0.038829744
11	0xbe1f0e63	-0.15532832
12	0x3951be2f	0.00020002642
13	0xbdfd5415	-0.12369553
14	0xbe2218ea	-0.15829816
15	0xbe3a71c4	-0.1820746
16	0xbe5bbd08	-0.21458828
17	0xbdbcc59b	-0.09217378
18	0xbe76d7df	-0.24105786
19	0xbe673bb2	-0.22581366
20	0xbe801c36	-0.25021523
21	0xbc52c63a	-0.012864644
22	0xbe4ff9bd	-0.20310111
23	0xbc8f8094	-0.017517366
24	0xbdf17248	-0.117893755
25	0xbdf6c15e	-0.120486006
26	0xbd9e7b8c	-0.077384084
27	0xbd2a946a	-0.041645445
28	0xbe106821	-0.14102222
29	0xbdd8af03	-0.10580256
30	0xbe6bf0c7	-0.23041068
31	0x3bcab664	0.0061862934
32	0xbd85a78f	-0.065261
33	0xbd1a5952	-0.03768284
34	0x3ccbe6e0	0.024890363
35	0xbd5b7b1e	-0.05358421
36	0xbd923b9e	-0.07140277
37	0xbdea56ac	-0.114423126
38	0xbcdc04c1	-0.026857736
39	0xbd40db2e	-0.047084026
40	0xbcb99fa8	-0.022659138
41	0xbf459ed4	-0.7719548
42	0xbd006723	-0.03134836
43	0xbe517c36	-0.20457539
44	0xbe930fcd	-0.28722993
45	0xbe07d3e7	-0.13264428
46	0xbe83dbcd	-0.25753632
47	0xbe6c0c2b	-0.23051517
48	0xbdc5c383	-0.096564315
49	0x3cc8fbb7	0.02453409
50	0xbdd65c4f	-0.10466825
51	0xbed8dccc	-0.42355955
52	0xbe696719	-0.22793235
53	0xbe19ed11	-0.1503184
54	0xbe05d5e9	-0.13069881
55	0xbe019631	-0.1265495
56	0xbd47289f	-0.048622724
57	0xbe1152f5	-0.14191802
58	0xbd9c3bf7	-0.07628625
59	0xbe86c14e	-0.26319355
60	0x3be070a7	0.0068493667
61	0xbdfb76f1	-0.12278546
62	0xbd0c18e9	-0.034203444
63	0xbdf35ff2	-0.118835345

bn1.running_mean f4 [64]
0	0xbe746313	-0.23865919
1	0xbf00b05e	-0.50269115
2	0xbe52b028	-0.20575011
3	0xbe8936af	-0.26799533
4	0xbee94e1a	-0.455674
5	0xbe8f7767	-0.28020784
6	0xbea80465	-0.32815853
7	0xbefc23a2	-0.49245936
8	0x3c5297d4	0.012853581
9	0xbe15e094	-0.14636451
10	0xbe2f238d	-0.17103405
11	0xbe9f7a7d	-0.3114814
12	0xbeba6b31	-0.36409906
13	0x3df3bc47	0.119011454
14	0xbd3b4219	-0.045717333
15	0xbec6fb8f	-0.388638
16	0xbec9a565	-0.39384
17	0xbe9f3ac7	-0.3109953
18	0xbe8ca87b	-0.2747229
19	0xbe71b30e	-0.2360346
20	0xbeabfa3d	-0.33589354
21	0xbeadbeef	-0.33934733
22	0xbed407ed	-0.41412297
23	0xbea0c5a3	-0.31400785
24	0xbe8e92cb	-0.2784637
25	0xbeacf9b9	-0.33784273
26	0xbe8882de	-0.26662344
27	0xbe55715b	-0.20844023
28	0xbee6b651	-0.4506097
29	0x3dd69e24	0.10479382
30	0xbec155d4	-0.37760794
31	0xbe099f54	-0.13439685
32	0xbe8f3e4a	-0.2797721
33	0xbe6650ba	-0.22491732
34	0xbe5a141d	-0.21296735
35	0xbe563958	-0.20920312
36	0xbe83afd3	-0.2572008
37	0xbeb6dfcb	-0.35717615
38	0xbe5ca039	-0.21545495
39	0xbe4af7ce	-0.19821092
40	0xbeb8ff61	-0.3613234
41	0xbf56b0ac	-0.8386333
42	0x3d5d9854	0.05410035
43	0xbedda748	-0.43291688
44	0xbe26daf1	-0.16294457
45	0xbe922bba	-0.28548986
46	0xbef1ce4f	-0.47227713
47	0xbeca1f9c	-0.3947724
48	0xbe8a7971	-0.27045777
49	0xbe8ebaa5	-0.27876773
50	0xbd96abfa	-0.07357021
51	0xbf0ac0b0	-0.5420027
52	0xbc878ffe	-0.016548153
53	0xbed077e0	-0.40716457
54	0xbe40eed1	-0.18841101
55	0x3da42ea5	0.08016709
56	0xbea21dd7	-0.3166339
57	0xbe7453b0	-0.23860049
58	0x3d0d658f	0.034520682
59	0x3d227138	0.039658755
60	0xbe575725	-0.21029337
61	0xbedec395	-0.43508592
62	0xbe4189fa	-0.1890029
63	0xbd441cf5	-0.047879178

bn1.running_var f4 [64]
0	0x3f619867	0.8812317
1	0x3f8a1993	1.0789055
2	0x3f32aaa8	0.6979165
3	0x3f073f70	0.5283117
4	0x3f32b0a9	0.6980081
5	0x3f46c4c2	0.7764398
6	0x3ee09cf5	0.4386975
7	0x3f28f9ac	0.6600597
8	0x3f2dd86e	0.6790837
9	0x3f07df02	0.5307466
10	0x3ee8926c	0.4542421
11	0x3f5f3370	0.8718786
12	0x3f07aeb1	0.5300093
13	0x3f2e3ed1	0.680646
14	0x3ed7f8ed	0.42182103
15	0x3ee8245c	0.4534024
16	0x3f51d9e1	0.8197308
17	0x3f32bf37	0.6982302
18	0x3f0d2a40	0.55142593
19	0x3ee52845	0.44757286
20	0x3f2dd57d	0.6790388
21	0x3f1873e6	0.59551847
22	0x3f34ae81	0.7057877
23	0x3f7ecd71	0.9953223
24	0x3f05b289	0.5222555
25	0x3efa7836	0.4891984
26	0x3f3d3885	0.73914367
27	0x3efeea46	0.4978811
28	0x3f1a876f	0.60362905
29	0x3eb2a2cf	0.34889838
30	0x3f172ae5	0.59049827
31	0x3f11465d	0.5674799
32	0x3f13a1f0	0.5766897
33	0x3ecffc61	0.40622237
34	0x3f3cf809	0.7381597
35	0x3f277ad9	0.65421826
36	0x3f13e057	0.5776419
37	0x3f19cbc2	0.60076535
38	0x3f25a89f	0.6471042
39	0x3edc5212	0.43031365
40	0x3f0e0c32	0.5548736
41	0x3f5b0f5e	0.85570323
42	0x3ede8341	0.43459514
43	0x3f491962	0.78554356
44	0x3f3f9d49	0.74849373
45	0x3efd198f	0.49433562
46	0x3f0ee729	0.5582147
47	0x3f62a0cb	0.885266
48	0x3f2820a7	0.65674824
49	0x3f0e3753	0.5555317
50	0x3f217a72	0.6307746
51	0x3f4be2af	0.79642767
52	0x3f33d511	0.7024699
53	0x3f1c5a97	0.6107573
54	0x3e87d149	0.2652686
55	0x3f0a22a3	0.539591
56	0x3f0fa088	0.56104326
57	0x3f1084a7	0.5645241
58	0x3eea56ef	0.4576945
59	0x3f22e406	0.63629186
60	0x3f56a487	0.838448
61	0x3f2e10ae	0.679942
62	0x3ea41e07	0.3205416
63	0x3f3bfb98	0.73430777

fc2.weight f4 [32, 64]
0	0x3d188259	0.037233684
1	0xbb5c9d08	-0.0033662934
2	0xbd9ceba6	-0.07662134
3	0xbe4590fe	-0.19293591
4	0x3d058576	0.03259798
5	0xbd486c32	-0.048931308
6	0x3bb20145	0.0054322802
7	0x3d220ab1	0.039560977
8	0xbdd38887	-0.10328775
9	0x3c04bace	0.008101178
10	0x3d506ff6	0.050888024
11	0x3ce902b0	0.028443664
12	0x3befcf37	0.007318403
13	0x3bf4d233	0.0074713468
14	0xbd4b5510	-0.04964167
15	0xbce73a0f	-0.028225927
16	0x3d8e7e54	0.06957689
17	0x3dc7722b	0.09738573
18	0x3e0edea6	0.13952121
19	0xbd3fed5f	-0.046857234
20	0xbd150dd5	-0.036390144
21	0x3d8d2993	0.06892695
22	0xbdf5b4e7	-0.11997395
23	0xbc06c9f0	-0.008226857
24	0x3d907a85	0.07054619
25	0x3d49982a	0.04921738
26	0xbd4adaf2	-0.04952521
27	0xbc24edf3	-0.010066497
28	0x3d92b756	0.07163875
29	0xbd76633b	-0.060153227
30	0xbc3f19b0	-0.011663839
31	0x3dab2fa1	0.08358694
32	0x3e383aa7	0.17991124
33	0xbd157fd4	-0.03649886
34	0xbd7ff525	-0.062489647
35	0xbe12cdf8	-0.14336383
36	0x3d7eae66	0.062178038
37	0x3dd6ecc1	0.10494376
38	0xbcb08d7b	-0.021551838
39	0xbcc3b266	-0.023888778
40	0xbc8808b0	-0.016605705
41	0xbddbadd8	-0.107265174
42	0x3d2eff3e	0.042723887
43	0x3ddc001c	0.10742208
44	0xbd511e58	-0.05105433
45	0xbbd2931c	-0.006426228
46	0x3db94281	0.09045888
47	0x3d9e173d	0.07719276
48	0x3c0c2114	0.008552808
49	0xbddca150	-0.107729554
50	0x3d73985a	0.059471466
51	0x3dac0665	0.08399657
52	0xbce4af25	-0.027915547
53	0x3df6fb8c	0.120596975
54	0xbdc792bf	-0.097447865
55	0x3c70c4e5	0.014695381
56	0x3da19985	0.0789061
57	0x3dc4baa6	0.09605913
58	0xbde5fd96	-0.11230008
59	0xbc2be22b	-0.010490934
60	0xbafcf11a	-0.0019297928
61	0xbdbe5c0f	-0.092949025
62	0x3c805dab	0.015669664
63	0xbc594bee	-0.013262732
64	0x3d4fa373	0.050692987
65	0xbe01741a	-0.12641945
66	0xbe20b339	-0.15693368
67	0x3df693f9	0.12039942
68	0x3d3c006f	0.04589885
69	0xbe033a97	-0.12815319
70	0x3dc4d8c2	0.09611656
71	0x3dbb9a8d	0.091603376
72	0xbd695c26	-0.056972645
73	0xbdc1549c	-0.09439966
74	0x3d55f980	0.052239895
75	0x3d50c6cd	0.05097084
76	0xbd39f8ca	-0.04540328
77	0x3ca10a32	0.019658182
78	0xbcb9d67e	-0.022685286
79	0xbca780c7	-0.020447148
80	0xbde2fb66	-0.11083107
81	0x3d73c66a	0.059515394
82	0x3dd171b1	0.10226763
83	0x3ca26b4a	0.01982655
84	0xbd93659b	-0.07197114
85	0xbbb2df43	-0.005458744
86	0xbe02f626	-0.1278921
87	0x3ce237ff	0.027614592
88	0x3dcb0526	0.09913091
89	0x3d4b81e6	0.049684428
90	0x3d56eef1	0.052473966
91	0xbd5459de	-0.051843517
92	0x3d82cf21	0.06387163
93	0x3ce16b7a	0.02751707
94	0x3dce5ab5	0.10075895
95	0x3de6f220	0.112766504
96	0x3d3cf16d	0.04612868
97	0xbd5c7e38	-0.05383131
98	0x3d1c83f9	0.038211796
99	0x3e1ac203	0.15113072
100	0xbda7a916	-0.081865475
101	0x3deb7a97	0.114979915
102	0xbd6dae7d	-0.058027733
103	0x3bc74ff3	0.0060825287
104	0x3d77af29	0.06046978
105	0xbd3b35e0	-0.045705676
106	0xbd0933be	-0.03349661
107	0x3d3ba5a7	0.045812275
108	0x3d60c0eb	0.05487148
109	0xbae85af0	-0.0017727297
110	0x3d0af33a	0.033923365
111	0xbde5376f	-0.11192214
112	0x3dcf6612	0.1012689
113	0x3b806df4	0.0039193574
114	0x3da01754	0.078169495
115	0xbe4783ec	-0.19483918
116	0x3d7748c0	0.060372114
117	0xbdaed586	-0.0853682
118	0x3dcec7a3	0.100966714
119	0xbce2f587	-0.027704967
120	0x3da8bc79	0.08239073
121	0xbd21e0f6	-0.03952118
122	0xbdfd2a02	-0.12361528
123	0x3de409a5	0.11134652
124	0x3dd44cf0	0.10366237
125	0xbe02fe75	-0.1279238
126	0xbc3e5f29	-0.011619368
127	0xbbf2bb49	-0.00740758
128	0x3d08d468	0.03340569
129	0xbdcacdf5	-0.099025644
130	0x3db4263e	0.087963566
131	0x3d4e73d3	0.050403427
132	0x3b9006d2	0.0043953443
133	0xbd8472dc	-0.0646722
134	0xbd5dc026	-0.054138325
135	0x3d6360e3	0.05551232
136	0xbd09dfe4	-0.033660784
137	0x3d9053cc	0.07047233
138	0x3d01be4d	0.031675626
139	0xbd9d2cc7	-0.07674556
140	0xbdb3b0dd	-0.08773968
141	0xbe1f1595	-0.15535577
142	0x3cd59616	0.026072543
143	0x3dbcd1ae	0.09219681
144	0x3d0f8f5c	0.035048828
145	0x3d9c094f	0.07618963
146	0x3e61a311	0.22034861
147	0xbd18e371	-0.03732628
148	0xbe2fab93	-0.17155294
149	0x3df130a9	0.11776859
150	0xbcc4a681	-0.024005176
151	0x3e44d0fe	0.19220349
152	0x3bc30d84	0.005952539
153	0x3b23ec2f	0.0025012603
154	0x3c798f1a	0.015231872
155	0xbe34cc5c	-0.17656082
156	0x3db4718c	0.0881072
157	0xbd24cd92	-0.04023511
158	0x3d5c2f37	0.053755965
159	0xbd794c72	-0.06086392
160	0x3cc941c8	0.0245675
161	0x3d77611d	0.06039535
162	0xbd219497	-0.039448347
163	0xbe10c302	-0.1413689
164	0x3d5ba6a1	0.053625707
165	0x3bc218bc	0.0059233587
166	0x3de874f2	0.113504305
167	0x3d914126	0.07092504
168	0xbdf85139	-0.12124867
169	0x3df81a79	0.12114424
170	0xbd1457ee	-0.03621667
171	0xbe7a2e34	-0.24431688
172	0x3cd43f24	0.025909014
173	0xbd00d427	-0.031452324
174	0xbe036b1d	-0.12833829
175	0xbe9317ae	-0.28729004
176	0x3c24b470	0.010052785
177	0x3e2357f5	0.15951522
178	0xbbb99d52	-0.005664506
179	0xbd6c9e1c	-0.057767972
180	0x3ca8c8a3	0.020603484
181	0x3d6b60a2	0.057465203
182	0xbbc4c8f4	-0.006005401
183	0xbd604105	-0.054749507
184	0x3d12c28b	0.035830062
185	0x3d34c27b	0.044130784
186	0xbc329894	-0.010900635
187	0xbda03170	-0.078219295
188	0xbb3c567a	-0.0028738067
189	0xbd550531	-0.052006904
190	0x3b71df9a	0.0036906959
191	0x3d00f22c	0.031480953
192	0xbc96a1e0	-0.018387735
193	0xbbbd21a6	-0.0057718335
194	0xbda7746b	-0.08176502
195	0xbdcb3d8a	-0.09923847
196	0x3d25490b	0.040352862
197	0x3b6c1742	0.0036024605
198	0x3e0539dd	0.13010354
199	0xbd0137f4	-0.0315475
200	0x3da54c39	0.08071179
201	0x3d3b9150	0.045792878
202	0xbe7f03d2	-0.24903801
203	0x3b4566c8	0.0030121077
204	0x3d0a0d6a	0.0337042
205	0x3b290468	0.002578998
206	0xbe329864	-0.17440945
207	0x3d83db56	0.064383194
208	0x3ca23ff3	0.019805884
209	0xbceeb76f	-0.029140202
210	0x3dcc1780	0.0996542
211	0xba38d68d	-0.00070510135
212	0x3d9a481e	0.075332865
213	0xbd1c0369	-0.03808919
214	0x3d47eff5	0.048812825
215	0xbd322e38	-0.04350111
216	0x3ab99fe4	0.0014162031
217	0x3c136b0a	0.008997688
218	0x3d5453c5	0.0518377
219	0xbe5a930d	-0.21345158
220	0xbbde052a	-0.006775518
221	0x3b93d268	0.0045111664
222	0xbdd6cdc7	-0.10488468
223	0xbe54efe6	-0.20794639
224	0xbe3ea246	-0.1861659
225	0x3dd34455	0.10315768
226	0x3dd40788	0.10352999
227	0x3d787712	0.06066043
228	0xbd49d041	-0.049270872
229	0x3d0ecd00	0.034863472
230	0x3d71de33	0.059049796
231	0xbe6e909f	-0.23297356
232	0xbcc01084	-0.023445375
233	0xbe32a26b	-0.1744477
234	0x3b094187	0.0020943598
235	0xbc452063	-0.012031647
236	0x3cc16051	0.023605498
237	0x3b8001b7	0.0039064544
238	0x3d0dfdd7	0.03466591
239	0xbaaacffe	-0.0013031957
240	0xbceb3374	-0.028711058
241	0x3d882aff	0.06648826
242	0x3d915f80	0.07098293
243	0xbde506da	-0.111829475
244	0xbdffb8e8	-0.1248644
245	0x3d8b03a9	0.067878075
246	0xbd8cdd60	-0.068781614
247	0xbdad388c	-0.08458051
248	0xbcba6229	-0.022751885
249	0x3d998042	0.07495166
250	0x3e176fdb	0.14788763
251	0xbd1dc21d	-0.0385152
252	0x3da72f7c	0.08163354
253	0xbe1405a7	-0.14455281
254	0xbbb5d3ca	-0.005548929
255	0x3d3c5389	0.045978103

fc2.bias f4 [32]
0	0x3b4bf0ca	0.0031118863
1	0x3d53000d	0.05151372
2	0x3c878eac	0.016547523
3	0x3dc119fa	0.09428783
4	0x3e7eed7c	0.2489528
5	0xbe7b0e99	-0.24517287
6	0x3e57d367	0.21076737
7	0x3e8b6fb9	0.27233675
8	0x3d4a45a8	0.049382836
9	0x3df58729	0.119886704
10	0x3d41b666	0.04729309
11	0x3e2cb2be	0.1686506
12	0x3d2c323b	0.04204009
13	0x3c7ede9c	0.015556004
14	0x3e8de385	0.27712646
15	0x3dc17688	0.09446436
16	0x3dcd2827	0.10017424
17	0x3df339ab	0.11876234
18	0x3e1266d7	0.14297043
19	0x3e296e7b	0.16546051
20	0x3cad7849	0.02117552
21	0x3e89145c	0.26773345
22	0x3dd8a83d	0.10578964
23	0x3d45e17b	0.048310738
24	0xbb9334c2	-0.004492373
25	0x3d7f911e	0.062394254
26	0xbde607f8	-0.11231989
27	0x3d8f1c50	0.06987822
28	0xbda8690e	-0.082231626
29	0xbd5973d0	-0.053088963
30	0x3e6c7651	0.23092009
31	0x3d8fd0c6	0.07022242

bn2.weight f4 [32]
0	0x3f853758	1.0407515
1	0x3f85bb78	1.0447836
2	0x3f9439bd	1.158012
3	0x3f981da8	1.188405
4	0x3f88d872	1.0691054
5	0x3f7d7f07	0.99021953
6	0x3f88e372	1.0694411
7	0x3f9693f7	1.1763905
8	0x3f904046	1.1269615
9	0x3f76809a	0.9628998
10	0x3f785d5a	0.97017443
11	0x3fa4ba7a	1.2869408
12	0x3f9590cf	1.1684817
13	0x3f831b6d	1.0242745
14	0x3fa82602	1.3136599
15	0x3f9793f0	1.1842022
16	0x3f9267ff	1.1437987
17	0x3f91ecf1	1.1400434
18	0x3fa40cfe	1.2816465
19	0x3fa0c8a2	1.2561228
20	0x3f74a9e2	0.9557172
21	0x3f9144a0	1.1349068
22	0x3f8a00c2	1.0781481
23	0x3f81f7db	1.0153764
24	0x3f969f5e	1.1767385
25	0x3fa27dc4	1.2694631
26	0x3f7e0bf5	0.99236995
27	0x3f9858da	1.1902115
28	0x3f8eabff	1.1146239
29	0x3f9e661e	1.2374914
30	0x3fa5c784	1.2951512
31	0x3fa3e1f2	1.2803328

bn2.bias f4 [32]
0	0xbc927d64	-0.017882057
1	0xbcc5ac83	-0.024130112
2	0x3e482fad	0.19549437
3	0x3e2d2b5a	0.16911069
4	0x3dcb901c	0.09939596
5	0xbe1381a4	-0.14404923
6	0x3dc26764	0.094923764
7	0x3e42f7d6	0.19039854
8	0x3e0e2a93	0.13883428
9	0xbd387455	-0.045032818
10	0xbd128867	-0.035774615
11	0x3eac5458	0.336581
12	0x3e44b5a1	0.19209911
13	0x3d0658e1	0.032799605
14	0x3e9e4915	0.30915132
15	0x3dc58cce	0.09645997
16	0x3de55541	0.111979015
17	0x3e0a14ce	0.13484499
18	0x3ea809ad	0.32819882
19	0x3e9283eb	0.2861627
20	0xbd5925f6	-0.053014718
21	0x3e215306	0.15754327
22	0xbd494838	-0.04914114
23	0xbcda3cff	-0.026640413
24	0x3de5bc15	0.112175144
25	0x3e836319	0.25661543
26	0xbd4445dc	-0.047918186
27	0x3e2a9e40	0.1666193
28	0xbd44dc83	-0.04806186
29	0x3d907767	0.07054024
30	0x3e6c22c5	0.23060139
31	0x3ea2c096	0.31787556

bn2.running_mean f4 [32]
0	0x3dbdd2c0	0.09268713
1	0x3e401062	0.1875625
2	0xbd2f277e	-0.042762272
3	0xbe61964d	-0.22029991
4	0x3d6f3109	0.058396373
5	0x3da79d4b	0.08184298
6	0xbe9286a7	-0.28618357
7	0xbcf46b94	-0.029836453
8	0x3e80e05d	0.25171176
9	0x3e4592de	0.19294307
10	0xbddc1187	-0.107455306
11	0xbdfad3d7	-0.122474365
12	0xbdde73fb	-0.10861965
13	0xbececcd6	-0.40390652
14	0x3f86b12e	1.0522821
15	0xbbb2ffdb	-0.0054626293
16	0xbe11e666	-0.14248046
17	0xbe1a1662	-0.15047601
18	0xbdeb78cc	-0.114976496
19	0xbe147771	-0.14498688
20	0xbe12469f	-0.14284752
21	0xbdb3cda8	-0.0877946
22	0xbe81900e	-0.25305218
23	0xbdff6345	-0.12470106
24	0xbe1c4780	-0.1526165
25	0xbd99307e	-0.07479952
26	0xbe85b978	-0.26118064
27	0xbe05645f	-0.1302657
28	0xbe9f4885	-0.31110016
29	0xbe34eded	-0.17668886
30	0xbe34ef07	-0.17669307
31	0x3d81439e	0.06311725

bn2.running_var f4 [32]
0	0x3e0538bd	0.13009925
1	0x3e5b7c75	0.21434195
2	0x3ea85160	0.32874584
3	0x3ec05d8d	0.37571374
4	0x3e2f8828	0.17141783
5	0x3dc51963	0.09623983
6	0x3e9d3445	0.3070394
7	0x3eab3984	0.33442318
8	0x3e8d721d	0.27626124
9	0x3e602e5e	0.21892688
10	0x3e19263d	0.14955993
11	0x3e50e27e	0.203989
12	0x3e8536ae	0.2601828
13	0x3ee13a06	0.4398958
14	0x3f16acde	0.58857524
15	0x3e846b65	0.25863186
16	0x3e4b3054	0.19842654
17	0x3e735cb5	0.23765834
18	0x3e77a45f	0.24183796
19	0x3e3ea210	0.1861651
20	0x3e84459c	0.25834358
21	0x3e3c38e8	0.18381083
22	0x3e9337ea	0.28753597
23	0x3e887774	0.26653636
24	0x3e32c9b9	0.17459764
25	0x3ead6fa0	0.33874226
26	0x3e988a48	0.29793
27	0x3e4d68c3	0.20059495
28	0x3edfca44	0.43709004
29	0x3ede5cc0	0.43430138
30	0x3eedce47	0.4644644
31	0x3eba36e9	0.36370018

fc3.weight f4 [5, 32]
0	0x3d51fcc2	0.05126644
1	0x3c188b9b	0.009310628
2	0x3e7e65c2	0.24843505
3	0x3e3c935d	0.1841559
4	0x3e75f2fc	0.24018472
5	0xbd9fb91e	-0.0779898
6	0xbd9f7970	-0.07786834
7	0x3e28662c	0.16445225
8	0x3e701f87	0.23449527
9	0x3c67e5ea	0.014153937
10	0x3ba45673	0.0050151884
11	0x3df81bab	0.12114652
12	0x3de818de	0.11332868
13	0xbd72b80a	-0.059257545
14	0x3dc335e7	0.095317654
15	0x3e05d411	0.13069178
16	0x3d039c89	0.032131705
17	0x3e8404a2	0.25784785
18	0x3ddca58c	0.10773763
19	0x3c541003	0.012943271
20	0xbd172bea	-0.036907114
21	0x3e06164c	0.13094443
22	0x3cff8190	0.03118971
23	0xbc0f42c7	-0.008743948
24	0xbd349f82	-0.04409743
25	0x3e1f716a	0.15570608
26	0xbca2ac7d	-0.01985764
27	0x3e5ef5f9	0.21773519
28	0x3dbb88d6	0.09156959
29	0x3dd2fd85	0.10302261
30	0x3d66c7b5	0.0563428
31	0x3e55ae0d	0.20867176
32	0xbd1187f7	-0.035530057
33	0x3d51dc90	0.051235735
34	0x3e8922ad	0.26784268
35	0x3d050ad3	0.032481026
36	0x3e1028ef	0.14078115
37	0xbd3905be	-0.04517149
38	0xbc999335	-0.018746952
39	0x3e192a11	0.14957453
40	0x3e592ddf	0.21208905
41	0x3dc5c5f2	0.09656896
42	0x3dbf7576	0.09348576
43	0x3d9d1aaf	0.07671105
44	0x3e0a8205	0.13526161
45	0xbda0df63	-0.07855108
46	0x3ddfa40e	0.10919963
47	0x3d2935fa	0.04131124
48	0x3cd68e50	0.026190907
49	0x3d07c977	0.033151116
50	0x3da0a92f	0.07844769
51	0xbd9c91f7	-0.07645028
52	0xbea2af53	-0.31774387
53	0x3e033cc8	0.12816155
54	0xbe45f4ff	-0.1933174
55	0xbea62f8d	-0.32458153
56	0xbcaf98e9	-0.021435218
57	0x3e162f3c	0.14666456
58	0xbe40efff	-0.18841551
59	0x3da64c32	0.08120002
60	0xbe677144	-0.22601801
61	0xbd80c3ef	-0.06287371
62	0xbe591e45	-0.21202953
63	0x3e3ab7c1	0.18234159
64	0xbdd371a8	-0.103244126
65	0xbdfe7b29	-0.12425835
66	0x3c177e18	0.009246372
67	0xbe15053c	-0.14552778
68	0xbe27075d	-0.16311403
69	0x3e5120c6	0.20422658
70	0xbd342952	-0.04398472
71	0xbe1f0a0b	-0.15531175
72	0xba6c7b36	-0.00090210454
73	0x3d87f5ed	0.066387035
74	0xbe1d137c	-0.15339464
75	0xbe0fc556	-0.14040121
76	0xbe0ed1af	-0.13947175
77	0xbc70733e	-0.014675913
78	0x3d9a7d91	0.07543481
79	0xbd60b025	-0.054855485
80	0xbe97de38	-0.29661727
81	0xbc8859fc	-0.01664447
82	0xbe19bf31	-0.1501434
83	0xbe55304e	-0.20819208
84	0x3cb28e84	0.021796472
85	0xbe53b8ae	-0.20675918
86	0xbeaa5d08	-0.33274102
87	0x3c299631	0.01035075
88	0x3ddb5dfc	0.107112855
89	0xbe4ab535	-0.19795687
90	0xbe43eaec	-0.19132584
91	0xbbce4345	-0.0062946402
92	0x3dc1d1cb	0.09463843
93	0x3d3da3ac	0.046298668
94	0xbe1499a0	-0.14511728
95	0x3d4579b7	0.04821178
96	0xbe40f78a	-0.18844429
97	0xbdd581a7	-0.1042512
98	0xbea141a7	-0.314954
99	0xbeca1e39	-0.39476183
100	0xbdfbc8f9	-0.12294192
101	0xbe09848e	-0.13429472
102	0xbecb311e	-0.3968591
103	0xbcd5ee4e	-0.02611461
104	0xbe7e854f	-0.2485554
105	0xbd02255e	-0.031773917
106	0x3ced0d1b	0.028936913
107	0xbed36302	-0.41286474
108	0xbe2b8e23	-0.1675344
109	0xbe93a180	-0.28834152
110	0xbea661e7	-0.3249657
111	0xbe5e9816	-0.21737704
112	0xbe04e4bb	-0.12977879
113	0xbdb4062c	-0.0879024
114	0xbec1e855	-0.37872568
115	0xbedf2679	-0.4358404
116	0xbdf78d5a	-0.120875075
117	0xbdb2c215	-0.087284245
118	0xbcef6084	-0.029220827
119	0xbe59aaa1	-0.21256496
120	0xbee07049	-0.43835667
121	0xbe001e75	-0.12511618
122	0xbe20e9bc	-0.15714163
123	0xbe2e307f	-0.17010687
124	0xbe5012ea	-0.20319715
125	0xbe133f74	-0.14379674
126	0xbeedf857	-0.4647853
127	0xbe25716d	-0.1615655
128	0xbe019290	-0.12653565
129	0xbec8ef85	-0.3924524
130	0xbe630694	-0.22170478
131	0x3cf16a16	0.029469531
132	0xbda2e576	-0.079539225
133	0xbd9f16e5	-0.07768039
134	0x3e13631f	0.1439328
135	0xbec09110	-0.37610674
136	0xbe90a0ec	-0.28247774
137	0xbe641fc6	-0.22277746
138	0xbeabb03d	-0.33532897
139	0x3a4288af	0.000742088
140	0x3dff71bc	0.12472865
141	0x3e360d49	0.17778505
142	0xbe9a5988	-0.30146432
143	0xbea47774	-0.32122386
144	0xbe9daa55	-0.30794016
145	0xbe79296d	-0.24332209
146	0xbb9d7386	-0.004805031
147	0x3b6d921f	0.0036250425
148	0x3c90733e	0.017633077
149	0xbe058ac1	-0.13041212
150	0xbdf73918	-0.12071437
151	0xbd97612e	-0.073915824
152	0xbe9f81a0	-0.31153584
153	0xbe78690a	-0.24258819
154	0x39565583	0.00020440486
155	0xbe27b8ed	-0.16379137
156	0xbe8ff891	-0.2811933
157	0xbed65bec	-0.41867006
158	0x3d9fc687	0.07801538
159	0xbeb9a7ee	-0.36260933

fc3.bias f4 [5]
0	0x3e3a416c	0.18189019
1	0x3af6841f	0.0018807686
2	0x3d282390	0.04104954
3	0xbecca838	-0.3997209
4	0xbd8139b0	-0.06309831
