saved_models/DNN/fold5.pt (torch, 31579 bytes, 20 tensors)

emb_layers.0.weight f4 [16, 8]
0	0xbf8495e3	-1.0358242
1	0x3ecc9718	0.39959025
2	0x3ed7ba05	0.4213411
3	0xbf02be18	-0.5107131
4	0xbe61d449	-0.22053637
5	0x3f88ee13	1.0697654
6	0x3e27f782	0.1640301
7	0xbe73099b	-0.23734133
8	0x3ea5fce7	0.32419512
9	0x3cca5e62	0.024703208
10	0x3e4a5256	0.19757971
11	0xbff19291	-1.8872854
12	0x3ee898bf	0.45429036
13	0xbde50931	-0.11183394
14	0x3eba20c9	0.36353138
15	0x3f854544	1.0411763
16	0xbc6eb053	-0.014568406
17	0x3e244b54	0.1604436
18	0xbf8f9574	-1.1217484
19	0x3f1cc9de	0.61245525
20	0x3eb5e849	0.35528782
21	0xbfd0e7f6	-1.6320789
22	0xbf372e47	-0.7155499
23	0x3f6800fe	0.90626514
24	0xbed74f45	-0.42052665
25	0x3f1c1a58	0.609777
26	0xbf94ee3a	-1.1635201
27	0x3ea197e1	0.31561187
28	0x3ed4bea3	0.41551694
29	0xbe99cdb6	-0.30039757
30	0xbec8a738	-0.39190078
31	0x3f3fc830	0.74914837
32	0xbfab5dcc	-1.3388
33	0x3e9a0020	0.3007822
34	0xbeb6d8fa	-0.35712415
35	0x3fa0f4ad	1.2574669
36	0xbf451029	-0.76977783
37	0xbed5c3b4	-0.41750872
38	0xbf78160c	-0.9690864
39	0x3eee8836	0.46588296
40	0xbebc2645	-0.36747947
41	0xbd164f75	-0.03669687
42	0x3e51d577	0.20491587
43	0xbef2b4c0	-0.47403526
44	0x3e133af7	0.14377962
45	0xbf294238	-0.66116667
46	0xbe4db8d1	-0.20090033
47	0x3f10e949	0.56605965
48	0x3f2069a8	0.6266122
49	0xbf95de81	-1.1708528
50	0x3f1a4016	0.6025404
51	0xbf3e09bc	-0.74233603
52	0xbe9837b0	-0.29729986
53	0x3fa5a309	1.2940379
54	0x3ec69ba2	0.38790613
55	0x3eb10184	0.3457147
56	0xbf40ed6f	-0.75362295
57	0x3eee4cf5	0.4654309
58	0x3ea08114	0.3134848
59	0x3f6d2a3c	0.9264257
60	0xbeaa8566	-0.333049
61	0xbf95d9c0	-1.1707077
62	0xbfe1a4e4	-1.7628446
63	0x3f2a7cb8	0.66596556
64	0xbe7de700	-0.24795151
65	0x3e99651f	0.29959962
66	0xbf5af17a	-0.85524714
67	0x3f86b180	1.0522919
68	0xbf49ab9b	-0.78777474
69	0x3eb6c91c	0.3570031
70	0xbf38bde9	-0.7216478
71	0xbfd56451	-1.6671239
72	0xbf40d5f2	-0.75326455
73	0xbfdc5675	-1.7213885
74	0x3e9b2f51	0.30309537
75	0x3eaa7359	0.33291128
76	0xbd8d17ea	-0.06889327
77	0x3e4a2a3c	0.19742674
78	0x3f18f693	0.5975124
79	0xbf8db5a3	-1.1071056
80	0xbfce5fe2	-1.6123011
81	0xbdf5d9c0	-0.12004423
82	0x3efc3b18	0.49263835
83	0x3fae5da1	1.3622323
84	0xbf9f07b8	-1.242423
85	0x3badc63e	0.0053031733
86	0x3f6ca310	0.92436314
87	0xbea27edf	-0.3173742
88	0xbe852418	-0.260041
89	0x3ed9d414	0.42544615
90	0x3f31c11d	0.6943529
91	0x3f2def89	0.67943627
92	0xbf9b8f50	-1.215311
93	0xbf21bb49	-0.631764
94	0x3e861949	0.26191166
95	0xbdec9a04	-0.11552814
96	0xbf3a6c05	-0.72821075
97	0xbf5df247	-0.8669781
98	0xbe5ec89e	-0.21756217
99	0x3e98981f	0.2980356
100	0x3e32da38	0.17466056
101	0xbf977353	-1.1832069
102	0x3ed60a43	0.41804704
103	0xbf390ed1	-0.72288233
104	0xbdc8d8a1	-0.09806944
105	0xbea92ad2	-0.33040482
106	0xbf07b137	-0.53004783
107	0x3e948f82	0.29015738
108	0x3fa98098	1.3242369
109	0xbf9077d6	-1.1286571
110	0x3fb9b67b	1.4508814
111	0x3f01a602	0.5064393
112	0xbfcecf84	-1.6157079
113	0x3f788c80	0.97089386
114	0xbda450ba	-0.0802321
115	0xbf84a59f	-1.0363044
116	0xbf067e4d	-0.5253647
117	0x3f49abce	0.7877778
118	0x3edaf2a7	0.42763254
119	0x3f1e30ec	0.617934
120	0xbe2efe99	-0.17089309
121	0x3ff29f2b	1.8954824
122	0xbebfe560	-0.37479687
123	0x3eee94dc	0.46597946
124	0x3ec6d82f	0.3883681
125	0xbf3dbc01	-0.74114996
126	0x3d64046d	0.055668283
127	0xbecf4bab	-0.40487418

emb_layers.1.weight f4 [16, 8]
0	0xbba33685	-0.0049808645
1	0xbf754197	-0.9580321
2	0xbe5b3a26	-0.214089
3	0x3ee51432	0.4474197
4	0xbfbe6739	-1.4875251
5	0xbf835f82	-1.0263522
6	0xbd006e0f	-0.03135496
7	0xbde33d7e	-0.11095713
8	0x3f07eaf7	0.530929
9	0xbf306682	-0.68906415
10	0x3ea893dc	0.32925308
11	0xbe6ed6b4	-0.2332409
12	0x3dceab9b	0.10091325
13	0xc005a424	-2.0881433
14	0x3f4a78a5	0.7909034
15	0xbf27e68a	-0.6558615
16	0x3f7da2a5	0.990763
17	0x3edc1736	0.4298646
18	0x3fcd8f5d	1.6059376
19	0x3f7597a4	0.9593451
20	0x3f966d49	1.1752101
21	0xbf8562e6	-1.0420806
22	0xbefe1e74	-0.4963261
23	0xbf8f0ec5	-1.1176382
24	0xbff7205b	-1.9306749
25	0xbdcb5139	-0.09927601
26	0x3f3533f1	0.7078238
27	0xbf5d563d	-0.86459714
28	0xbee02723	-0.4377986
29	0xbe48cc93	-0.19609289
30	0x3f41e731	0.75743395
31	0x3fc0061e	1.5001867
32	0x3f012558	0.5044761
33	0xbf134570	-0.5752783
34	0xbfc4723b	-1.534736
35	0xbd842107	-0.06451612
36	0xbe01b189	-0.1266538
37	0x3f9b1724	1.2116437
38	0x3eb9591a	0.36200792
39	0xbdd59443	-0.10428669
40	0x3f044140	0.51662064
41	0xbfd29c0a	-1.6453869
42	0xbe19999b	-0.15000002
43	0x3f83651f	1.0265235
44	0x3feceaaf	1.850912
45	0x3f75b3bf	0.95977396
46	0x3f2de436	0.6792635
47	0x3ef37ea3	0.47557554
48	0xbc992fe2	-0.01869959
49	0x3f51a4f9	0.81892353
50	0x3f6bcec9	0.92112404
51	0x3eea69aa	0.4578374
52	0x3fafc3cc	1.3731627
53	0xbf208eb4	-0.6271775
54	0xbf0f679e	-0.5601748
55	0xbf240029	-0.64062744
56	0x3d7d68f4	0.06186767
57	0x3d85fa2b	0.065418564
58	0xbe999032	-0.29992825
59	0xbe02b121	-0.12762882
60	0xbfd15421	-1.6353799
61	0x3fd174e6	1.63638
62	0x3e979b04	0.29610455
63	0xbdb370f4	-0.087617785
64	0xbf989f0c	-1.1923537
65	0xbf817d7f	-1.0116423
66	0xbdfe8d07	-0.124292426
67	0xbf2e064a	-0.67978346
68	0x3fa95de9	1.3231784
69	0xbf3c137f	-0.7346725
70	0x3f4c8ed6	0.7990545
71	0x3fce6a8a	1.6126263
72	0x3e0d34c5	0.13789661
73	0xbec28e43	-0.37999162
74	0x3e836a2e	0.25666946
75	0x4002cd5d	2.0437844
76	0x3e86aab8	0.26302123
77	0x3f13f7ec	0.57800174
78	0x3e407676	0.1879519
79	0xbeb6e53a	-0.3572176
80	0x3f18a65b	0.5962884
81	0xbf3705b7	-0.71493095
82	0x3f31b53a	0.69417155
83	0xbc0fc6a4	-0.008775387
84	0x3e054017	0.1301273
85	0x3f11272c	0.56700397
86	0x3e9d2aea	0.30696803
87	0x3ec868cb	0.3914245
88	0x3f2db60d	0.6785591
89	0x3dc3acbb	0.0955443
90	0xbea5725b	-0.3231381
91	0xbf2ba028	-0.67041254
92	0xbf841c7b	-1.0321192
93	0xbec087d2	-0.37603623
94	0x3e2cec4c	0.16887015
95	0x3fd3c600	1.65448
96	0x3efd9e6e	0.49534935
97	0xbeffb587	-0.49943182
98	0x3f800bac	1.0003562
99	0xbd2d506d	-0.042313028
100	0x3e198953	0.14993791
101	0x3fd947ba	1.6975014
102	0xbf08f679	-0.5350109
103	0x3fe5ef69	1.7963687
104	0xbf1b6e7c	-0.6071546
105	0xbfa2645f	-1.2686881
106	0xbfbc0968	-1.469037
107	0xbf880fb2	-1.062979
108	0x3ed23886	0.4105875
109	0xc0039171	-2.055752
110	0xbe7b7d27	-0.2455946
111	0x3ea538eb	0.32269987
112	0x3f41edf3	0.75753707
113	0x3ef660b2	0.48120648
114	0xbfb18459	-1.3868514
115	0x3d68d5a1	0.056844357
116	0xbf95b999	-1.1697265
117	0x3ee3cf5b	0.44494137
118	0x3fce8369	1.6133853
119	0x3f276833	0.6539337
120	0xbfa95cc3	-1.3231434
121	0x3f34c68e	0.7061547
122	0x3f89014d	1.0703522
123	0xbda8e89c	-0.08247492
124	0xbfc46a7c	-1.5344996
125	0x3f126414	0.5718396
126	0x3e2d8a78	0.16947353
127	0x3e97f37a	0.29677945

bn_cont.weight f4 [34]
0	0x3f6c034c	0.9219253
1	0x3f53c307	0.82719463
2	0x3f4d81f9	0.8027645
3	0x3f631135	0.8869813
4	0x3fcc8725	1.5978743
5	0x3f4e1cda	0.80512774
6	0x3f6435f9	0.89144856
7	0x3f5e98de	0.86952007
8	0x3f67b498	0.9050994
9	0x3fc23d95	1.5175043
10	0x3f9a0be5	1.203488
11	0x3f473927	0.7782158
12	0x3f4fd317	0.8118147
13	0x3f56ee26	0.83957136
14	0x3f518b85	0.81853515
15	0x3f3aaf50	0.72923756
16	0x3f46c8ae	0.7764996
17	0x3f6c2cef	0.92256063
18	0x3f694940	0.91127396
19	0x3f65a64c	0.89706874
20	0x3f723079	0.94605213
21	0x3f603ee0	0.8759594
22	0x3f82ce36	1.021918
23	0x3f5c12b4	0.8596604
24	0x3f6e6871	0.93128115
25	0x3f65c275	0.8974984
26	0x3f5939b4	0.84853673
27	0x3f61d6bc	0.88218284
28	0x3f59cdd7	0.8507971
29	0x3f55bd54	0.83492017
30	0x3f51fa27	0.8202233
31	0x3fd5b5a3	1.6696056
32	0x3f9e460f	1.236513
33	0x3fad5fef	1.3544902

bn_cont.bias f4 [34]
0	0xbe53f7cd	-0.20699997
1	0xbe0796da	-0.13241139
2	0x3d2e1f21	0.042510156
3	0x3e17c80e	0.14822409
4	0x3ce37d43	0.02776969
5	0xbd5aad7e	-0.05338811
6	0xbe36c57d	-0.17848773
7	0x3d93020c	0.07178125
8	0xbe8c818b	-0.27442583
9	0x3d1e058e	0.038579516
10	0x3e0b391f	0.13596009
11	0x3d2edfb2	0.0426938
12	0xbd05d6d4	-0.03267558
13	0x3e07bf6d	0.13256617
14	0x3e188cb7	0.14897428
15	0xbd0a6a6d	-0.0337929
16	0xbd9429b3	-0.07234516
17	0xbe245dc2	-0.16051391
18	0xbde9eda5	-0.1142228
19	0xbe15ccc2	-0.1462889
20	0xbe877913	-0.2645956
21	0xbe972ddf	-0.29527184
22	0x3e003bc6	0.12522802
23	0x3e311ff9	0.17297353
24	0xbe24ee84	-0.16106611
25	0xbe1404f6	-0.14455017
26	0x3d7e2cdd	0.062054504
27	0xbdd9a118	-0.10626429
28	0xbe8e72be	-0.27821916
29	0x3dff7147	0.12472778
30	0xbd997587	-0.0749312
31	0x3e8c2e25	0.27378955
32	0xbe13bd7b	-0.1442775
33	0xbd429f48	-0.047515184

bn_cont.running_mean f4 [34]
0	0x42b27337	89.22503
1	0xbf4d0da8	-0.8009896
2	0x40b869bc	5.762907
3	0x3e8b4de5	0.27207866
4	0x3ed4f831	0.41595605
5	0x3f88ce22	1.0687907
6	0x3f8c2570	1.0948925
7	0xbde383aa	-0.11109097
8	0x3f1782a5	0.5918372
9	0x3c61498b	0.013750444
10	0x401779c0	2.366806
11	0x4775a595	62885.582
12	0x47ecf8de	121329.734
13	0x48407725	197084.58
14	0x3f776849	0.966435
15	0x409d7ec8	4.921726
16	0x3f02716d	0.50954324
17	0x40131f51	2.2987864
18	0xc301ccca	-129.79996
19	0xc06683d3	-3.601796
20	0xc0087e9a	-2.1327271
21	0x41d810c4	27.008186
22	0xc1c1d319	-24.228075
23	0x405a3fef	3.4101522
24	0x3fcd1bb1	1.6024076
25	0x42b30036	89.50041
26	0x450afeb5	2223.9192
27	0x40ceaa25	6.4582696
28	0x425829ca	54.04081
29	0x405752cd	3.3644288
30	0x4331197c	177.09955
31	0x3e8a8259	0.27052572
32	0x428d81da	70.75362
33	0x40e60805	7.188479

bn_cont.running_var f4 [34]
0	0x420a1191	34.517155
1	0x405ec16b	3.4805553
2	0x3e95ad7d	0.29233924
3	0x3e4ad50a	0.1980783
4	0x3e78cb88	0.24296391
5	0x3f8188be	1.0119855
6	0x3f26c566	0.65144956
7	0x3f559f81	0.8344651
8	0x3ee214f3	0.44156608
9	0x3e9260ca	0.2858947
10	0x3ea46481	0.32107928
11	0x51089a31	3.6668903e+10
12	0x516c96b1	6.350878e+10
13	0x51a415e8	8.809277e+10
14	0x3f2a7ed4	0.66599774
15	0x40d27e2d	6.5779023
16	0x3e7fe259	0.24988689
17	0x41faa34c	31.329735
18	0x42909588	72.29205
19	0x40d806f5	6.7508492
20	0x42f89b0f	124.30285
21	0x4176cfe9	15.425759
22	0x4289214b	68.565025
23	0x3d039665	0.03212585
24	0x3c1f5cf2	0.00972675
25	0x421ab2a2	38.674446
26	0x4812506b	149825.67
27	0x3e5e601a	0.21716347
28	0x3e573ff6	0.21020493
29	0x40596615	3.3968556
30	0x459af6ac	4958.834
31	0x43dd48e2	442.5694
32	0x4235ace3	45.418835
33	0x3f1fb823	0.62390345

fc1.weight f4 [64, 50]
0	0x3d59b12e	0.053147487
1	0x3c70c0e1	0.014694423
2	0xbcc7b03e	-0.024376031
3	0xbd492c80	-0.049114704
4	0x3d80d3ee	0.062904224
5	0xbc4e324b	-0.012585233
6	0xbda5b8d7	-0.08091896
7	0xbd4e629a	-0.050387003
8	0x3d8d68b6	0.06904738
9	0x3da25be0	0.0792768
10	0x3d752bce	0.05985623
11	0xbcaa825c	-0.020814113
12	0xba7d2f35	-0.00096582185
13	0x3c5d9917	0.013525269
14	0x3cb4ba35	0.022061447
15	0xbb998dc0	-0.0046860874
16	0x3d83f5da	0.06443377
17	0x3d2d2742	0.042273767
18	0xbd2f024d	-0.042726804
19	0xbd35c15a	-0.044373848
20	0x3e2788de	0.16360804
21	0x3ba7fa83	0.005126299
22	0x3db0adb1	0.08626879
23	0xbcfbbbb9	-0.030729162
24	0x3dddafa2	0.10824515
25	0xbec9b067	-0.39392397
26	0xbdd70bb6	-0.105002806
27	0xbda3c98e	-0.07997428
28	0x3cb2f407	0.021844877
29	0xbcbb83b7	-0.022889955
30	0x3cd10d7c	0.025519125
31	0x3ca83a7d	0.020535702
32	0xbd2efd59	-0.04272208
33	0xbd296939	-0.041360114
34	0x3ccad450	0.024759442
35	0xbd3c037f	-0.04590177
36	0x3c367695	0.011136671
37	0xbcbf4b35	-0.023351291
38	0xbca4dedf	-0.020125804
39	0x3bceb76b	0.006308486
40	0x3d36cca1	0.044628743
41	0x3dc44119	0.09582729
42	0x3c20355f	0.00977835
43	0xbd59569f	-0.053061124
44	0xbd68d9da	-0.056848384
45	0xbdf5fe23	-0.12011363
46	0xbde6f5f9	-0.11277384
47	0x3e2ed4d7	0.1707338
48	0xbd545a16	-0.051843725
49	0xbe25ce67	-0.16192017
50	0x3d0824a2	0.03323806
51	0x3d119a81	0.035547737
52	0x3c70471d	0.014665392
53	0xbd046d6f	-0.032330927
54	0x3cf705a2	0.030154053
55	0x3ca08a65	0.019597242
56	0xbcd4a0d0	-0.025955588
57	0xb9a87103	-0.00032127657
58	0xbcd98fc4	-0.02655781
59	0x3d9c3eb8	0.0762915
60	0xbd09de30	-0.03365916
61	0x3c9fc14c	0.01950135
62	0x3c1dab2f	0.009623333
63	0x3b2e7924	0.0026622498
64	0xbcab4e6c	-0.020911418
65	0x3cf5a06c	0.029983722
66	0x3cdd36aa	0.027003605
67	0x3a9d61b3	0.0012007266
68	0xbdb8231e	-0.08991073
69	0x3bb61ee8	0.0055578835
70	0xbe8dac70	-0.27670622
71	0xbcaea707	-0.02131988
72	0x3d71225a	0.05887065
73	0xbc85f8c2	-0.016353969
74	0x3c20e091	0.009819166
75	0xbbfe1255	-0.00775365
76	0xbd3c89df	-0.04602992
77	0xbce35e2a	-0.027754862
78	0xbc1a1697	-0.0094048
79	0x3c3c9e96	0.011512419
80	0x3cdb1c1e	0.026746806
81	0xbd80be76	-0.062863275
82	0x3d59dfe9	0.053192053
83	0x3d8f67ba	0.07002206
84	0x3d379a5b	0.04482494
85	0xbda4295e	-0.08015703
86	0x3dc9e796	0.09858625
87	0x3ddaefe4	0.10690287
88	0xbd2fdec9	-0.042937074
89	0x3d5defe7	0.054183867
90	0x3c96798a	0.018368501
91	0xbc19817a	-0.0093692485
92	0xbce4127b	-0.027840843
93	0x3dc4268a	0.09577663
94	0x3d4be938	0.04978296
95	0xbd5c8c60	-0.05384481
96	0xbc6f1ac4	-0.014593784
97	0xbedaf10e	-0.42762035
98	0xbd140d60	-0.036145568
99	0xbe0d5ab6	-0.13804135
100	0xbb3b8451	-0.0028612802
101	0x3d167215	0.03672989
102	0x3c14c0bf	0.009079157
103	0x3c016598	0.007897757
104	0x3a8ac1b9	0.0010586298
105	0xbc111ad4	-0.008856494
106	0x3dbc3d09	0.09191329
107	0x3cc967ca	0.024585623
108	0xbb95b54b	-0.004568731
109	0x3d80afb1	0.062835105
110	0xbc41208f	-0.011787548
111	0x3c8af8b0	0.016964287
112	0xbd1af447	-0.037830617
113	0x39d15e90	0.0003993404
114	0x3c7c83af	0.015412255
115	0x3c27dfd5	0.010246237
116	0x3de18680	0.11011982
117	0xbd5194ce	-0.0511673
118	0x3d335bc4	0.043788686
119	0xbd428002	-0.04748536
120	0x3e3fc7a8	0.18728507
121	0x3db442e6	0.08801822
122	0xbd7b86c3	-0.061407816
123	0xbb54ebcc	-0.0032489179
124	0x3d10dc21	0.03536618
125	0xbd8651f7	-0.06558602
126	0xbe4af069	-0.19818272
127	0x3dc64268	0.09680635
128	0xbd5e485a	-0.05426822
129	0x3c9cf564	0.01915998
130	0xbb18ec11	-0.0023334066
131	0x3d4e8e4b	0.05042867
132	0x3b9b5c2c	0.0047412124
133	0xbde4c4bb	-0.11170336
134	0xbdafb1f6	-0.08578865
135	0x3d335ebd	0.04379152
136	0x3dc71ca5	0.097222604
137	0xbcb6722d	-0.02227124
138	0xbe50c446	-0.20387372
139	0x3ce5f059	0.028068708
140	0x3da23a2d	0.079212524
141	0x3e248467	0.16066132
142	0xbdbf28fa	-0.093339875
143	0x3d460e9e	0.048353784
144	0x3dc10005	0.09423832
145	0xbd984d11	-0.07436574
146	0x3da51f07	0.080625586
147	0x3e727ee2	0.23681214
148	0x3db05038	0.086090505
149	0xbe6048cb	-0.21902768
150	0xbc488988	-0.012239821
151	0x3dc4bc92	0.096062794
152	0x3bb44e3e	0.0055024913
153	0x3db99b14	0.09062782
154	0xbdd0bdf6	-0.10192482
155	0x3c658795	0.014009376
156	0x3d24186d	0.040062357
157	0xbc8e7694	-0.017390527
158	0xbd3b7198	-0.04576263
159	0x3cade7d7	0.021228714
160	0xbd641e77	-0.055693116
161	0x3d82273d	0.0635514
162	0x3e246dd8	0.16057527
163	0x3de34518	0.11097163
164	0xbe142ba7	-0.14469777
165	0xbd6f1e4f	-0.058378514
166	0xbd963c29	-0.073356934
167	0x3ceda5dd	0.029009754
168	0x3e024d5e	0.12724826
169	0x3d917ac1	0.071034916
170	0xbe2eda64	-0.17075497
171	0xbe0b6379	-0.13612165
172	0x3d8f50cf	0.06997835
173	0xbe07ca37	-0.13260733
174	0xbd205f58	-0.039153427
175	0xbe1ac393	-0.15113668
176	0xbd1b5359	-0.037921283
177	0x3d23c999	0.03998718
178	0x3c8fe955	0.017567316
179	0xbbedf5d6	-0.007261972
180	0xbc97b56a	-0.018519122
181	0x3d270937	0.040780272
182	0x3dd0a98b	0.10188588
183	0xbd914aeb	-0.070943676
184	0xbdf96b78	-0.12178701
185	0x3d69e2ea	0.057101168
186	0xbc70fcdf	-0.014708727
187	0x3d71229b	0.058870893
188	0x3d48b74b	0.049002927
189	0x3ca1d921	0.019756855
190	0xbabce3cf	-0.0014411154
191	0x3e0cee53	0.13762788
192	0xbdbdc28b	-0.09265622
193	0x3ddfcc72	0.10927667
194	0x3debbcb7	0.11510604
195	0xbca0ce51	-0.01962963
196	0xbd48cd8a	-0.049024142
197	0xbe6a90c9	-0.22906794
198	0x3dcea6f5	0.10090438
199	0xbe34c653	-0.1765378
200	0x3da5731e	0.080785975
201	0xbcd13ad9	-0.025540756
202	0xbdbe4f6f	-0.092924945
203	0x3bc690b3	0.00605973
204	0x3d9619b9	0.07329125
205	0xbd4e50b4	-0.050369933
206	0xbd88c059	-0.066773124
207	0x3b79ee13	0.0038136288
208	0xbd28cb73	-0.04120965
209	0xbd83e120	-0.064394236
210	0xbc52ef71	-0.01287447
211	0xbd00458f	-0.031316336
212	0x3c8f3540	0.017481446
213	0x3d4bf1a4	0.049790993
214	0xbc44522a	-0.01198248
215	0x3ce65d25	0.028120587
216	0xbd35f828	-0.044426113
217	0x3df3d99e	0.119067416
218	0xbcf7bbc5	-0.030240903
219	0xbe0341ca	-0.12818065
220	0x3e4d521d	0.20050855
221	0x3c809fab	0.015701136
222	0x3c9f36e0	0.019435346
223	0x3da2ed2d	0.07955394
224	0x3dbcabd5	0.09212462
225	0xbdc15b02	-0.094411865
226	0x3c7aaba5	0.015299712
227	0xbd0b6cf3	-0.03403945
228	0x3e0546f0	0.13015342
229	0x3d43a131	0.047761146
230	0xbd603351	-0.05473644
231	0x3d0d0f7d	0.0344386
232	0xbc509b55	-0.012732347
233	0x3d9a688f	0.07539474
234	0x3dde4a28	0.10853988
235	0x3c39d038	0.011341147
236	0x3d8e0b81	0.06935788
237	0xbd27b4c2	-0.04094387
238	0xbdd97bb5	-0.10619298
239	0xbd059982	-0.0326171
240	0xbd2207f0	-0.03955835
241	0x3d853e5e	0.06506036
242	0xbcbcd667	-0.023051454
243	0xbd74a484	-0.059727207
244	0xbd93449f	-0.07190823
245	0x3cb6ade7	0.02229972
246	0x3d63a24a	0.055574693
247	0xbecd2ec3	-0.4007474
248	0x3e014c55	0.12626775
249	0x3adf72cf	0.0017047765
250	0x3dbf21e5	0.09332637
251	0x3cb0b261	0.021569433
252	0xbc444ada	-0.011980737
253	0x3cddc41f	0.027071057
254	0x3a463463	0.0007560907
255	0x3b89c922	0.004204885

fc1.bias f4 [64]
0	0xbe49e1bf	-0.19715022
1	0xbe60367a	-0.21895781
2	0xbe45e16b	-0.19324271
3	0xbd172615	-0.036901552
4	0xbe29aefa	-0.16570655
5	0xbda9a53f	-0.08283471
6	0xbe8c8c71	-0.27450898
7	0xbe0405d0	-0.12892842
8	0x3cf68c63	0.030096238
9	0xbe8c9003	-0.27453622
10	0xbc029326	-0.007969653
11	0xbdd3109a	-0.10305901
12	0xbd05a4cf	-0.032627877
13	0xbe667704	-0.22506338
14	0xbe422b4d	-0.1896183
15	0xbe3ec465	-0.18629606
16	0xbe61e269	-0.22059025
17	0xbe3b1414	-0.18269378
18	0xbe71de8e	-0.23620054
19	0xbc91320e	-0.017724063
20	0xbe4082e9	-0.18799938
21	0xbcc9505d	-0.024574453
22	0xbd97aa82	-0.07405569
23	0xbcb0fe30	-0.021605581
24	0xbdfffe34	-0.12499657
25	0xbe4207fb	-0.18948357
26	0xbe04d988	-0.12973607
27	0xbe369f45	-0.17834194
28	0xbe77ee07	-0.24211894
29	0xbe750b81	-0.2393017
30	0xbdfa3903	-0.12217905
31	0xbd000b74	-0.031260923
32	0xbe0a11cc	-0.13483351
33	0xbe79be50	-0.24389005
34	0xbe001174	-0.12506658
35	0xbe35bf3c	-0.17748731
36	0xbe4c7cf9	-0.19969548
37	0xbe10b64c	-0.1413204
38	0xbe142d30	-0.14470363
39	0xbd6c0c14	-0.057628706
40	0xbe0794a3	-0.13240294
41	0xbead64ad	-0.33865872
42	0xbd0cd23a	-0.034380175
43	0xbe8490c4	-0.25891697
44	0xbe3ba018	-0.1832279
45	0xbda22350	-0.079168916
46	0xbe239d37	-0.15977941
47	0xbd6b7d0f	-0.057492312
48	0xbe089e04	-0.13341528
49	0xbcf13544	-0.029444344
50	0xbdc7220a	-0.09723289
51	0xbec465d9	-0.38358954
52	0xbe17efb6	-0.14837536
53	0xbe24ff2c	-0.16112965
54	0x3dcc8314	0.09985939
55	0xbd87a2f0	-0.06622875
56	0xbe6d4cbf	-0.23173808
57	0xbddb80f9	-0.10717959
58	0xbe144db7	-0.14482771
59	0xbe2786da	-0.16360036
60	0xbd6d2155	-0.057893116
61	0xbea35762	-0.31902605
62	0xbd91f45a	-0.071266845
63	0xbc84eb4e	-0.016225483

bn1.weight f4 [64]
0	0x3f8bbc35	1.0916811
1	0x3f8cf3cc	1.1011901
2	0x3f8ba74d	1.0910431
3	0x3f5a45c6	0.85262716
4	0x3f7da2d0	0.9907656
5	0x3f89e92f	1.0774287
6	0x3f8f3097	1.1186703
7	0x3f9035b0	1.1266384
8	0x3f5f4570	0.8721533
9	0x3f5f9fbb	0.87353104
10	0x3f813093	1.0092949
11	0x3f6ef252	0.933385
12	0x3f703d22	0.9384328
13	0x3f702cbf	0.9381828
14	0x3f7256b9	0.9466358
15	0x3f6040a5	0.8759864
16	0x3fa5ae42	1.2943804
17	0x3f6f3954	0.9344685
18	0x3f882b09	1.0638133
19	0x3f73b9d5	0.9520543
20	0x3f67d5e1	0.9056073
21	0x3f6430f8	0.8913722
22	0x3f5bca84	0.8585589
23	0x3f7005e4	0.9375899
24	0x3f8b8afe	1.0901792
25	0x3f73c977	0.95229286
26	0x3f5fd0e7	0.87428135
27	0x3f943fd0	1.1581974
28	0x3f890a44	1.0706258
29	0x3f82e1e5	1.0225188
30	0x3f73f857	0.9530081
31	0x3f77ec2a	0.9684473
32	0x3f7e5e27	0.99362415
33	0x3f81ca8c	1.0139937
34	0x3f64ccb8	0.89374876
35	0x3f5884ff	0.84577936
36	0x3f69d0b2	0.9133407
37	0x3f62be7e	0.8857192
38	0x3f6cb358	0.92461157
39	0x3f68def0	0.90965176
40	0x3f852535	1.040198
41	0x3f85501d	1.0415074
42	0x3f7b6c02	0.9821168
43	0x3f6988c9	0.9122434
44	0x3f67a153	0.90480536
45	0x3f71a325	0.94389564
46	0x3f79ce04	0.9757998
47	0x3f75a8e9	0.9596086
48	0x3f75c5dc	0.96005034
49	0x3f6f3693	0.9344265
50	0x3f7c9d08	0.9867711
51	0x3f84de49	1.0380336
52	0x3f61c074	0.88184285
53	0x3f81d314	1.0142541
54	0x3f69740d	0.91192704
55	0x3f6b37f0	0.9188223
56	0x3f857a8e	1.0428026
57	0x3f5e8b5c	0.86931396
58	0x3f8db434	1.1070619
59	0x3f634a53	0.88785285
60	0x3f6990b1	0.91236407
61	0x3f6bce12	0.92111313
62	0x3f6c6288	0.92337847
63	0x3f6aa5da	0.9165932

bn1.bias f4 [64]
0	0xbe108302	-0.14112476
1	0xbe941212	-0.28920037
2	0xbe23c6a5	-0.15993746
3	0xbdac6b59	-0.084189124
4	0xbe8a1633	-0.26970062
5	0xbd950607	-0.0727654
6	0xbe94d8fd	-0.290718
7	0xbd54545b	-0.05183826
8	0xbd4637ce	-0.048393063
9	0xbe13de73	-0.14440326
10	0xbd942245	-0.07233099
11	0xbdf363d8	-0.11884278
12	0xbcbcdd9b	-0.023054888
13	0xbd1336a5	-0.035940785
14	0xbdb49343	-0.088171504
15	0xbd5cd408	-0.053913146
16	0xbe387a6f	-0.18015455
17	0xbd19280f	-0.03739172
18	0xbe074451	-0.13209654
19	0xbda887e5	-0.08229045
20	0xbe9e569b	-0.3092545
21	0xbd5670ca	-0.052353658
22	0xbd9c14af	-0.076211326
23	0x3d2835bd	0.041066874
24	0xbe72699e	-0.23673102
25	0xbdb8911c	-0.090120524
26	0x3db7855b	0.089609824
27	0xbc4593e6	-0.0120591875
28	0xbe41fc40	-0.18943882
29	0xbe07fe43	-0.13280587
30	0xbe4dd896	-0.20102152
31	0x3db02dbb	0.086024724
32	0xbe08d0ce	-0.13360903
33	0xbe44ec94	-0.19230872
34	0xbd447484	-0.04796268
35	0xbd6e878d	-0.05823474
36	0xbd85cf32	-0.0653366
37	0xbe17d16c	-0.14825982
38	0x3b61e45f	0.0034468395
39	0xbd637e24	-0.05554022
40	0x3daac7c2	0.08338882
41	0xbf253a32	-0.64541924
42	0x3d651f1d	0.055937875
43	0xbddc40ee	-0.10754572
44	0xbe7e2245	-0.2481776
45	0xbde3dfb2	-0.11126651
46	0xbdfe3de6	-0.1241415
47	0xbe2d560c	-0.16927356
48	0xbd7c4724	-0.061591282
49	0xbd02f466	-0.031971358
50	0xbc747b4d	-0.014921975
51	0xbeed2a19	-0.4632118
52	0xbe7e7b3e	-0.248517
53	0xbe1beb5d	-0.15226503
54	0xbd1a7ca6	-0.03771653
55	0xbd6e723f	-0.058214422
56	0xbd27f692	-0.041006632
57	0xbe24045a	-0.16017285
58	0x3d2128c1	0.039345507
59	0xbda94dc3	-0.08266785
60	0xbcc15b89	-0.023603218
61	0xbe965c7f	-0.29367444
62	0xbb20e9f1	-0.0024553502
63	0xbdce1e3b	-0.1006436

bn1.running_mean f4 [64]
0	0xbea81193	-0.32825908
1	0xbf08801d	-0.53320485
2	0xbe8b2850	-0.27179193
3	0xbea1f489	-0.31631878
4	0xbeeaa995	-0.45832506
5	0xbe86b5d3	-0.26310596
6	0xbebad295	-0.36488786
7	0xbeda3d48	-0.4262488
8	0x3e228dda	0.15874425
9	0xbe92db50	-0.28682947
10	0xbc79a4d4	-0.015237052
11	0xbe59d044	-0.21270853
12	0xbe6f98bf	-0.23398112
13	0xbe8bdb85	-0.27315918
14	0xbe688ba6	-0.22709522
15	0xbea8cac8	-0.3296721
16	0xbeb0db40	-0.34542274
17	0xbe876977	-0.2644765
18	0xbe87b689	-0.2650645
19	0xbe6273c1	-0.22114469
20	0xbe08f40e	-0.1337435
21	0xbea404fc	-0.32035053
22	0xbe8d7ed0	-0.27635813
23	0xbe6982dc	-0.22803825
24	0xbe9b5829	-0.30340698
25	0xbe82ba2f	-0.25532672
26	0xbe396c30	-0.18107677
27	0xbe80fe2c	-0.25193918
28	0xbee2ab2a	-0.44271213
29	0xbe6e99f1	-0.23300911
30	0xbed0fb83	-0.40816888
31	0xbe015b42	-0.12632468
32	0xbe78ea12	-0.2430804
33	0xbe883fa7	-0.26611063
34	0xbe898cd6	-0.26865262
35	0xbec12117	-0.37720558
36	0xbeb9ed3a	-0.36313802
37	0xbe9c2a5a	-0.30501062
38	0xbe30b285	-0.172556
39	0xbe0decc7	-0.13859855
40	0xbe8f43f2	-0.27981526
41	0xbf2f867c	-0.6856458
42	0xbe6f1d28	-0.23350966
43	0xbec8adce	-0.39195102
44	0xbdf60ccf	-0.12014162
45	0xbea2ca2b	-0.31794867
46	0xbe83db79	-0.25753382
47	0xbecdeb1a	-0.4021843
48	0xbe6433ae	-0.22285339
49	0xbe89ed69	-0.26938942
50	0xbe92c1e7	-0.2866356
51	0xbeb74c52	-0.35800415
52	0xbdfdaece	-0.12386857
53	0xbed12f10	-0.40856218
54	0x3e55562c	0.20833653
55	0xbe434819	-0.19070472
56	0xbeb2d772	-0.34929997
57	0xbeb34989	-0.3501704
58	0xbde202e6	-0.11035709
59	0xbe87d06b	-0.26526198
60	0xbe6c0290	-0.23047853
61	0xbf0ef9c9	-0.5584989
62	0xbe858319	-0.26076582
63	0xbd2db6ca	-0.04241065

bn1.running_var f4 [64]
0	0x3f511bae	0.8168286
1	0x3f92d1e4	1.1470304
2	0x3f2176db	0.63071984
3	0x3f5d936d	0.8655308
4	0x3f51ef64	0.82005906
5	0x3f263c34	0.6493561
6	0x3ef46f56	0.47741193
7	0x3f2da95d	0.6783655
8	0x3f182e06	0.59445226
9	0x3ed3b75d	0.41350833
10	0x3ecef77f	0.404232
11	0x3f3dd520	0.7415333
12	0x3f002461	0.5005551
13	0x3f053c5a	0.52045214
14	0x3ef30e29	0.4747174
15	0x3f237410	0.6384897
16	0x3f70afbf	0.9401817
17	0x3f21ba1c	0.63174605
18	0x3f045732	0.5169555
19	0x3ecc6dcd	0.3992752
20	0x3f4cd282	0.8000871
21	0x3f0a2f23	0.53978175
22	0x3f1ca0e1	0.6118298
23	0x3f36ba09	0.7137762
24	0x3f0bf04b	0.5466353
25	0x3f0236d7	0.5086493
26	0x3f037651	0.5135241
27	0x3f41b05d	0.75659734
28	0x3f2e4477	0.6807322
29	0x3efa79d1	0.48921064
30	0x3fa22733	1.2668213
31	0x3f1b49c9	0.6065946
32	0x3f257f8b	0.6464774
33	0x3f23c667	0.6397461
34	0x3f54297e	0.8287581
35	0x3f668a95	0.9005521
36	0x3f1cad55	0.61201984
37	0x3ee91ce6	0.4552986
38	0x3f0ebb5e	0.5575465
39	0x3eef1057	0.46692154
40	0x3f167e50	0.5878649
41	0x3f57b2b3	0.8425705
42	0x3f12c9a9	0.5733896
43	0x3f31a5b2	0.69393456
44	0x3f090220	0.5351887
45	0x3edd66c7	0.43242475
46	0x3f084c9f	0.53241915
47	0x3f55af31	0.83470446
48	0x3f2b67df	0.6695537
49	0x3ed8494f	0.4224343
50	0x3f2f3d4a	0.68452895
51	0x3f70d85e	0.9408015
52	0x3f5891ac	0.8459728
53	0x3f1d457e	0.6143416
54	0x3ea36072	0.3190952
55	0x3ee4e0da	0.44702798
56	0x3f17622e	0.59134185
57	0x3f1ce325	0.61284095
58	0x3f04aa8b	0.5182273
59	0x3ecbb016	0.3978278
60	0x3f244144	0.6416209
61	0x3f580679	0.84384876
62	0x3eb89dbc	0.36057842
63	0x3f2b6766	0.6695465

fc2.weight f4 [32, 64]
0	0x3d65826c	0.056032583
1	0x3d56d61e	0.05245029
2	0x3ca5396b	0.02016898
3	0xbd598123	-0.05310167
4	0x3b8ea79a	0.0043534758
5	0x3c4839f7	0.012220851
6	0xbdf6838f	-0.120368116
7	0xbd969e8f	-0.073544614
8	0xbe121a72	-0.142679
9	0xbd9537fc	-0.07286069
10	0x3d914fdf	0.07095312
11	0x3d10c366	0.035342596
12	0xbcea5084	-0.028602846
13	0xbcdee482	-0.02720857
14	0x3bdea4ff	0.0067945714
15	0xbd260e26	-0.040540837
16	0x3e0ed24c	0.1394741
17	0x3ca47dc8	0.020079508
18	0x3d3269b6	0.043557845
19	0xbd702676	-0.05863043
20	0x3c4f421d	0.01265004
21	0x3d80d9d6	0.06291549
22	0xbc9587e6	-0.018253278
23	0xbcf4032a	-0.029786665
24	0x3d93e607	0.072216086
25	0x3c10c30d	0.008835566
26	0x3d13bac3	0.03606678
27	0xbc251736	-0.010076335
28	0xbdc37f5b	-0.095457755
29	0xbe305f05	-0.17223747
30	0xbd85b2b2	-0.06528224
31	0x3c06cc8c	0.008227479
32	0x3dc09845	0.09404043
33	0xbc5792f2	-0.013157593
34	0x3d93a5fd	0.07209394
35	0xbd8a9d1c	-0.067682475
36	0xbc84186f	-0.016124932
37	0xbb657ce0	-0.0035017058
38	0xbdaab93b	-0.08336111
39	0xbdfe998d	-0.12431631
40	0xbd945c77	-0.07244199
41	0xbe51be93	-0.20482855
42	0x3cc6b914	0.024258174
43	0x3b094d11	0.0020950476
44	0xbc36dccf	-0.011161043
45	0xbc58fcd7	-0.0132438755
46	0x3d0caed9	0.034346435
47	0x3dcf88be	0.101335034
48	0x3cd07314	0.025445499
49	0x3c236db4	0.009974886
50	0x3dd3fbda	0.10350771
51	0x3e01d279	0.12677945
52	0x3d1fd8cb	0.03902511
53	0x3dc81729	0.097700424
54	0xbdaf7b79	-0.085684724
55	0x3dc38e4f	0.095486276
56	0x3c6a8771	0.014314518
57	0x3dbcc4c7	0.0921722
58	0xbe89ce6d	-0.26915303
59	0x3d8281e3	0.0637243
60	0xbc659b35	-0.014014055
61	0x3d232dc4	0.039838567
62	0xbca08810	-0.01959613
63	0xbd4cd392	-0.050006457
64	0x3b33bd14	0.0027425932
65	0xbe0f77dd	-0.14010568
66	0xbdf74baf	-0.120749824
67	0x3d97a58f	0.07404625
68	0x3d5a7bd8	0.053340763
69	0xbddc0a23	-0.10744121
70	0x3dd16619	0.10224552
71	0x3deebbe5	0.11656932
72	0x3bc54138	0.0060197376
73	0xbd973c84	-0.07384589
74	0x3d6cba6c	0.057794973
75	0x3c8dd5d8	0.017313883
76	0xbdcbeeec	-0.0995768
77	0xbda86237	-0.08221858
78	0xbd06da7c	-0.032923207
79	0xbd65504e	-0.055984788
80	0xbd63f597	-0.055654135
81	0x3da2950d	0.079385854
82	0x3e393216	0.18085513
83	0x3d05b912	0.0326472
84	0xbdb62b78	-0.0889501
85	0x3cdb1907	0.026745332
86	0xbe1836e9	-0.14864697
87	0x3b9796cc	0.0046261307
88	0x3dc0e89d	0.094193675
89	0xbb28563c	-0.0025686165
90	0x3d6b4fb1	0.057449047
91	0xbd7938cf	-0.060845193
92	0x3e0ef1b0	0.13959384
93	0x3cb99ae8	0.022656873
94	0x3e025d9d	0.12731023
95	0x3d92cc89	0.07167918
96	0x3c692f63	0.014232489
97	0xbc163fd8	-0.009170495
98	0xbc6f542c	-0.0146074705
99	0x3df45b5f	0.1193149
100	0xbdfd6954	-0.12373605
101	0x3ca4016b	0.020020207
102	0xbcc21b3a	-0.023694623
103	0xbcdb6a85	-0.02678419
104	0xbd10858a	-0.035283603
105	0xba06b76c	-0.00051390263
106	0x3d61e5d9	0.05515084
107	0x3ca9c902	0.02072573
108	0x3e0968ab	0.13418834
109	0x3db4b383	0.08823302
110	0x3d6bb89a	0.057549097
111	0xbdeab9dd	-0.11461232
112	0x3df061c9	0.11737401
113	0x3b8f782b	0.004378339
114	0x3d1b848f	0.037968215
115	0xbe033480	-0.12812996
116	0x3d922498	0.07135886
117	0xbddeb889	-0.10875041
118	0x3dd37f1a	0.10326977
119	0x3bd4d7fe	0.006495475
120	0x3dee62b7	0.11639922
121	0x3d03c7b4	0.032172874
122	0x3d554688	0.052069217
123	0x3dcc51c3	0.09976532
124	0x3d86c977	0.06581395
125	0xbe06231d	-0.13099332
126	0x3b567ee1	0.0032729434
127	0xbd14e3bc	-0.036349997
128	0x3daefe0d	0.0854455
129	0xbbc3b454	-0.0059724245
130	0x3e1ee0f0	0.15515494
131	0x3dd8b022	0.1058047
132	0xbc0fd2d4	-0.008778293
133	0x3cf9b0f3	0.030479884
134	0xbaf10f1d	-0.0018391345
135	0xbe0af6de	-0.13570735
136	0xbd30d71b	-0.04317389
137	0xbc4c87c5	-0.012483542
138	0xbcf5253e	-0.029924985
139	0xbe1cc3c7	-0.15309058
140	0xbd065730	-0.032797992
141	0x3d24e248	0.04025486
142	0x3d0696be	0.032858603
143	0xbdaf8901	-0.08571053
144	0x3d041f77	0.03225657
145	0x3e147e65	0.1450134
146	0x3e4f802f	0.20263742
147	0xbccdb7aa	-0.025111992
148	0xbde04e4a	-0.109524325
149	0x3d2f00ef	0.0427255
150	0xbbdb4aa2	-0.0066922465
151	0x3e424a3d	0.18973632
152	0xbc1d51cf	-0.009602024
153	0x3c00ed66	0.0078691
154	0x3c68d5a9	0.014211097
155	0xbe0823e4	-0.13294941
156	0x3cd3ec22	0.025869433
157	0xbde0d2e2	-0.10977723
158	0x3d8a42f5	0.06751052
159	0xbd461941	-0.048363928
160	0xbcf43465	-0.02981014
161	0xbdc1a84b	-0.094559275
162	0xbcf18e1e	-0.029486712
163	0xbd3cff4a	-0.0461419
164	0xbc68fffe	-0.01422119
165	0x3d2b0f0d	0.0417624
166	0x3db05996	0.08610837
167	0x3d7e05a3	0.062017094
168	0xbe104b6f	-0.14091276
169	0x3db92577	0.09040349
170	0xbe30da2d	-0.17270727
171	0xbe7327d8	-0.23745668
172	0x3d810353	0.06299462
173	0xbccfb472	-0.025354598
174	0xbe4054cc	-0.18782347
175	0xbe6001c9	-0.21875681
176	0x3c86e430	0.01646623
177	0x3de225f2	0.11042394
178	0xbd5d07f5	-0.053962667
179	0xbd416d86	-0.04722359
180	0x3d72c091	0.059265677
181	0x3d653077	0.055954423
182	0xbcf22de4	-0.029562898
183	0xbd8c6b93	-0.06856456
184	0x3dcfd68a	0.10148342
185	0x3a3f1db3	0.00072904973
186	0x3cc7206b	0.02430745
187	0xbd08f4ba	-0.033436514
188	0x3cc122d8	0.023576185
189	0xbd66a005	-0.05630495
190	0x3d8e75ec	0.069560856
191	0x3cc1b2bb	0.023644796
192	0xbd593201	-0.053026203
193	0xbcf9ecb6	-0.03050838
194	0xbdeec1e0	-0.116580725
195	0xbe5a3c85	-0.21312149
196	0x3d4bceab	0.04975764
197	0xbcf1bb27	-0.029508187
198	0x3e191063	0.14947657
199	0x3c5c059c	0.013429072
200	0x3d6a7d15	0.057248194
201	0x3d509306	0.050921462
202	0xbea8fed6	-0.33006924
203	0xbca18a58	-0.019719288
204	0xbdffa7f2	-0.12483205
205	0x3c3b9b82	0.01145065
206	0xbe0f7030	-0.1400764
207	0x3d2ade59	0.041715953
208	0xbd2458bc	-0.040123686
209	0xbcd18cf3	-0.025579905
210	0x3e0fdf53	0.14050035
211	0xbd0dabbc	-0.034587607
212	0x3d4e0468	0.05029717
213	0xbc7b6cc2	-0.015345754
214	0x3cba3dad	0.022734487
215	0x3c85da83	0.016339546
216	0xbd4563d4	-0.048190907
217	0x3dc394d4	0.09549871
218	0xbc5f30bf	-0.013622462
219	0xbe14dbdf	-0.14536999
220	0xbc1f7ce3	-0.009734365
221	0x3b914aa0	0.004433945
222	0xbe5d8ffe	-0.2163696
223	0xbe0c7cc6	-0.13719472
224	0xbde56ab7	-0.11201995
225	0x3d5f2602	0.054479606
226	0x3dbf8ea4	0.093533784
227	0x3d5cd48a	0.05391363
228	0x3ce6483a	0.028110612
229	0x3d52c48c	0.051456973
230	0x3d82c201	0.063846596
231	0xbdacf270	-0.08444679
232	0x3b3f9e77	0.002923874
233	0xbdfee2d9	-0.124456115
234	0x3d6c7060	0.057724357
235	0x3cbefdfe	0.023314472
236	0x3cf4da4e	0.029889252
237	0x3d9099be	0.07060574
238	0x3c9d2f89	0.019187706
239	0xbbf1c4b2	-0.0073781842
240	0xbd69452a	-0.056950726
241	0x3dc37009	0.095428534
242	0x3c9c5cbd	0.01908719
243	0xbdd27b58	-0.10277432
244	0xbe474952	-0.19461563
245	0x3d96e125	0.07367162
246	0xbd981904	-0.07426646
247	0x3cc6ae0f	0.02425292
248	0x3d32e49f	0.04367506
249	0x3db2ff83	0.08740141
250	0x3d3bf254	0.0458854
251	0xbd8cbe2e	-0.068722114
252	0x3dc23240	0.09482241
253	0xbe3f41dc	-0.18677467
254	0x3d6692b8	0.056292266
255	0x3dba024c	0.09082469

fc2.bias f4 [32]
0	0xbb87dd9b	-0.0041462905
1	0x3d753a0b	0.059869807
2	0x3d57f9e9	0.052728567
3	0x3dbb99f5	0.09160224
4	0x3eb5e25e	0.35524267
5	0xbe50e8da	-0.20401326
6	0x3e4d07a1	0.20022441
7	0x3e89be08	0.26902795
8	0x3d909491	0.07059587
9	0x3defc601	0.11707688
10	0x3a870cd3	0.0010303505
11	0x3e0bbd9d	0.1364655
12	0xbc5e02b0	-0.013550445
13	0x3abde51d	0.0014487837
14	0x3eb9382e	0.36175674
15	0x3da6085b	0.081070624
16	0x3d470fa5	0.048598904
17	0x3e24412f	0.1604049
18	0x3cebde69	0.028792577
19	0x3e462ea8	0.19353735
20	0x3d0733e7	0.033008482
21	0x3eab11c4	0.33411992
22	0x3dda5c4b	0.10662135
23	0x3d03726e	0.03209155
24	0xbd39a45e	-0.04532277
25	0x3e0120d8	0.12610185
26	0xbd925a0e	-0.07146083
27	0x3dafbf94	0.085814625
28	0xbdafb8c0	-0.0858016
29	0xbc99fb51	-0.018796595
30	0x3e589ceb	0.2115361
31	0x3e0cb381	0.1374035

bn2.weight f4 [32]
0	0x3f8d83a2	1.1055796
1	0x3f8572c8	1.0425653
2	0x3f957a1f	1.1677893
3	0x3f97f54d	1.1871735
4	0x3f85087d	1.0393215
5	0x3f7dd8db	0.9915902
6	0x3f85b07b	1.0444483
7	0x3f94b09a	1.1616395
8	0x3f8f1e40	1.1181107
9	0x3f7233dc	0.9461038
10	0x3f763b67	0.9618439
11	0x3fa8e84f	1.3195895
12	0x3f9341f8	1.1504507
13	0x3f81bb9b	1.0135378
14	0x3fa41cac	1.282125
15	0x3f92a543	1.1456684
16	0x3f8f3df1	1.1190778
17	0x3f92306e	1.142103
18	0x3f9f6a22	1.2454264
19	0x3fa58744	1.2931905
20	0x3f759be4	0.95940995
21	0x3f908185	1.1289526
22	0x3f8f8219	1.1211578
23	0x3f8069af	1.0032252
24	0x3f96e031	1.1787168
25	0x3fa6da8e	1.3035448
26	0x3f81b991	1.0134755
27	0x3f97a0fd	1.1846005
28	0x3f8e8031	1.1132871
29	0x3f9eac6b	1.2396368
30	0x3fa1deee	1.2646158
31	0x3f9f863b	1.2462839

bn2.bias f4 [32]
0	0x3cb40408	0.021974578
1	0xbc8a342d	-0.016870582
2	0x3e4865c0	0.19570065
3	0x3e4a28fd	0.19742198
4	0x3dcd393f	0.100206845
5	0xbe099f4e	-0.13439676
6	0x3d948896	0.07252614
7	0x3e2c7b63	0.16843943
8	0x3e1acab9	0.15116395
9	0xbd67fc09	-0.056636844
10	0xbd0146cc	-0.031561658
11	0x3e9f34d9	0.31095007
12	0x3e56fed2	0.20995644
13	0x3ce6c2b6	0.028169017
14	0x3ea16638	0.315233
15	0x3db45452	0.08805145
16	0x3dcdd022	0.10049464
17	0x3df48372	0.11939134
18	0x3e94842b	0.29007086
19	0x3eaf5e4a	0.34251624
20	0xbd4f6249	-0.05063084
21	0x3e2120d3	0.15735178
22	0xbd7bc341	-0.061465506
23	0xbd0bd7ec	-0.034141466
24	0x3d9a9dd1	0.07549632
25	0x3e7545e6	0.23952445
26	0xbcde148b	-0.027109405
27	0x3e172ef7	0.1476401
28	0xbcb8426e	-0.022492614
29	0x3cecef4b	0.028922698
30	0x3e53b291	0.20673586
31	0x3e89a054	0.26880133

bn2.running_mean f4 [32]
0	0xbe118fed	-0.1421506
1	0x3e97c21d	0.29640284
2	0xbdeca235	-0.11554376
3	0xbe103a23	-0.14084677
4	0x3e01d524	0.12678963
5	0x3d87e412	0.06635298
6	0xbe76c235	-0.24097522
7	0x3c9fa920	0.019489825
8	0xbd9aba62	-0.07555081
9	0x3d2d3ba2	0.0422932
10	0xbe25b079	-0.161806
11	0xbd810558	-0.06299847
12	0xbdac8328	-0.084234536
13	0xbe9dd79d	-0.30828562
14	0x3f788ee9	0.97093064
15	0x3e482a67	0.19547425
16	0xbd2b94ea	-0.041890062
17	0xbe2ea09f	-0.1705346
18	0xbd628c24	-0.05530943
19	0xbe33c1dd	-0.17554422
20	0xbe472b7e	-0.19450185
21	0x3e0200de	0.12695643
22	0xbe7c025c	-0.24610275
23	0xbe5c1382	-0.21491817
24	0xbd71dc65	-0.059048075
25	0xbd8605ea	-0.06544097
26	0xbe3efdb3	-0.18651466
27	0xbe0b94d8	-0.13630998
28	0xbe89f540	-0.26944923
29	0xbe06e220	-0.13172197
30	0xbe33803c	-0.17529386
31	0xbc660b49	-0.0140407765

bn2.running_var f4 [32]
0	0x3e3a8bef	0.18217443
1	0x3e62c572	0.22145632
2	0x3ed9671f	0.42461488
3	0x3eaf103d	0.34192076
4	0x3dea7b9b	0.11449357
5	0x3dfbf5e3	0.123027585
6	0x3e964d11	0.29355672
7	0x3e8dabdd	0.27670184
8	0x3e8cb90e	0.27484936
9	0x3e4d3db4	0.20043069
10	0x3e22cb89	0.15897955
11	0x3e3c44ac	0.18385571
12	0x3e1e4bd7	0.15458618
13	0x3ec972b5	0.39345327
14	0x3f2db394	0.6785214
15	0x3e5851ba	0.21124926
16	0x3e75ff4b	0.24023168
17	0x3ea53de9	0.32273796
18	0x3eaca7f9	0.33721903
19	0x3e420820	0.18948412
20	0x3e75c4b3	0.24000816
21	0x3e72c0bc	0.23706335
22	0x3ec75089	0.3892863
23	0x3ec719ec	0.38886964
24	0x3e4b91c5	0.19879825
25	0x3e97c27a	0.2964056
26	0x3e81571c	0.25261772
27	0x3e4d7834	0.20065385
28	0x3edc3842	0.4301167
29	0x3eb320d5	0.34985986
30	0x3ee73607	0.45158407
31	0x3e895acb	0.26827082

fc3.weight f4 [5, 32]
0	0x3dabc68a	0.08387478
1	0xbca25a68	-0.0198185
2	0x3e8368f1	0.25666
3	0x3e3538d2	0.17697456
4	0x3e534934	0.20633394
5	0xbd921bb4	-0.0713419
6	0xbd793010	-0.06083685
7	0x3e2c7675	0.16842063
8	0x3e73b51a	0.23799554
9	0x3d3e82e0	0.04651153
10	0xbcac0897	-0.02100019
11	0x3e0ad7c2	0.13558868
12	0x3df2e7f9	0.118606515
13	0xbd8d80cd	-0.069093324
14	0x3db29bf1	0.0872115
15	0x3db51de3	0.08843591
16	0x3cce083d	0.025150413
17	0x3e7dfcd9	0.24803485
18	0x3de6c926	0.11268835
19	0x3d0e5079	0.034744713
20	0xbd3b0a91	-0.045664374
21	0x3e091435	0.13386615
22	0x3d57b424	0.05266203
23	0x3c5d1325	0.013493334
24	0xbd49ca0f	-0.049264964
25	0x3e305683	0.17220502
26	0xbc159cf4	-0.009131659
27	0x3e5c6835	0.21524127
28	0x3d8ca6f9	0.06867785
29	0x3df5e522	0.12006594
30	0x3d2b02de	0.04175078
31	0x3e4a2581	0.19740869
32	0xbd99aa8f	-0.075032346
33	0x3d6a8912	0.057259627
34	0x3e736f00	0.23772812
35	0x3d8a6c24	0.067589074
36	0x3e28e1ff	0.1649246
37	0xbe016272	-0.1263521
38	0x3c9b9fd4	0.01899711
39	0x3e0de7d3	0.13857965
40	0x3e4f8b07	0.20267878
41	0x3db036b8	0.08604187
42	0x3dffcdc9	0.12490422
43	0x3d6f6014	0.058441237
44	0x3db50bcb	0.0884014
45	0xbcb24f56	-0.021766346
46	0x3dd37780	0.10325527
47	0x3dc9f894	0.09861866
48	0x3cee6a9c	0.02910357
49	0x3d33ef8c	0.04392962
50	0x3d37f896	0.044914804
51	0xbccae7cf	-0.024768738
52	0xbe8ba47a	-0.27273923
53	0x3dd0c4ae	0.10193764
54	0xbe835f9e	-0.25658888
55	0xbeb2da77	-0.349323
56	0xbbfc346b	-0.0076966784
57	0x3de7cbca	0.113181666
58	0xbe022aff	-0.12711714
59	0x3da4b376	0.08042042
60	0xbe34fbbf	-0.17674159
61	0xbd9c26c6	-0.07624583
62	0xbe43a804	-0.19107062
63	0x3e493d4b	0.19652288
64	0xbe13131f	-0.14362763
65	0xbdab227a	-0.08356185
66	0x3d0f1b4b	0.034938138
67	0xbe1c52ba	-0.15265933
68	0xbe1195b6	-0.14217266
69	0x3e50fe84	0.2040959
70	0xbe005d79	-0.12535657
71	0xbe339bb4	-0.17539865
72	0xbc84dc58	-0.01621835
73	0xbcacbb1b	-0.021085313
74	0xbe0b4ff9	-0.13604726
75	0xbdfeb933	-0.12437668
76	0xbd2d9584	-0.042378917
77	0xbced5e43	-0.028975612
78	0x3da29db9	0.079402395
79	0x3b218e9f	0.002465166
80	0xbe8fad0d	-0.28061715
81	0x3c4de8f2	0.0125677455
82	0xbdc1c87e	-0.09462069
83	0xbe8515d9	-0.2599323
84	0x3ca0b8c0	0.019619346
85	0xbe50a97a	-0.2037715
86	0xbead92b4	-0.33900988
87	0xbd7e974c	-0.062156007
88	0x3dd5eca4	0.10445526
89	0xbe462f33	-0.19353943
90	0xbe70f5d5	-0.23531277
91	0xbc2b6642	-0.010461392
92	0x3e0560ec	0.13025254
93	0x3c7d2fb9	0.0154532725
94	0xbe10e0b2	-0.14148214
95	0x3d3082be	0.043093435
96	0xbe700d4d	-0.23442574
97	0xbda21e76	-0.07915966
98	0xbea42bed	-0.32064763
99	0xbecc2626	-0.39872855
100	0xbdec6f98	-0.11544722
101	0xbdf166e3	-0.11787202
102	0xbeb52f48	-0.35387635
103	0xbd01e6f3	-0.03171439
104	0xbe84cb49	-0.25936344
105	0xbd7f655b	-0.06235252
106	0x3c94a31c	0.018144183
107	0xbed8366c	-0.4222902
108	0xbe734355	-0.23756154
109	0xbe89b02c	-0.2689222
110	0xbea2b7e5	-0.31780925
111	0xbe5e4d32	-0.21709135
112	0xbe02f7d5	-0.12789853
113	0xbda9f5d1	-0.08298839
114	0xbeb47b43	-0.3525029
115	0xbede82f1	-0.43459275
116	0xbe2c2620	-0.16811419
117	0xbdcf69dc	-0.10127613
118	0xbd0951d0	-0.033525288
119	0xbe21b6f0	-0.15792441
120	0xbed8f6ac	-0.42375696
121	0xbdeb6ae2	-0.11494996
122	0xbe38030c	-0.17969912
123	0xbe2a6e3a	-0.1664361
124	0xbe4a6e07	-0.19768535
125	0xbe1d11b0	-0.15338778
126	0xbee5ced1	-0.4488435
127	0xbe313765	-0.17306288
128	0xbd895fe8	-0.06707746
129	0xbed0dbe1	-0.40792754
130	0xbe863a52	-0.2621637
131	0x3d95f9a5	0.073230065
132	0xbd14393d	-0.0361874
133	0xbd6c05f3	-0.05762286
134	0x3e04842b	0.12941043
135	0xbea27448	-0.3172934
136	0xbe68360a	-0.22676864
137	0xbe100d5a	-0.14067593
138	0xbe97839e	-0.29592603
139	0xbd315599	-0.043294523
140	0x3dbef85a	0.09324713
141	0x3e304b68	0.17216265
142	0xbe8ecb50	-0.2788949
143	0xbea3713b	-0.31922325
144	0xbe993104	-0.29920208
145	0xbe9225e0	-0.2854452
146	0xbdf39d2f	-0.11895215
147	0xbd24111a	-0.04005537
148	0x3d9b0512	0.075693265
149	0xbdd95fcb	-0.10613974
150	0xbe17f6d9	-0.14840259
151	0xbde8db0d	-0.113699056
152	0xbea9399b	-0.33051762
153	0xbe916219	-0.28395155
154	0x3b3c9762	0.0028776755
155	0xbe22a97f	-0.1588497
156	0xbea59a59	-0.3234432
157	0xbec7617a	-0.38941556
158	0x3db198f7	0.08671754
159	0xbe969372	-0.29409367

fc3.bias f4 [5]
0	0x3e376de8	0.1791302
1	0x3c0578d9	0.008146488
2	0x3d1b3b73	0.037898492
3	0xbecc0bdb	-0.39852795
4	0xbd443245	-0.047899503
