saved_models/DNN/fold3.pt (torch, 31579 bytes, 20 tensors)

emb_layers.0.weight f4 [16, 8]
00000000: 846f 80bf 8c50 c63e beed c73e 93e3 c8be
00000010: b1b2 0fbe 8594 873f e6b8 103e 1ac8 99be
00000020: e7fc a53e 625e ca3c 5652 4a3e 9192 f1bf
00000030: bf98 e83e 3109 e5bd c920 ba3e 4445 853f
00000040: 71fe 44bd 9ab5 e63d da61 8bbf 21d7 0d3f
00000050: d247 9e3e 0d3b d1bf f55e 43bf 8f47 643f
00000060: f67d 15bf ee1b 393f 2ef3 a4bf d287 d83e
00000070: 1ab5 bd3e c0d0 cdbe f72f 73be 3172 4d3f
00000080: b156 a7bf 97c7 073f 5fcf b5be 8289 a13f
00000090: efe2 1ebf 78ea a1be ea9f 33bf c9a6 993e
000000a0: ffef b9be 1779 e5bd f260 6d3e 2615 eabe
000000b0: 9d46 023e 9a47 25bf d192 77be a8c8 223f
000000c0: aa03 113f 895f 97bf cb00 0f3f add5 57bf
000000d0: 386d 97be 1eab a33f c4d9 d13e affc ae3e
000000e0: bc9c 2ebf 086e 213f a72a fd3e d1d7 613f
000000f0: 70e8 0fbf 132e 98bf b2ef c2bf 706e 6d3f
00000100: 9e54 ecbd bc9d b03e cfd0 64bf fc6e 8e3f
00000110: e7f7 42bf 6aed 533e 8fda 3dbf 189c dcbf
00000120: 9821 29bf 340a ddbf 390e 1d3e 9bbb 933e
00000130: 0528 4abd 63b5 f43d b314 1c3f 6e47 82bf
00000140: 5cee d0bf 506f b3bd 67e7 013f e235 c13f
00000150: cc76 82bf 4628 393d f82c 2e3f 44d8 efbe
00000160: ddbf 1abe 1131 b63e eb3f 223f accb 183f
00000170: 7bd4 9ebf 576c 33bf 0fc5 8b3e 53c2 e6bd
00000180: c1c8 50bf 144f 4abf 0c76 68be 94cd 8d3e
00000190: 85e9 2a3e f1fc 8dbf 644c ec3e 9c55 23bf
000001a0: 54d0 d1bd 6c63 b4be 6b2f 0abf 58ec a83e
000001b0: 2f15 ac3f 4893 92bf f837 b23f 430b 003f
000001c0: a475 b8bf 86b5 663f 7c82 bfbd d302 82bf
000001d0: 5e6d 10bf d954 303f d38b 8c3e 148f 2b3f
000001e0: 90f8 8dbe 1a36 e43f 1f31 a4be 4824 f93e
000001f0: d6c9 b83e 87e0 00bf d1dd 273e 131c 11bf
-1.0034032 0.38733327 0.3904857 -0.39236125 -0.14033009 1.05922 0.14133033 -0.30035478
0.32419512 0.024703208 0.19757971 -1.8872854 0.45429036 -0.11183394 0.36353138 1.0411763
-0.048094217 0.112651065 -1.0889237 0.55406386 0.3091417 -1.6346146 -0.7631677 0.8917169
-0.58395326 0.7230824 -1.2886713 0.42291123 0.37052232 -0.40198326 -0.23748766 0.8025237
-1.3073331 0.53038925 -0.35509774 1.2620089 -0.62065023 -0.31624198 -0.70165884 0.3001006
-0.36315915 -0.11204737 0.23181513 -0.4571926 0.1272225 -0.6456238 -0.241771 0.6358743
0.56646216 -1.182603 0.55860585 -0.8431042 -0.29575515 1.2786596 0.40986454 0.34177157
-0.6820791 0.6305852 0.49446604 0.88219935 -0.56214046 -1.1889061 -1.5229399 0.9274664
-0.11539577 0.34495342 -0.89381117 1.112762 -0.7615952 0.20696035 -0.7416162 -1.7235136
-0.66066885 -1.7268739 0.15337457 0.2885407 -0.04935457 0.11948659 0.60969085 -1.0178049
-1.6322742 -0.087614655 0.50743717 1.5094569 -1.0192504 0.045204423 0.68037367 -0.46844685
-0.15112253 0.3558431 0.6337878 0.5968578 -1.2408594 -0.7008719 0.2729878 -0.11267533
-0.81556326 -0.79026914 -0.22701281 0.27695906 0.16690643 -1.1092817 0.4615203 -0.63802505
-0.102448136 -0.35232103 -0.53978604 0.32992816 1.3443965 -1.1451197 1.392333 0.50017184
-1.4410901 0.9012073 -0.0935106 -1.0157112 -0.5641688 0.6887947 0.27450427 0.67015195
-0.277287 1.782901 -0.32068726 0.48660493 0.3609149 -0.503426 0.1639321 -0.5668346

emb_layers.1.weight f4 [16, 8]
00000000: 9b55 5dbd ebc4 64bf 4f0b 33be 7db3 c53e
00000010: cfc3 bfbf 6bf3 64bf f640 043d c535 14be
00000020: dcf9 ef3e 0ff9 38bf 12a3 933e 0410 2cbe
00000030: 52d5 843d c47f 02c0 71f9 3f3f 98c6 f9be
00000040: 05df 713f ba50 b73e e052 ca3f 33f5 743f
00000050: 4a0b 953f 2ac7 87bf e6f8 c1be a107 94bf
00000060: 65d2 edbf 03fc 6bbe e153 233f 53f8 67bf
00000070: 2aa5 d5be 9383 50be 4ff3 593f a26c c23f
00000080: 7862 ca3e 26a0 30bf f853 cfbf 887f 59bb
00000090: f76a 5b3c bbaf a93f b028 ba3e 1708 0abd
000000a0: 53a9 b43e e57b e5bf 2018 88be a535 9a3f
000000b0: 437b fe3f 17e3 673f ad18 583f f849 113f
000000c0: 9259 01bc e75f 503f 17ad 6f3f 2f97 933e
000000d0: b6f9 a53f 8056 0fbf 0534 10bf 355a 1dbf
000000e0: ff6e 87bb 9102 403e cef5 6fbe c8b5 bebd
000000f0: 1ec9 dfbf e28b e53f c5c7 303e b568 d6bd
00000100: ad13 aabf 0491 6dbf 21b4 8bbe b251 37bf
00000110: 9498 b33f b58e 5fbf 6bd0 4f3f a407 cb3f
00000120: bf19 fc3d b19d c1be 3dd6 933e 8413 0340
00000130: 876c a73e ba70 1a3f 8f81 4c3e c343 cabe
00000140: d937 1d3f 398f 2abf 91d2 273f 1b88 afbc
00000150: d416 4e3e 087e 143f 8b8c 883e fc70 b33e
00000160: 0db6 2d3f bbac c33d 5b72 a5be 28a0 2bbf
00000170: 7b1c 84bf d287 c0be 4cec 2c3e 00c6 d33f
00000180: 683a ee3e d261 fbbe c3cb 953f 1a14 8f3b
00000190: 9b3a f73c a5af d13f 9ef3 3bbf 14bc e93f
000001a0: 68e0 11bf 6a32 9fbf 6be1 b2bf 5023 8dbf
000001b0: 5896 c23e 0e7c 02c0 da57 90be b5e5 a83e
000001c0: d149 403f ad08 e03e 4112 b2bf 6f89 a03c
000001d0: 67fe 9abf e06e d73e 9f34 c83f 6e10 233f
000001e0: 9b82 96bf a832 1a3f b69d 623f d030 9dbd
000001f0: c66c d5bf 9bfa cc3e 7777 683d 981f 033e
-0.054036718 -0.8936297 -0.17484783 0.386135 -1.4981631 -0.89433926 0.032288514 -0.14473636
0.46870315 -0.72255033 0.2883535 -0.16802984 0.06486 -2.0390482 0.7498999 -0.48784328
0.94480926 0.35803777 1.5806541 0.95686644 1.164407 -1.0607655 -0.37885207 -1.1564828
-1.8579832 -0.23045354 0.63799864 -0.9061329 -0.41727573 -0.20362692 0.85136884 1.5189402
0.3952825 -0.6899437 -1.61975 -0.0033187587 0.013392202 1.3256754 0.36359167 -0.03369912
0.35285434 -1.7928435 -0.26580906 1.2047621 1.9881366 0.90580887 0.8441265 0.5675349
-0.00789489 0.81396335 0.9362349 0.2882628 1.2966831 -0.55991364 -0.56329376 -0.6146577
-0.004133105 0.18750979 -0.23433611 -0.09312016 -1.7483251 1.7933314 0.17263706 -0.1046919
-1.3287255 -0.927994 -0.27285865 -0.7160903 1.4030938 -0.8732713 0.81177396 1.5861707
0.12309598 -0.37815621 0.28874388 2.0480661 0.32699987 0.6032826 0.19971298 -0.39504823
0.6141334 -0.6662479 0.65555674 -0.021427205 0.20125896 0.5800481 0.26669726 0.35047138
0.6785591 0.0955443 -0.3231381 -0.67041254 -1.0321192 -0.37603623 0.16887015 1.65448
0.46528935 -0.49098068 1.1702808 0.00436641 0.030179312 1.6381727 -0.73418605 1.8260522
-0.5698304 -1.243726 -1.3975042 -1.1026402 0.38005328 -2.0388217 -0.28192025 0.32987753
0.75112635 0.4375662 -1.3911821 0.019596783 -1.2108887 0.42076778 1.5641059 0.63696945
-1.1758608 0.60233545 0.885219 -0.07675326 -1.667382 0.40034947 0.056754556 0.12805021

bn_cont.weight f4 [34]
00000000: ba6f 713f dec6 533f 304b 563f 3cbc 5a3f
00000010: 0cc6 c93f ece0 5c3f a061 583f 5413 643f
00000020: d0bc 6e3f 357a c13f 7474 983f 5bd3 413f
00000030: ba5d 3e3f 3306 533f cf5b 443f 0eb9 473f
00000040: 2202 503f 18d3 653f ba13 673f 6532 613f
00000050: 2fce 6e3f cf48 573f 8663 7f3f 5c83 623f
00000060: 70da 603f fc80 6f3f f507 583f f5a1 543f
00000070: 847e 6b3f dac1 6d3f 4a5d 693f 240d d53f
00000080: 60de 9c3f 4255 ad3f
0.94311106 0.8272532 0.8370848 0.8544347 1.5763564 0.86280704 0.84523964 0.8909199
0.93256855 1.511542 1.1910539 0.7571313 0.74361765 0.82431334 0.7670259 0.78016746
0.81253254 0.8977523 0.90264475 0.8796752 0.9328336 0.8409547 0.99761236 0.8848169
0.8783331 0.9355619 0.8438714 0.83059627 0.9198992 0.9287392 0.9115797 1.6644635
1.2255363 1.3541644

bn_cont.bias f4 [34]
00000000: 408e 3fbe faef 69bd 72d6 193c 6264 523d
00000010: 58aa 663d 0b8b 61be feff 14bd f3e8 c7bd
00000020: 266e 87be 243d b73c 87c2 f9bc 1838 aebd
00000030: 0450 1fbe 034e 913d c50d 183e 3817 b63c
00000040: 5164 97bd d58b 74be 7df7 1ebe 001d 08be
00000050: c889 b6be d110 93be ef06 3e3d e61d c13d
00000060: 49d2 eebd 3d53 46be cc68 66bd f241 77be
00000070: 2090 a1be 2180 e23d 1496 d2bd 7da6 8c3e
00000080: ac1e 18be 2f6b 00be
-0.18706608 -0.057113625 0.009389507 0.051365264 0.056314796 -0.22025697 -0.036376946 -0.097612284
-0.26451224 0.022368021 -0.030488266 -0.08506793 -0.15557867 0.07094958 0.14849003 0.022227868
-0.07392181 -0.23881467 -0.15524097 -0.13292313 -0.35651994 -0.28723767 0.04639333 0.09429531
-0.116612025 -0.1936769 -0.056252286 -0.2414625 -0.3155527 0.11059595 -0.102825314 0.2747077
-0.1485545 -0.12540887

bn_cont.running_mean f4 [34]
00000000: 367f b242 ace6 52bf c342 b840 72c1 883e
00000010: 1826 d63e cc13 873f 8e09 8c3f 3491 00be
00000020: bc25 173f c66d 003c 3e4e 1740 2422 7547
00000030: c4a9 f247 b3cb 3c48 d329 783f 2ea8 9e40
00000040: 563b 023f 9fd1 1740 4ad5 01c3 dc1b 66c0
00000050: dd87 14c0 5027 d841 e12e c2c1 5d41 5a40
00000060: 5b26 cd3f 980b b342 7fd6 0a45 9eb5 ce40
00000070: 0f29 5842 218f 5640 1433 3143 4d7c 0e3e
00000080: 5296 8d42 9f56 e640
89.24846 -0.8238323 5.7581496 0.26710087 0.41825938 1.0552917 1.0940416 -0.1255539
0.59041953 0.007838672 2.3641505 62754.14 124243.53 193326.8 0.9693882 4.9580297
0.5087179 2.3721693 -129.83316 -3.5954504 -2.3207924 27.019196 -24.27289 3.4102395
1.602733 89.522644 2221.406 6.45967 54.040096 3.352486 177.19952 0.13914604
70.793594 7.198074

bn_cont.running_var f4 [34]
00000000: 75c3 0842 e7e0 5d40 4930 943e b768 483e
00000010: cc40 793e a1b6 813f 6b0d 273f 9ba7 573f
00000020: e6c2 dc3e 9938 933e 1749 a63e 1036 0851
00000030: ad92 7151 830e a251 e2aa 2a3f 9424 d040
00000040: 00ee 7f3e 0472 fa41 b03d 8f42 1501 d840
00000050: 3a86 fc42 75e7 7841 aaf9 8542 1538 043d
00000060: fe02 203c 7730 1b42 ae1a 1148 66d2 5f3e
00000070: fe57 5b3e 92c7 5b40 99e4 9945 daeb dd43
00000080: 1e30 2d42 6974 193f
34.190876 3.466852 0.2894309 0.19571196 0.24341124 1.0133859 0.6525485 0.8424012
0.43117446 0.28754118 0.32477638 3.656391e+10 6.4846746e+10 8.700352e+10 0.66666996 6.504465
0.24993134 31.305672 71.62048 6.750132 126.26216 15.556508 66.987625 0.032280046
0.009766338 38.79733 148586.72 0.21857604 0.21420285 3.4340558 4924.5747 443.8426
43.29699 0.5994325

fc1.weight f4 [64, 50]
00000000: e328 3d3d 6600 6d3d 3463 59bd 78d8 fa3b
00000010: 8ff2 d93c 5ff7 c03b 3a38 9bbd 176d a2bd
00000020: e612 b63d fe88 763d 5fd8 3a3b 044d cebb
00000030: 3eb6 a6bc 60cf 853c 0388 67bc c16b 04bd
00000040: 2d57 4f3d f656 793d 82af b23c b10f a0bd
00000050: 65fe aa3d f358 f63a 9ede e23d c07e 23bd
00000060: 478b af3d ad0f e3be 5e28 f3bb 51ec 28bd
00000070: e1d5 183c d1d1 c23c 1210 c2bb 166d b3bd
00000080: 510d 483d 0247 65bd 22e8 013d 17a6 aebc
00000090: 2c47 c8bc d31a b0bd dd49 b3bc 2c78 8c3b
000000a0: 08ad 1cbc a851 b83d 4edc e73d 446c 63bd
000000b0: 792a 40bd fb8d f8bd 34b5 73bd 8994 3a3e
000000c0: e050 b9bd 49fa 05be c73a 38bc 250c e2b9
000000d0: d71f a43d f7fd 12bd a1fa 893c d2ee 103d
000000e0: d62c 17bd d7dd 29bd df03 693c 825c fdba
000000f0: d289 99bc 10c4 103d dfe3 3e3c c153 b63c
00000100: ad06 223d 219f adbc 9331 303d 7772 dfba
00000110: 8d33 e6bd ea08 893c 4a13 83be 65a8 f0bc
00000120: a56a 993d 842f ec3c daae a4bc 36cd a2bb
00000130: 32bf 953b e1c3 2ebd cbb2 563d 7b0f 7abc
00000140: 3686 e7bc 9491 ddbc ff0f 183d 5092 933d
00000150: 983d 113d 1e8f 3ebd de71 133e 5f89 123e
00000160: 4857 85bd d93c dd3c 2ef2 7a3d 4a74 9dbc
00000170: 98ca 3fbc f9ad ae3d 9db5 9d3d 53c4 aabd
00000180: e346 453d c8f9 cebe 9a68 b9bd c0cc 09be
00000190: a176 153c 2378 0f3d a3ab 1c3d 1acc 0cbc
000001a0: 2c13 7abc ad86 69bb 255b a73d a704 033d
000001b0: 0295 2d3c 824b a43d 4f79 403d 6a0a b03b
000001c0: 2588 5a39 3206 5cbc f5ec 95ba aba8 60bc
000001d0: 3306 b53d f85d f4bd 3a20 a8bb 5cfc f2bc
000001e0: 063c 543e 1bf1 fd3d a769 5ebd 6e0f a23b
000001f0: b836 653d cfa0 1cbe 9d79 4bbe 65b5 cb3d
00000200: c76f 39bc 512a abbc b240 b9ba ed70 8a3d
00000210: 11b2 61bd d690 9fbd 9fcd 79bd b381 553d
00000220: ab12 b03d be31 f3bc c988 29be 170e 173d
00000230: d797 d03d b1bf 0a3e 8042 02be 81f7 e53c
00000240: ed02 dc3d ea15 3bbd f041 d83d db08 5c3e
00000250: 5c1a a73d 6bb8 30be 75da a0bd bd4f 9f3d
00000260: fc7a 57bb 7714 863c 0651 43bd 5e8c ce3c
00000270: 253d e03c a453 053d eb5f 99bd b55c dc3b
00000280: 8ca1 11bd 2d43 553d cab4 103e 5d1b de3d
00000290: 4f7d a4bd cd78 06bc f566 0dbe df7e 58bd
000002a0: dfb3 613e 52c4 e13d 2947 3dbe d749 80bd
000002b0: 7c5c 023e 5607 a9bd 6944 2b3d c2b5 61be
000002c0: 36c1 953c 6f1e 503d 8e52 f83b d5be dcbb
000002d0: 1eba 823c 4633 fe3d bbcf 5e3d 5f12 03bd
000002e0: dd75 44bd 0d31 453d bb2f f73c c06f a83d
000002f0: 0714 ce3d 7d2f c53c 6917 0c3d d854 633d
00000300: 3954 aebc 7ead 4f3d e263 433e c73e 0cbd
00000310: f1d7 8ebd 9733 1ebe 4cbd 23bd af4f 62be
00000320: a3cb 0b3d 8906 d2bb 5b58 14bd 1a84 c2bc
00000330: 5696 b63a 0525 f2bb 0f8c 42bd 6f7f 543d
00000340: ccbe f4ba 5f92 e6bc b79e 0dbd 1f61 96bc
00000350: d6c4 fe3c 43bf 64bc b77f f9bc 66e7 10bd
00000360: 3def 9dbc 0cf8 d23d f61d d5bc 47ae babd
00000370: 598a 9c3e 5878 b4bc c21f 213d f7b9 b23d
00000380: 30b6 ef3d c3dc f5bd c580 db3c 5f8f 143d
00000390: 1069 f13c 8441 ce3c c0a1 b5bc db45 863d
000003a0: e3bf 99bc 7b53 c33d 0ffc a43d 9249 913c
000003b0: d701 4c3d b0b1 febc e698 8ebd 117d 9bbd
000003c0: 0331 493c 0140 1a3d 27d2 3bbb 330a b8bd
000003d0: c16e 64bd 41cf 503d 400a 873c f750 b5be
000003e0: d088 893d 856e 0d3e 86f6 143d 547f 523c
000003f0: 043d 053c 90d3 a33c bac4 5abd d343 453a
0.04618157 0.057861708 -0.053073123 0.0076551996 0.026604919 0.005888864 -0.07579084 -0.079309635
0.08890323 0.06018924 0.0028510315 -0.006295802 -0.020350572 0.016334236 -0.014131549 -0.032329325
0.050620247 0.060873948 0.021812204 -0.07815493 0.08349303 0.001879482 0.11077617 -0.0399158
0.08571487 -0.44347897 -0.0074205836 -0.041240994 0.009328336 0.023781689 -0.005922326 -0.08761041
0.048840825 -0.05597592 0.03171552 -0.021319432 -0.024448 -0.08598866 -0.021885807 0.0042867865
-0.009562738 0.0899995 0.11321317 -0.055523172 -0.046915505 -0.121364556 -0.05949898 0.18220724
-0.09048629 -0.13083757 -0.011244482 -0.00043115127 0.080138855 -0.03588673 0.016843142 0.035384007
-0.036907993 -0.04147133 0.014222114 -0.0019329938 -0.018742476 0.03534323 0.011651008 0.022256734
0.039557148 -0.021194043 0.043016028 -0.0017047663 -0.11240301 0.016727883 -0.25600654 -0.029377172
0.07491044 0.028831251 -0.020102907 -0.0049683107 0.0045699114 -0.042667273 0.052416604 -0.01526248
-0.028262239 -0.027046956 0.03712463 0.07205641 0.03545913 -0.046523206 0.14398906 0.14310215
-0.06510788 0.027006553 0.061266117 -0.01922049 -0.011706017 0.085292764 0.077006556 -0.08338227
0.048163306 -0.40424943 -0.09053154 -0.13457012 0.009122522 0.03502668 0.038249623 -0.0085935835
-0.01526336 -0.0035633252 0.08171681 0.03198686 0.010594608 0.080222145 0.04699069 0.005372335
0.00020840818 -0.013429211 -0.0011438417 -0.013712089 0.08839073 -0.119319856 -0.005130795 -0.02966135
0.20726022 0.12399503 -0.054299977 0.004945687 0.055960387 -0.15295719 -0.1987061 0.09946708
-0.011318154 -0.020894201 -0.0014133661 0.0675982 -0.055101458 -0.07791297 -0.06098711 0.052125644
0.08597311 -0.029686805 -0.16556086 0.03687867 0.10185211 0.13549687 -0.1272068 0.02807212
0.107427455 -0.045675196 0.105594516 0.21487753 0.081593245 -0.1725785 -0.07854167 0.07778881
-0.00328797 0.01636718 -0.04768469 0.025213417 0.027372906 0.03255047 -0.07488998 0.0067249187
-0.035554454 0.052066017 0.14131466 0.10845063 -0.08031713 -0.008207512 -0.13808806 -0.05285537
0.22041272 0.11023773 -0.18484177 -0.06264084 0.12730592 -0.08253352 0.041813288 -0.22041991
0.018280607 0.050810274 0.0075782007 -0.006736616 0.015957888 0.124121234 0.054397326 -0.031999942
-0.047963966 0.04814248 0.030174127 0.082244396 0.10062414 0.024070496 0.034202013 0.055500835
-0.021280395 0.050702564 0.19081071 -0.034239557 -0.06974781 -0.15449367 -0.03997545 -0.2210071
0.03412975 -0.0064094705 -0.036217075 -0.023744632 0.0013930302 -0.007389667 -0.04749685 0.051879343
-0.0018672585 -0.028145967 -0.03457519 -0.018356858 0.031099718 -0.013961616 -0.030456407 -0.03537693
-0.019279117 0.103012174 -0.026015263 -0.09115272 0.305743 -0.02203004 0.039336927 0.08726876
0.117046714 -0.120049976 0.0267948 0.03626954 0.029469043 0.025177725 -0.022171855 0.065562926
-0.018768257 0.09537407 0.08055889 0.017735276 0.049806442 -0.031090587 -0.06962757 -0.07592214
0.012279752 0.037658695 -0.0028659196 -0.0898632 -0.055769686 0.050978903 0.01648438 -0.35413334
0.06715548 0.13811691 0.036367916 0.01284774 0.008132223 0.019998342 -0.05341027 0.000752506

fc1.bias f4 [64]
00000000: 5bc2 2fbe d093 4ebe f8bc 30be bb02 90bd
00000010: 2838 77be 2565 c1bd 7f45 94be e868 d0bd
00000020: ddf8 71be bc62 87be f805 2bbe 41cb 01be
00000030: 3092 18be 0786 a7bd 23b1 d1bc e626 31be
00000040: e738 8bbe 5f84 57be 3cc1 5cbe 9605 dfbd
00000050: 027e a4be 0e97 1bbd 2802 74be 64d2 67bd
00000060: c864 0ebe e831 7dbe 1247 ffbd 6e28 8dbe
00000070: 52aa 40be 9946 7abe 2ff8 19be 323c 8cbd
00000080: e905 07be deca 5fbe e2ec 16be ad92 33be
00000090: 0b56 41be fa83 b2bd 51fa 09be 7fa9 20bd
000000a0: e81b bbbd d69f 9ebe 4aef 82bd eff9 97be
000000b0: 61c3 cabd 71af 93bd 809d 80be e7dd 17bd
000000c0: 6fad 6cbe 5dc5 cfbd ad37 2fbd 5ba9 dcbe
000000d0: 3e3f efbd 7083 1bbe bfd7 dbba 644b 9e3c
000000e0: 2f73 4abe ed48 a6bd 54cc 85bd 7ffb a7bd
000000f0: 32b3 00be ae70 6dbe 0d53 9bbd 585a 89be
-0.17163984 -0.20173573 -0.17259586 -0.07031771 -0.24142516 -0.0944312 -0.2895927 -0.10176259
-0.2363009 -0.26442516 -0.16701496 -0.12675191 -0.14899516 -0.081798606 -0.02559716 -0.17299995
-0.2719185 -0.2104659 -0.21558088 -0.10889737 -0.32127386 -0.037985854 -0.23828948 -0.05659713
-0.13905632 -0.24726069 -0.124647275 -0.27569908 -0.18814972 -0.24440993 -0.15036081 -0.06847419
-0.13185848 -0.21854731 -0.14738801 -0.17536421 -0.18880479 -0.08716579 -0.13474394 -0.039224144
-0.09136182 -0.3098132 -0.06393297 -0.29682872 -0.09900547 -0.07211197 -0.25120163 -0.037076857
-0.23113035 -0.10145066 -0.042777706 -0.43097958 -0.11681984 -0.15186858 -0.0016772671 0.019323058
-0.19770502 -0.08119378 -0.06533113 -0.08202266 -0.12568358 -0.23187515 -0.075842 -0.2682674

bn1.weight f4 [64]
00000000: 30de 883f eb67 8f3f 550e 8f3f f320 633f
00000010: 7d59 893f 9c8b 883f 719a 8a3f da63 8a3f
00000020: c560 993f 22ea 673f 2146 7b3f b5ac 813f
00000030: 532d 6a3f 5427 513f d436 6f3f 8711 653f
00000040: 4d3d 9d3f 87fa 7a3f 6a3f 803f 15fd 803f
00000050: a881 733f 7526 783f 4660 5f3f c685 713f
00000060: 1d16 913f 4e9c 6c3f d6cc 6e3f 9e83 6c3f
00000070: 3486 743f 9555 543f 3635 753f 64fc 6a3f
00000080: 5b94 8c3f 5337 783f 883e 683f 780e 6c3f
00000090: b257 693f 7f4c 723f 82cf 6a3f 3ba5 723f
000000a0: 1edf 8d3f 60c0 6f3f e6b6 823f 1828 703f
000000b0: 5301 713f 363d 713f c88b 863f 3479 7b3f
000000c0: 651e 743f 6745 733f 824d 783f 3737 843f
000000d0: 9890 6c3f 205a 7c3f a259 6e3f a138 563f
000000e0: 5d54 883f cf55 603f 33a3 673f f9bb 673f
000000f0: 2068 8f3f 765e 673f 0f4d 633f 6159 723f
1.0692806 1.1203588 1.1176249 0.8872215 1.0730435 1.0667605 1.0828382 1.0811722
1.1982657 0.90591633 0.98153883 1.0130831 0.9147541 0.81700635 0.93443036 0.8947987
1.2284333 0.98038524 1.0019352 1.0077235 0.95119715 0.9693368 0.87256277 0.9434475
1.1334873 0.92426 0.93281305 0.9238833 0.9551728 0.8294309 0.9578432 0.9179137
1.0982774 0.9695942 0.90720415 0.9220958 0.9114944 0.94647974 0.9172288 0.9478337
1.1083715 0.93652916 1.0212066 0.9381118 0.94142646 0.94234025 1.0511408 0.98231816
0.9535888 0.95027775 0.9699327 1.032935 0.9240813 0.9857502 0.9310552 0.8368016
1.0650746 0.87630934 0.904834 0.905212 1.1203651 0.9037851 0.8878946 0.9466763

bn1.bias f4 [64]
00000000: a64d 87be 39f0 8bbe 7ea0 31be afdb 503c
00000010: 73ff b4be d4ba a9bd e686 8ebe 6ab2 c6bd
00000020: db7d 1abe 0d84 24be b60f 31be 0366 95bd
00000030: 6fc1 ecbd 79f9 a3bd fc9c 0fbd a541 6fbd
00000040: 5628 4cbe 7189 9ebd 8acc f8bd 8b69 08be
00000050: bb14 a1be 804a 75bc 1e63 90be 0779 3e3d
00000060: dad5 59be 7ae8 8abd 7b96 e9bd 5871 f9bc
00000070: 6432 b7bd 5b4d 8cbe 8612 bdbe ac9d 333d
00000080: b251 1cbe 4724 f3bd cb16 4abd 4500 a7bd
00000090: f0cc 853d 732e 41be ca66 c33c b2f6 b5bd
000000a0: 5b57 723d 2d3a 1dbf e07e b3bc 360b 1fbe
000000b0: 50d7 28be b582 0bbe 638a 9fbe 50cb 98bd
000000c0: 2933 0bbe cc41 80bd d457 fe3b 54f8 06bf
000000d0: 919b 4bbe 23a9 1cbe e628 d5bd bc16 fdbd
000000e0: b66a b8bd 04fe afbd 65fa a0bd e9a6 1cbc
000000f0: 07f6 06be 2e21 55be 4a91 663d 0574 26be
-0.2642643 -0.27331713 -0.17346379 0.012747689 -0.35351142 -0.08287588 -0.27837294 -0.097019985
-0.15087073 -0.16065998 -0.1729115 -0.07294848 -0.11560332 -0.080065675 -0.03506182 -0.058412213
-0.19937262 -0.077410586 -0.12148388 -0.13321511 -0.3146113 -0.014971375 -0.2820062 0.04650214
-0.21272984 -0.06782623 -0.11405655 -0.030449554 -0.08945158 -0.27402768 -0.36928195 0.04385154
-0.1526554 -0.11872154 -0.049338143 -0.08154348 0.06533229 -0.18865375 0.023852725 -0.08884944
0.05916534 -0.61416894 -0.021911085 -0.1553162 -0.16488385 -0.1362408 -0.31160268 -0.07460654
-0.13593735 -0.0626255 0.007761935 -0.5272267 -0.19883563 -0.15298896 -0.104081914 -0.12357852
-0.090047285 -0.085933715 -0.07860259 -0.009561279 -0.1317979 -0.20813438 0.056290902 -0.16255195

bn1.running_mean f4 [64]
00000000: c511 49be 6109 e8be ed33 7bbe da08 89be
00000010: 4141 e6be 1513 60be f0af cfbe 8c08 e5be
00000020: eafb d8be 9f14 9ebe db40 8fbe 93c8 b7be
00000030: cae9 bbbe 19cf 613d e528 313e d935 5bbe
00000040: 94a7 c1be 88ea 3fbe 8efa 91be 3237 97be
00000050: 64f8 15be c02c 0cbe c18c e1be 54cc 65be
00000060: 7e10 a5be 55ab 96be 0d82 9bbe d861 97be
00000070: 4f64 afbe a2c8 01be e226 cdbe bc27 0dbe
00000080: 5c65 55be 9d4a 67be 131d bcbe 30e0 95be
00000090: e0fb 92be c321 8fbe 5042 35be 4a31 b2be
000000a0: 52f2 32be 932c 3bbf bc77 78be 91c4 d6be
000000b0: 47cf bd3d febf 92be 9d70 ecbe a324 94be
000000c0: 6f22 a0be 00af 92be 1910 57be fca0 bbbe
000000d0: 8edc 84bd d483 cfbe a9d9 5d3c 065e f13d
000000e0: 45df 5cbe e3e3 85be e97c d8bd fb64 5ebe
000000f0: 7627 6abe c028 f5be f5c2 91be bada d0be
-0.19635685 -0.45319656 -0.24531527 -0.26764566 -0.4497166 -0.21882279 -0.40563917 -0.44733083
-0.42379695 -0.30875108 -0.27979168 -0.35895213 -0.36701804 0.055129144 0.17300756 -0.2140726
-0.37823164 -0.1874181 -0.2851147 -0.29534298 -0.14645535 -0.13688946 -0.440527 -0.22441226
-0.32239145 -0.2942759 -0.30372658 -0.29566836 -0.34256217 -0.12674192 -0.40068728 -0.13784689
-0.20839447 -0.22587056 -0.36740932 -0.29272604 -0.2870779 -0.27955446 -0.17701077 -0.3480323
-0.1747525 -0.7311489 -0.24264425 -0.41946843 0.09268051 -0.28662103 -0.46179667 -0.28934202
-0.3127627 -0.2864914 -0.21002235 -0.3664626 -0.0648738 -0.40530264 0.013540664 0.11785512
-0.21569546 -0.26150426 -0.105707 -0.21718208 -0.22866616 -0.47882652 -0.28469053 -0.40791875

bn1.running_var f4 [64]
00000000: 9d07 5c3f 77dc 843f b196 2c3f 1d03 433f
00000010: d41f 4d3f cdb8 0d3f c031 e03e 60aa 2a3f
00000020: 3c87 2c3f 913c f83e c313 043f 98f8 513f
00000030: 8bb1 4e3f c61b 7f3f 9713 f13e 659b df3e
00000040: d953 583f ddfc 213f 38a7 d73e 62fa e73e
00000050: dc2b 3c3f b3f6 013f 3e84 373f fc67 393f
00000060: 4cac 113f 9f06 073f 9939 3b3f 3683 fe3e
00000070: e97b 113f 0f7c ed3e 52be 1f3f 4d81 0b3f
00000080: 223b 1b3f 5354 1d3f 6a43 5c3f b5fb 1f3f
00000090: 6133 323f af55 eb3e d7fe 033f e9a8 0b3f
000000a0: d076 1d3f 074b 523f e286 ea3e cb86 543f
000000b0: b824 253f 8044 e43e ad80 203f e8ad 313f
000000c0: 710c 213f 8838 043f 7005 4f3f 73f3 633f
000000d0: 82a6 153f 9834 253f 93d4 6d3e 774f 033f
000000e0: 7257 2c3f ad0e e13e 3d06 bb3e 439a 0d3f
000000f0: 86f9 423f 891b 593f 92af ba3e 7641 143f
0.85949117 1.037978 0.67417437 0.76176625 0.8012669 0.5536011 0.43787956 0.6666622
0.6739385 0.48483709 0.51592654 0.8201995 0.8073966 0.99651754 0.47085258 0.43673244
0.8450294 0.63276464 0.42119765 0.45308214 0.73504424 0.5076706 0.7168616 0.7242429
0.5690353 0.5274448 0.7313476 0.4970948 0.56829697 0.46383712 0.6239978 0.5449417
0.60637105 0.61456794 0.86040366 0.6249345 0.6960965 0.4596381 0.5156073 0.5455461
0.6150942 0.8214573 0.45806032 0.8301818 0.64509153 0.4458351 0.62696344 0.69405985
0.6290961 0.5164876 0.8086767 0.8904335 0.58457196 0.64533377 0.23225622 0.5129313
0.6732093 0.4395651 0.36528197 0.5531351 0.7616199 0.8480764 0.36462075 0.57912385

fc2.weight f4 [32, 64]
00000000: df18 6c3d 79da aa3d 2b2d b4bc 7089 9bbd
00000010: 9eec 4a3c 9e37 4fbd 4807 e33c 567a f5bd
00000020: 2668 0ebe 7e7a 5ebb 9b27 813d f1f1 ea3c
00000030: 4c86 d13d acc5 b0bc 6892 f53b 3bd2 48bd
00000040: 5093 ad3d 0de6 853d c996 0e3e 6ad5 04be
00000050: aa54 8cbd 1bf3 343d dbad 9dbd ef88 82bd
00000060: 6e28 913d a486 64bb b880 d6ba 9b80 953c
00000070: f9ca 34bc aef8 bc3c 0e0f ddbd c1c9 143d
00000080: 5cb2 c23d 3728 8d3c 124e 22bc ee37 ebbd
00000090: 18f2 053c 0e39 d9bb b666 27bd a881 83bd
000000a0: 3b2d 18be e682 8cbd d3d0 783d 1a65 b03c
000000b0: ae64 05be 773f cf3c cd65 2d3d 3684 073e
000000c0: cb47 49bd 25ec 44bd 2bed e33d 32bc 063e
000000d0: 2874 9abd 09f9 663d 796e 6ebd 8bce 81ba
000000e0: df4c cd3c 73d4 30b9 2534 0fbe 76c9 da3c
000000f0: 7a11 17be 8f4a a93c 6eba 06bd 44df 2f3d
00000100: 6793 913d d572 05be 0859 cdbd f91d 123e
00000110: 4642 183d 04ee c4bd 5577 953d 4f7e e33d
00000120: d709 14bd 996a dfbc 91e1 723d 266f 163d
00000130: 0076 03be 80ca 95bd 0796 31bc f472 1abb
00000140: 21d0 40bd fb6b eabc c6eb da3d 6efa dfbc
00000150: 184c 04bc f2c3 f53c 40bd 09be e872 68bc
00000160: 56cf b03d 6733 db3c 594e 713d d6ca 89bd
00000170: 67e1 953c af96 a539 6e3e e53d 4394 ac3d
00000180: d465 4f3c c9a4 57bd 5a76 cabc 146e 0f3e
00000190: 830f 32be e790 f73d 2cda 2d3d 3901 cfbd
000001a0: 70ea 913b 15a2 f5bd bf9e 703c b5e9 593c
000001b0: dc27 e03d fe22 0c3d 5942 0c3d dbc4 c7bd
000001c0: 6ef8 c13d 07b2 d13b 5153 1f3d 378b 14be
000001d0: be56 e93d 3cf7 1cbc aa9a 0d3e af99 3fbd
000001e0: bd37 d53d 15bf a5bd 8c75 2abd 9b50 fa3d
000001f0: bf5f 603d 196c 23be cc80 93bd 9689 f0bb
00000200: d371 0d3d b5b6 f2bc eea2 ae3d 78f2 df3d
00000210: 0323 3dbd 6ac9 783d 425d 27bd 1764 bcbd
00000220: e57e a3bb 21c1 b03d 33d5 6d3c 430c 68be
00000230: a946 b2bb 2199 cfbc 10aa fb3c d848 b73d
00000240: b08e 803d 9012 ea3d e4bb 523e 023f 11bc
00000250: 3b8f 57be d01d 053d dafe 8dbd dda4 1f3e
00000260: 175d 133c 6442 af3c 0885 3bbd 5e85 94bd
00000270: a9c0 9b3d 3482 65bd d187 d33d e76b 15bd
00000280: 6969 153d f104 cbbc d586 e9bd 0efb 35be
00000290: d768 8e3d d8ce 50bd 39c7 003e 99c5 483d
000002a0: 9760 37be 6239 533d 21e3 eebd 189a 84be
000002b0: a8b3 453c 24c6 0bbd 66dc fcbd d9c4 6fbd
000002c0: 2111 8fbd 18a1 9c3d 8764 16bb aaf6 6abd
000002d0: e6dd ee3c b75b 5abb 47a9 7b3d c93b eabd
000002e0: 6361 6cbb a0fc bdbd ed8f 783d d3a2 1bbd
000002f0: 12b7 e9bd 262c 47bd 1586 9d3d 887a 7ab9
00000300: b3d7 8bbd e9f1 dabd 687c 3ebe 249e efbd
00000310: 23a6 2e3d cabf 70bd 4145 313e 6660 9c3c
00000320: 2134 c33d ef80 b33d ed61 72be b4a3 243b
00000330: 933b c2bd b6db 25bc 1ac6 b1bd e3ca 94bc
00000340: fe03 8ebd f81f 09be 46fb 403d 777c 5a3d
00000350: b25d 673d f069 86bd 1604 dbbc 8c04 863d
00000360: 2e73 a1bd 86bc 863d cc10 5ebd 25d4 d7bd
00000370: 6f66 37bd 3ed5 25bc f075 87bd 1562 30be
00000380: 19dc 56be 5801 ae3d c88e b03d da71 023e
00000390: d559 5b3b cdff f33d fba6 f03d 821b 03be
000003a0: 2d1b 95bb c1be fbbd ef8c d73d f7ab 1fbc
000003b0: 7ffa 723d ca3e 88bc 86a8 61bc 0847 a3bd
000003c0: 7610 3eba 221c 823d 0571 333d 5792 2dbe
000003d0: 02ea e2bc bac9 bebb d479 e9bc 76a5 81bd
000003e0: cb29 a3bc a1cf 7f3d 4761 763d aaab 003c
000003f0: 9aa0 d03d adf4 12be da14 783d 6320 a83b
0.057640906 0.083424516 -0.021994194 -0.075945735 0.0123855155 -0.05059015 0.027713433 -0.11986224
-0.13906917 -0.0033947523 0.06306382 0.02867982 0.10230693 -0.021578632 0.0074942596 -0.049028616
0.08475363 0.06538019 0.13924707 -0.12972036 -0.06852086 0.044177156 -0.07699176 -0.06373774
0.070877895 -0.003487029 -0.0016365265 0.0182498 -0.011034721 0.023067798 -0.10793887 0.03632522
0.095066756 0.01723109 -0.009906309 -0.11485277 0.008175395 -0.006629116 -0.040869437 -0.06421214
-0.14861004 -0.068609044 0.060746025 0.021532584 -0.13026688 0.025298817 0.042333413 0.13234028
-0.049140733 -0.048076767 0.111292206 0.13157728 -0.07541686 0.056389842 -0.058210824 -0.0009903474
0.025061069 -0.00016863811 -0.13984735 0.026707392 -0.1475276 0.020665435 -0.032892637 0.042937532
0.07108193 -0.13032086 -0.10026747 0.14269246 0.03717258 -0.096157104 0.072981514 0.11108076
-0.036142197 -0.02727251 0.05929715 0.036727093 -0.12837982 -0.073140144 -0.010838992 -0.0023567053
-0.047073487 -0.028615942 0.106895015 -0.027341094 -0.008074783 0.03000066 -0.134511 -0.014187552
0.08633296 0.026757909 0.05891261 -0.06728141 0.018295957 0.0003158352 0.11193548 0.08426716
0.012658555 -0.052647386 -0.024714638 0.14006835 -0.1738873 0.12088185 0.042444393 -0.10107655
0.004452996 -0.11993805 0.0146862855 0.013300349 0.109451026 0.03421306 0.03424296 -0.09754344
0.09471212 0.0063993963 0.038897816 -0.14506231 0.11393498 -0.00958043 0.13828531 -0.046777423
0.10411022 -0.08093087 -0.041616008 0.122224055 0.05477881 -0.15959205 -0.072023004 -0.0073406203
0.03453238 -0.029628137 0.0852717 0.10934919 -0.046175968 0.06073896 -0.040860422 -0.09198778
-0.0049894922 0.086305864 0.014516163 -0.22660927 -0.0054405523 -0.025341572 0.03072074 0.08949441
0.062772155 0.11429322 0.20579487 -0.00886512 -0.21050732 0.032499135 -0.06933375 0.15590234
0.008994362 0.021393962 -0.045781165 -0.07252 0.076051064 -0.056032375 0.10328639 -0.036479857
0.03647748 -0.02478263 -0.1140267 -0.17771551 0.0695359 -0.05097851 0.12575997 0.04901657
-0.1790794 0.051568396 -0.11664415 -0.25898814 0.012066759 -0.03412451 -0.12346725 -0.058537338
-0.06985689 0.07647914 -0.0022948103 -0.057364143 0.029158544 -0.0033318826 0.061440732 -0.11437184
-0.003606879 -0.092767 0.060684133 -0.03799708 -0.11411871 -0.048626088 0.0769159 -0.00023887504
-0.06828251 -0.10690672 -0.18602145 -0.11700085 0.04263891 -0.058776654 0.17311575 0.019088935
0.09531427 0.087648265 -0.23670168 0.0025121989 -0.09484019 -0.010123184 -0.08680363 -0.01816315
-0.06934355 -0.13391101 0.047114633 0.053341355 0.05648584 -0.06563175 -0.026735347 0.06543836
-0.07883297 0.06578927 -0.054215237 -0.1053851 -0.044775423 -0.010121642 -0.06614292 -0.17224915
-0.20982398 0.0849635 0.08620983 0.12738743 0.0033470292 0.119140245 0.11750599 -0.12803462
-0.0045503587 -0.12292243 0.10524928 -0.009745589 0.059320923 -0.016631503 -0.013773089 -0.079725325
-0.00072503777 0.06353022 0.043808956 -0.16950355 -0.027699474 -0.0058223875 -0.028500475 -0.06330387
-0.01991739 0.06245387 0.060151365 0.007853428 0.10186882 -0.14351149 0.06056676 0.005130814

fc2.bias f4 [32]
00000000: 7516 6abd 099d 233d 033f 373d bee6 913d
00000010: 7e60 613e 2271 5ebe 54b3 5c3e 1dc8 753e
00000020: 3c1d a13d a8aa d23d ee96 413d bf67 e53d
00000030: fd34 193c 2ad1 213d 36a7 9c3e 4006 a73d
00000040: 1e8d 763d 2771 023e a932 a63d f9d7 443e
00000050: a235 c73b 753e 913e 470b c33d 4e9a 1bbb
00000060: c148 77bd c7a1 373d 8de4 a2bd 4391 193d
00000070: 91ce 18be abda 26bd 07a0 373e 6e2d c53d
-0.057150323 0.039944682 0.044737827 0.07124089 0.22009465 -0.21722844 0.21552783 0.24002118
0.07866904 0.10286456 0.04726308 0.112014286 0.009351012 0.039506115 0.30596322 0.08155489
0.060193174 0.12738477 0.081151314 0.19223012 0.0060793916 0.28367963 0.09523635 -0.0023743096
-0.060372118 0.044832017 -0.07953749 0.037492048 -0.14922549 -0.04073588 0.1793214 0.09627806

bn2.weight f4 [32]
00000000: 9ae1 883f 6d11 863f abcf 953f 1ab5 9a3f
00000010: 63bf 8e3f 7aca 7b3f 76fa 843f 65f8 963f
00000020: 615a 923f 64eb 733f 7155 753f 74f8 a53f
00000030: d5ed 943f b551 833f 403c a53f 716f 963f
00000040: 3b3c 903f b4c5 913f fc9f 9e3f 5d3a a03f
00000050: d9cb 763f c733 923f f0f3 8a3f 8ee8 813f
00000060: 3d48 943f 9bb8 9f3f 9b0e 813f 81ef 953f
00000070: 85be 8a3f 03b9 9f3f 19eb a33f fc68 a23f
1.0693848 1.0474068 1.1704 1.2086518 1.1152157 0.9835583 1.0388935 1.1794554
1.1433831 0.9528105 0.958335 1.2966447 1.163508 1.025931 1.2909012 1.1752759
1.1268381 1.1388459 1.2392573 1.2517811 0.96404797 1.1422051 1.0855694 1.0149095
1.1584545 1.2478212 1.0082582 1.1713716 1.0839392 1.2478336 1.2806121 1.2688289

bn2.bias f4 [32]
00000000: c043 a3bc a897 06bd ca44 403e 15de 543e
00000010: af23 0f3e 60b0 0dbe a086 713d 0b9e 2e3e
00000020: b1d5 173e 6ecb 7fbd bd66 10bd d162 a03e
00000030: 5e7e 473e 9207 ca3c 1147 9b3e f1df d83d
00000040: 4713 a03d 383a 043e 293e 983e 3b4d a93e
00000050: fc17 6dbd 0eb9 4c3e 2e38 36bd 3198 c6bc
00000060: 4c38 ce3d 142c 773e 489d e2bc 5fae 0d3e
00000070: 8657 10bd 4805 923d 9bc6 2f3e 3182 8e3e
-0.019929767 -0.032859474 0.18776241 0.20787843 0.13978456 -0.13836813 0.05896628 0.17052476
0.1482761 -0.062449865 -0.03525423 0.3132539 0.19481799 0.024661813 0.30327657 0.105895884
0.07816177 0.12912834 0.29734924 0.33066735 -0.0578842 0.19992468 -0.04448717 -0.024242492
0.100693315 0.24137908 -0.027662888 0.13836049 -0.03523972 0.071299136 0.17165606 0.27833703

bn2.running_mean f4 [32]
00000000: 77c5 6bbe 8c30 103e e053 16be 9d85 4fbe
00000010: 44f9 bcbd e14b 373e 96f2 18be 7466 3fbd
00000020: 4ee9 3bbe 1943 333e 7f90 f5bd dd43 99bd
00000030: da17 f6bd facf 97be 58ee 453f a0da aebc
00000040: 880c c0bd 0ad9 97bd a9ed 0b3d ba04 d7bd
00000050: e4b9 1abe f2d7 fbbd 522f 84be 46e7 3fbe
00000060: 5565 20be 2336 f6bd 625c 5abe 3671 16be
00000070: b652 65be 0c38 16be db08 3bbe 0a58 ebbc
-0.23024546 0.14081019 -0.14680433 -0.20265813 -0.09227231 0.1790004 -0.14936289 -0.046728566
-0.18350717 0.17506064 -0.11990451 -0.07483647 -0.12016268 -0.2965086 0.7731681 -0.021344483
-0.0937739 -0.07414444 0.034162197 -0.104989484 -0.15109974 -0.12297048 -0.25817353 -0.18740568
-0.15663655 -0.120220445 -0.21324304 -0.14691624 -0.22394833 -0.14669818 -0.18265097 -0.028728504

bn2.running_var f4 [32]
00000000: cc13 1e3e ce06 4d3e bb56 d33e b4da a33e
00000010: bad0 5a3e 6f41 053e 8e06 2f3e b7cd b03e
00000020: 5cc6 8f3e a48f 573e 54b7 413e 4b59 9c3e
00000030: 76f4 3b3e e1c6 8b3e 7b40 de3e c0e4 613e
00000040: 4d05 2c3e 37cb 533e 596c 663e 2b1a 293e
00000050: 3670 793e cc6e 623e 2de2 b83e 5f8d 313e
00000060: f149 823e 0748 ae3e a7f3 6b3e 25b8 653e
00000070: bf1d a53e 244b b33e c30a f13e 3351 b93e
0.1543724 0.20022127 0.41277108 0.32002795 0.21368685 0.13013242 0.17092344 0.34531948
0.28081024 0.21050888 0.1891759 0.30536875 0.18354973 0.2730017 0.4340857 0.22059917
0.16798897 0.20682989 0.22502269 0.16513889 0.24359211 0.22112578 0.36110058 0.17339085
0.25447038 0.34039328 0.23042165 0.22433527 0.32249257 0.35018265 0.47078523 0.36194763

fc3.weight f4 [5, 32]
00000000: 7bfc 863d 196e c4bc bf5f 853e c132 4e3e
00000010: 2e77 863e f95b a8bd 88c5 77bd cc20 373e
00000020: 1796 843e 2e7a 893c 47f1 8d3b 4297 033e
00000030: 9baf db3d f4b2 a0bd d2a0 c33d 47f1 d13d
00000040: 00d8 613c 725b 763e 5e6f d83d bc6f 893c
00000050: 547e 3cbd 3c48 1d3e 208d 253d 05ad 19bd
00000060: b98d 49bd fb20 1a3e 0ff9 a7bc 88fb 583e
00000070: a574 663d d3b1 e53d 0e5b 463d c91b 4e3e
00000080: 2901 82bd 797d a83d 3edb 713e ff86 4a3d
00000090: fa9e 1f3e f4bd 64bd 691c a7bc 197e e73d
000000a0: a965 593e 52b9 ab3d 3250 d43d c65f dc3d
000000b0: 5251 b63d de32 e4bc 85ae d03d e997 e73d
000000c0: 5b1c 8e3d eb86 d53d 3682 373d 69c8 75bd
000000d0: 3566 a4be c43e 923d babe 70be 3019 95be
000000e0: c6fa 313b 05a8 e83d e845 06be b15a 483d
000000f0: b8b9 39be a8ce d0bd ce5d 6fbe c466 423e
00000100: e702 a1bd 5a8e acbd 745b 453c cafd 2cbe
00000110: 82b8 69be 4789 483e af6d afbd 57c6 2fbe
00000120: 7db1 e0bd 76d9 923d 5f2d 31be bf95 05be
00000130: 6298 9bbd 62e4 14bd a767 933d 73ac 02bd
00000140: 0ba6 8dbe df5b 2ebb 1cd5 c3bd 373a 59be
00000150: 11e8 603d c9d2 54be cd45 a8be 31db 813d
00000160: a002 ba3d 6ea4 2fbe b1ff 68be d748 c13b
00000170: b723 0b3e c085 e83c 9af3 0ebe 42bc 1f3d
00000180: a0d0 5fbe 4338 9abd 8a93 aabe e9a6 cbbe
00000190: 09bb 29be a0ad f6bd 29a6 bcbe ec15 04bd
000001a0: db40 7fbe 324c 64bd 54a4 6f3c b52e c8be
000001b0: 37ab 65be 883e 86be bbe2 9dbe 329c 5dbe
000001c0: 42c2 03be 643d b8bd c225 b8be b69a dfbe
000001d0: e59b 0bbe 7513 dabd 3ea8 26bd bd51 65be
000001e0: e02e d4be 8eaa f0bd 3efa 36be 59ee 3abe
000001f0: 2a9a 48be 9e55 04be 6735 e5be aa50 1cbe
00000200: ba9e 0dbe d71c d3be 6b48 64be f4d8 0b3d
00000210: 752e 6fba 7d3b 6cbd 5305 ec3d d84e afbe
00000220: cbde 3abe bd8e 3ebe 0b2e 8bbe 4999 bebd
00000230: 6b41 233e dc86 503e 5695 96be 7292 aabe
00000240: fd70 9fbe 09f1 93be 0939 e2bd 3bd4 433a
00000250: 77a5 b83c af96 06be a71f 08be 0c0d 95bd
00000260: 0f3a a3be ece6 87be 12ee de3c d5af e6bd
00000270: 43c4 8abe 7d0a d7be 8db4 9f3d a592 adbe
0.065911256 -0.02397828 0.2604961 0.20136549 0.26262802 -0.082206674 -0.060491115 0.17883605
0.2589576 0.016781893 0.004331741 0.12850669 0.107268535 -0.078466326 0.095521584 0.10251098
0.013784409 0.24058321 0.105681166 0.016776912 -0.046018913 0.15359586 0.04041779 -0.03751852
-0.049207423 0.15051644 -0.020504503 0.21189702 0.056263585 0.11215558 0.04842668 0.20127787
-0.063478775 0.08227057 0.2361879 0.04944515 0.15587988 -0.055845216 -0.02039929 0.11303348
0.21230187 0.083849564 0.103668585 0.10760455 0.08902229 -0.027856287 0.10189537 0.113082714
0.06939002 0.10426124 0.044801913 -0.06000558 -0.32109228 0.07140878 -0.23510256 -0.2912078
0.002715753 0.11360172 -0.13112605 0.048914615 -0.18137252 -0.101956666 -0.23375627 0.18984514
-0.07861882 -0.08425589 0.01204573 -0.16893688 -0.2282429 0.19583617 -0.08565842 -0.17165504
-0.10971353 0.07170384 -0.17302464 -0.13045405 -0.07597424 -0.036350615 0.071975045 -0.03190274
-0.27665743 -0.0026605052 -0.09562132 -0.21213613 0.054908816 -0.20783533 -0.32865754 0.063406356
0.09082532 -0.17152569 -0.22753789 0.0058985758 0.13587843 0.02838409 -0.13960114 0.038997896
-0.21856928 -0.07530262 -0.33315688 -0.3977578 -0.16575254 -0.12044835 -0.3684552 -0.03224747
-0.24927084 -0.055736728 0.014626581 -0.39098135 -0.22428595 -0.26219583 -0.30837044 -0.21641615
-0.12867072 -0.08996084 -0.35966307 -0.43672723 -0.13633688 -0.106482424 -0.040687792 -0.22394462
-0.41442013 -0.11751281 -0.17868897 -0.18254985 -0.19590059 -0.12923285 -0.44767305 -0.15265146
-0.1383008 -0.4123294 -0.2229325 0.03414245 -0.0009124049 -0.05767392 0.11524453 -0.3423984
-0.18249051 -0.18609138 -0.27183565 -0.093065806 0.15942924 0.20363945 -0.2941081 -0.33314854
-0.3114089 -0.28894833 -0.11046035 0.00074702845 0.022539837 -0.13143419 -0.13293324 -0.07277879
-0.31880233 -0.26543367 0.02721313 -0.11264006 -0.2710286 -0.4200019 0.07798109 -0.33900943

fc3.bias f4 [5]
00000000: dc5c 313e a317 b53c 298a 463d c97c cabe
00000010: 232a 4bbd
0.1732058 0.022105997 0.048471604 -0.3954833 -0.04960073
