saved_models/DNN/fold4.pt (torch, 31579 bytes, 20 tensors)

emb_layers.0.weight f4 [16, 8]
000000 65 e2 85 bf 52 63 d7 3e 0d f9 ce 3e 36 08 f7 be
       -1.0459715 0.42067963 0.40424386 -0.48248452
000010 48 d1 14 be 39 59 7c 3f 6c 2a 48 3e 42 d1 48 be
       -0.1453296 0.9857364 0.19547433 -0.19611076
000020 e7 fc a5 3e 62 5e ca 3c 56 52 4a 3e 91 92 f1 bf
       0.32419512 0.024703208 0.19757971 -1.8872854
000030 bf 98 e8 3e 31 09 e5 bd c9 20 ba 3e 44 45 85 3f
       0.45429036 -0.11183394 0.36353138 1.0411763
000040 77 fa 25 3d 96 19 00 3e c8 bb 8e bf a6 19 25 3f
       0.040522065 0.1250976 -1.1151056 0.6449226
000050 dc d0 8f 3e cc 59 d6 bf 21 7b 28 bf da fc 5e 3f
       0.28089035 -1.6746154 -0.6581288 0.8710457
000060 a2 d9 ff be c3 d2 34 3f 0d fb 9e bf 76 dc b2 3e
       -0.49970728 0.70634097 -1.2420365 0.34933823
000070 38 fa 11 3f 59 b1 0f be 12 e8 9e be a3 9f 4f 3f
       0.5702243 -0.14032497 -0.3103643 0.8110296
000080 46 43 c0 bf 15 cf f1 3e 22 1d 70 be 7d 74 b0 3f
       -1.502053 0.47228304 -0.23448613 1.3785549
000090 62 2d 2f bf d0 1b 8e be 44 13 6a bf 3d 0d 08 3f
       -0.68428624 -0.27755594 -0.91435647 0.531452
0000a0 30 b1 b8 be 8c 8b d5 bd d5 b6 17 3e 11 0c f5 be
       -0.36072683 -0.10427007 0.14815839 -0.47860768
0000b0 b4 14 15 3e be bc 1f bf 90 d9 8e be d6 73 0c 3f
       0.14558679 -0.6239737 -0.27900362 0.5486425
0000c0 32 da 2b 3f e9 a7 9b bf f4 29 16 3f 28 27 4e bf
       0.67129815 -1.2160617 0.58657765 -0.805285
0000d0 df 74 a0 be d3 79 a6 3f ae fd e6 3e 5f 65 b0 3e
       -0.31339166 1.3005928 0.45115417 0.3445234
0000e0 f2 14 1b bf 3a 2f e8 3e c4 a4 bc 3e 59 20 6e 3f
       -0.60578835 0.4534853 0.36844456 0.9301811
0000f0 6a e4 d5 be ae 9d a5 bf b8 21 d7 bf ec 37 26 3f
       -0.4177583 -1.2938745 -1.6807165 0.6492908
000100 51 9b 03 be bb a4 bc 3e 9f 4e 7b bf ee 70 74 3f
       -0.12852217 0.3684443 -0.9816684 0.9548482
000110 0e f5 53 bf d1 ad 52 3e 22 e9 2d bf 08 f8 d7 bf
       -0.827958 0.20574118 -0.6793386 -1.6872568
000120 a9 5a 39 bf 8b 9d d9 bf ce c3 80 3e 7b fc a7 3e
       -0.7240396 -1.7001203 0.25149387 0.32809815
000130 50 9b 96 3d d4 37 c3 3e 93 d6 eb 3e d3 37 93 bf
       0.07353842 0.3812853 0.46062145 -1.1501411
000140 2f b3 c7 bf fd ba 8d bd ef f3 01 3f 7a 6e ba 3f
       -1.5601557 -0.06920431 0.5076284 1.4564965
000150 48 ba 9b bf bb 7d 30 3e 7b 1b 33 3f 12 d0 ec be
       -1.2166224 0.17235462 0.69963807 -0.46252495
000160 67 a5 75 be 8d 9a a5 3e d6 e4 17 3f 4d 9e 1d 3f
       -0.23988877 0.32344475 0.5933355 0.6156967
000170 19 df 9d bf 2b d1 28 bf 54 e8 93 3e e1 56 0c be
       -1.2333709 -0.65944165 0.2888819 -0.13705017
000180 18 be 48 bf 86 24 3d bf b8 68 3d be ea 96 7b 3e
       -0.7841506 -0.73883855 -0.18496978 0.24569288
000190 f5 b2 0a 3e 4d f9 89 bf 99 10 ee 3e 2a d5 30 bf
       0.13544829 -1.0779206 0.46497038 -0.6907526
0001a0 82 2b af bd cb e1 be be 82 c0 0d bf dd e2 9c 3e
       -0.0855322 -0.3728164 -0.5537187 0.30641833
0001b0 fd d8 ac 3f 85 13 8c bf 2b 6f b7 3f 76 96 08 3f
       1.350372 -1.0943457 1.4330801 0.53354585
0001c0 69 89 b1 bf 70 a1 7b 3f c8 61 05 3b c4 10 78 bf
       -1.3870059 0.9829321 0.0020352472 -0.9690058
0001d0 02 30 0d bf 94 45 2a 3f 98 59 94 3e 5e 3f 2b 3f
       -0.5515138 0.6651242 0.28974605 0.66893566
0001e0 0b 21 ab be b8 b6 ea 3f de e0 b2 be c3 77 ca 3e
       -0.33423647 1.8337011 -0.34937185 0.39544496
0001f0 3e fc ab 3e dc 4a 12 bf b2 35 29 3e de 5a 0a bf
       0.33590883 -0.57145476 0.1652439 -0.540449

emb_layers.1.weight f4 [16, 8]
000000 a3 52 0f bd 28 5d 80 bf c5 59 1e be 88 10 03 3f
       -0.034990918 -1.0028429 -0.15463932 0.511971
000010 18 b5 c0 bf 5a e5 62 bf 1b f3 b3 bc 41 67 2d be
       -1.5055265 -0.8863121 -0.021966508 -0.1693392
000020 88 52 eb 3e 53 5b 30 bf b9 fe a1 3e a6 b7 80 be
       0.45961404 -0.6888935 0.3163965 -0.25140113
000030 4a cc ae 3d 74 3d 0e c0 63 a9 48 3f 22 38 e4 be
       0.08535059 -2.2225008 0.78383464 -0.44574076
000040 dc 8d 76 3f db c5 c0 3e 60 3b ce 3f fc 15 89 3f
       0.9631021 0.37650952 1.611187 1.0709834
000050 ba 9b 92 3f 66 72 80 bf 94 89 a9 be f3 a9 99 bf
       1.1453774 -1.0034912 -0.33112776 -1.2004989
000060 9a 0d f3 bf 0c dd 2e be 6f 46 1e 3f a0 be 64 bf
       -1.8988526 -0.1707651 0.61826223 -0.8935337
000070 9b 66 dc be c7 94 32 be e6 54 4b 3f 6a 8b be 3f
       -0.43047032 -0.17439567 0.7942642 1.4886296
000080 37 7d d4 3e d7 06 3e bf df 91 c5 bf 93 f3 ca bc
       0.4150178 -0.74229187 -1.5435141 -0.024774348
000090 43 9b 6d 3e 91 ef a9 3f 9a 8d 9b 3e 45 50 b8 bd
       0.23203759 1.3276235 0.3038147 -0.08999685
0000a0 81 c6 d0 3e 54 c4 ee bf 72 20 20 be 5d 4a 92 3f
       0.40776446 -1.8653665 -0.15637377 1.1428944
0000b0 5a 15 e9 3f 6c 75 6a 3f 05 5a 24 3f e0 17 d4 3e
       1.8209641 0.9158542 0.6419986 0.41424465
0000c0 92 c1 59 3c 5b 68 4a 3f cf 32 65 3f e1 ec 94 3e
       0.01329078 0.79065484 0.8953065 0.29086974
0000d0 27 87 ad 3f 38 86 14 bf eb 30 1a bf f4 4a d9 be
       1.355687 -0.580173 -0.6023089 -0.42439997
0000e0 ad 5e dd 3d 4b 90 c0 3e 23 81 80 be 1c 72 69 be
       0.108090736 0.37610087 -0.25098523 -0.22797436
0000f0 0d 7b dd bf a0 ed e0 3f ff b5 55 3d e5 f8 78 bd
       -1.7303177 1.7572517 0.052175518 -0.06078424
000100 3d 67 bc bf a9 07 46 bf 2b 18 78 be 9d 2a 2a bf
       -1.4719006 -0.7735544 -0.2422797 -0.6647127
000110 95 db c2 3f 22 8a 47 bf e8 cb 25 3f be c1 e3 3f
       1.5223261 -0.7794515 0.6476426 1.77935
000120 6e d2 e9 3d 1a aa af be 4e d0 48 3e fb 46 03 40
       0.114170894 -0.34309465 0.19610712 2.0512073
000130 eb 4e c5 3e 0d 65 1b 3f bc 8d 7d 3e b1 b8 da be
       0.38536772 0.60701066 0.24761099 -0.42719033
000140 50 99 18 3f 54 7e 27 bf c8 46 28 3f 5c 5b 39 bd
       0.59608936 -0.65427136 0.65733004 -0.045253143
000150 1d af 75 3e 48 7c 18 3f 07 69 b4 3e 00 fc c8 3e
       0.23992582 0.5956464 0.3523638 0.3925476
000160 0d b6 2d 3f bb ac c3 3d 5b 72 a5 be 28 a0 2b bf
       0.6785591 0.0955443 -0.3231381 -0.67041254
000170 7b 1c 84 bf d2 87 c0 be 4c ec 2c 3e 00 c6 d3 3f
       -1.0321192 -0.37603623 0.16887015 1.65448
000180 15 13 91 3e ab 76 bc be 0d b5 91 3f 95 f0 fc 3d
       0.2833487 -0.36809286 1.1383377 0.12350575
000190 ee 85 ee bd 88 94 da 3f df e5 3e bf 02 e7 ee 3f
       -0.11646639 1.7076578 -0.74569505 1.8664248
0001a0 00 5b ea be 64 27 95 bf 31 ac b0 bf a5 4b 89 bf
       -0.45772552 -1.1652646 -1.3802549 -1.072621
0001b0 53 ac b6 3e fa 31 fb bf cc a0 09 be f2 51 9d 3e
       0.35678348 -1.9624627 -0.13440245 0.30726582
0001c0 c6 09 40 3f 33 95 ec 3e f3 54 b1 bf 67 06 15 3d
       0.75014913 0.4620758 -1.385405 0.03638306
0001d0 8d 5a 9a bf b4 04 e2 3e a1 55 cd 3f de 5c 26 3f
       -1.2058884 0.44144213 1.6041757 0.64985454
0001e0 b5 f8 aa bf e4 fd 0a 3f 4a 11 84 3f 76 dd 4d bd
       -1.3357149 0.54293656 1.0317776 -0.05026003
0001f0 1e 2d c0 bf ae ff 02 3f 4f 3d 45 3d 3d b7 45 3e
       -1.5013769 0.51171386 0.04815417 0.19308181

bn_cont.weight f4 [34]
000000 71 10 74 3f 17 22 55 3f da ac 60 3f ce 39 5b 3f
       0.9533759 0.8325514 0.8776375 0.8563508
000010 ce 72 c7 3f 73 cf 56 3f fc 07 61 3f 8c 21 63 3f
       1.5581911 0.8391029 0.8790281 0.88723063
000020 63 14 73 3f 97 3a c1 3f 5e e7 95 3f 9e 4a 30 3f
       0.9495298 1.5096005 1.1711233 0.68863857
000030 7f ed 5a 3f e9 eb 5d 3f db 37 3b 3f 78 87 4a 3f
       0.8551864 0.86688095 0.73132104 0.7911296
000040 79 ba 4b 3f 60 88 6b 3f ba ce 5f 3f 5d 28 6d 3f
       0.7958141 0.92004967 0.87424815 0.92639714
000050 cb ad 6c 3f 4b 1a 5a 3f 76 71 82 3f 6a 48 5c 3f
       0.9245269 0.8519637 1.0190876 0.86047995
000060 1e ac 55 3f 73 b4 65 3f f3 da 4f 3f fe 78 4b 3f
       0.83465755 0.8972847 0.81193465 0.79481494
000070 68 ae 5b 3f ae a6 5c 3f 36 76 58 3f cf 1c d1 3f
       0.85813 0.86191833 0.84555376 1.6336917
000080 c5 56 a0 3f b9 1b ad 3f
       1.252648 1.3524085

bn_cont.bias f4 [34]
000000 e5 d2 6f be 5f a6 36 be 34 3b 1b bd 94 0d cd 3d
       -0.23420294 -0.17836903 -0.037898257 0.100123554
000010 1b c8 b3 3b ba 69 04 be 1f 7f 82 bd 56 36 ef bb
       0.005486501 -0.12930956 -0.06371903 -0.0073001785
000020 11 ea 70 be 56 6e 94 3d 11 6b b0 3d fa 56 05 3d
       -0.23526789 0.072476074 0.08614171 0.03255365
000030 f4 89 da bd d4 51 c0 3d d8 84 65 3d 88 10 88 3d
       -0.10670844 0.093906075 0.056034893 0.06643778
000040 85 6c e9 bc e0 1f 9d bd 08 fe 81 be 18 1b e7 bd
       -0.028494129 -0.07672095 -0.25389123 -0.112844646
000050 a9 68 59 be 3f 57 98 be 5d e7 2f 3e a7 6f 6b 3e
       -0.21231331 -0.29754063 0.17178102 0.2299181
000060 7d 9c 80 be 28 d9 0e be 71 e6 4d bc 98 82 61 be
       -0.2511939 -0.13950026 -0.012567149 -0.22022474
000070 c7 3f d4 be 5c 0b 27 3e f2 0a 77 be 1c a9 22 3e
       -0.41454908 0.16312927 -0.24125269 0.15884823
000080 79 47 51 bd a9 ff f1 bd
       -0.051093552 -0.118163414

bn_cont.running_mean f4 [34]
000000 11 6e b2 42 a4 70 4c bf 74 76 b8 40 fd 03 8b 3e
       89.21497 -0.79859376 5.7644596 0.2715148
000010 ff b4 d4 3e c1 00 8a 3f 78 2a 8c 3f 19 91 e5 bd
       0.4154434 1.078148 1.095046 -0.11209316
000020 83 94 16 3f db 26 32 3c 49 4b 17 40 73 1c 75 47
       0.5882036 0.010873522 2.36397 62748.45
000030 09 bc f8 47 1e be 3e 48 be 95 79 3f 67 5e 9e 40
       127352.07 195320.47 0.97494113 4.9490237
000040 ab 5f 03 3f 61 24 12 40 0e c9 01 c3 74 86 66 c0
       0.5131785 2.2834704 -129.78537 -3.6019564
000050 69 51 08 c0 ea 04 d8 41 1e 38 c2 c1 9f 3e 5a 40
       -2.129969 27.0024 -24.277401 3.410072
000060 cf 25 cd 3f de fa b2 42 a8 23 0b 45 53 92 ce 40
       1.6027163 89.489975 2226.2285 6.455362
000070 67 2d 58 42 82 68 58 40 cb a3 30 43 44 87 2b 3e
       54.04434 3.3813787 176.63982 0.16750818
000080 82 79 8d 42 c6 1f e6 40
       70.73732 7.1913786

bn_cont.running_var f4 [34]
000000 67 21 0b 42 0d 6b 5e 40 2a d0 98 3e 75 82 4a 3e
       34.78262 3.4752839 0.29846317 0.19776328
000010 40 c4 78 3e 55 10 81 3f eb 0e 28 3f 3d 22 55 3f
       0.24293613 1.0083109 0.65647763 0.8325537
000020 b2 8d e2 3e 3f 82 92 3e 49 d7 a3 3e 28 4b 08 51
       0.4424873 0.28614995 0.32000187 3.658603e+10
000030 a0 4f 75 51 20 31 a3 51 e3 cc 28 3f 9b f1 d2 40
       6.585018e+10 8.761298e+10 0.6593763 6.591993
000040 98 c2 7f 3e e7 35 fb 41 7b af 91 42 25 15 da 40
       0.24976575 31.40132 72.842735 6.815081
000050 a7 07 fa 42 80 43 7b 41 b6 be 88 42 60 c1 02 3d
       125.014946 15.7039795 68.37248 0.031922698
000060 9a 19 1e 3c 20 8e 1a 42 83 07 0d 48 1a 0d 61 3e
       0.009649659 38.638794 144414.05 0.21977654
000070 bb b4 5c 3e 1d cc 5b 40 98 be 99 45 fd 63 dd 43
       0.21553318 3.434333 4919.824 442.78116
000080 0f 00 37 42 f6 cf 23 3f
       45.750057 0.639892

fc1.weight f4 [64, 50]
000000 46 91 7d 3d e4 3a 82 bc a9 00 b4 bc 63 9a bf bc
       0.06190612 -0.015897222 -0.021972971 -0.023389047
000010 7f cb 33 3d dc 89 dd bc 5a 1b be bd ec 66 ef bd
       0.04389524 -0.027043276 -0.09282561 -0.11689553
000020 28 57 70 3d 8d 5c ca 3d c7 84 43 3c b4 f6 03 bd
       0.05867687 0.09880934 0.011933512 -0.032217696
000030 96 1a ad bc 85 36 06 3d f4 91 81 bc 7a 9a d3 3c
       -0.021130841 0.032766838 -0.015816666 0.025830496
000040 ed cc 6b 3d 38 1b 82 3d 1e d7 13 bd 1a f8 6a bd
       0.05756848 0.06352848 -0.036093824 -0.057365514
000050 ef e0 10 3e a6 24 60 3d cc 20 94 3d 05 42 2c bd
       0.14148305 0.05472245 0.07232818 -0.04205515
000060 ab 32 a4 3d 64 58 bb be d4 34 91 bd 4b 61 73 bd
       0.08017477 -0.36590874 -0.07090154 -0.059418958
000070 ae 36 ee bb d3 75 b9 3b b7 5e 1d 3d 45 d4 8d bd
       -0.007269702 0.0056597977 0.038420405 -0.06925253
000080 50 e0 84 bc 32 d2 25 bd 02 b9 12 3d e9 d0 a1 bc
       -0.016220242 -0.04048366 0.03582097 -0.019752936
000090 60 ff b9 bc 00 83 41 bd fd 47 3b bc 86 86 c2 3a
       -0.02270478 -0.047244072 -0.011430738 0.0014841116
0000a0 f4 04 48 3d 5a 36 a6 3d 1d 06 99 3b 29 11 96 bd
       0.04883285 0.081158355 0.004669918 -0.07327492
0000b0 e8 34 12 bd ab 84 de bd b3 4c 3c bd e2 9c 68 3e
       -0.035694987 -0.10865148 -0.045971584 0.22716096
0000c0 18 7c b1 bd 57 ba 67 be 76 77 4f bd c6 b3 cb 3d
       -0.08666247 -0.22629677 -0.050651036 0.099463984
0000d0 47 9e 8c 3b 59 a9 9f bc bf a2 5f 3c 42 e2 a3 bc
       0.004291329 -0.019489931 0.013649642 -0.02000535
0000e0 a5 22 41 be b0 fb 25 bd df 60 c7 3d 2a 97 12 bb
       -0.18860872 -0.04052323 0.097352736 -0.0022367933
0000f0 61 fc 3f bd fd 81 07 3e 2c b7 fc 3d 76 65 aa 3c
       -0.046871547 0.1323318 0.12339625 0.020800333
000100 43 8d 85 bd e8 c5 e4 3c b3 ff 42 bd 38 e4 8e bd
       -0.06521084 0.0279264 -0.047607135 -0.06977123
000110 ac 44 49 be ca 41 d9 3c d8 a6 2f bd ba 44 77 bc
       -0.19655102 0.026520628 -0.042883724 -0.015092069
000120 e4 56 33 3d 2e 3c 0b 3d a8 53 b0 bd 70 11 da bd
       0.043784037 0.03399294 -0.08609706 -0.10647857
000130 cf 82 47 3c 44 f6 d8 bc b7 75 9e bc a7 f8 09 3d
       0.012177183 -0.026484616 -0.01934324 0.0336844
000140 b8 c9 35 be 97 7c 20 bc 2e 10 9b 3d d0 cc e3 3d
       -0.17752731 -0.0097953295 0.075714454 0.11123049
000150 c9 96 ff 3d 86 c9 b7 3d 96 9e 8c 3d 79 1a bf 3d
       0.12479932 0.089739844 0.06866185 0.09331221
000160 1c 41 31 be db 25 1c bd 8c 58 f5 3c 31 cd 24 be
       -0.17309994 -0.03812204 0.029949449 -0.160939
000170 3d c1 34 3d 93 26 6a 3c 46 c2 f1 3d 62 49 af bd
       0.0441296 0.014291423 0.11804633 -0.085589185
000180 81 75 80 3d 20 f6 3e be 43 46 46 bd 2e 8f 14 be
       0.06272412 -0.18648577 -0.04840685 -0.14507744
000190 52 14 9a 3a a6 ed 8d bc fd 64 74 3c 49 f0 7d 3c
       0.0011755324 -0.017325234 0.014916656 0.015499183
0001a0 e6 0e a4 bc c8 69 e0 3c fd 4a b5 3d fc 7e 00 3d
       -0.020026635 0.02739419 0.088521935 0.0313711
0001b0 43 12 e3 3c 31 54 81 3d 56 50 27 39 b1 52 1a 3c
       0.027718669 0.06314886 0.00015956289 0.009419129
0001c0 b3 1d f6 bc 8a eb 01 bd f9 01 ff bc ea 40 7a bd
       -0.030043459 -0.03171877 -0.03112887 -0.061097063
0001d0 11 af da 3d fb d0 72 bd b7 3a 99 3d ea fd 8c bd
       0.106779225 -0.05928133 0.07481902 -0.06884368
0001e0 f8 9a 49 3e 3c ea e8 3c c5 27 c5 bc 5b a6 7d bc
       0.19688022 0.028432004 -0.024066815 -0.015481557
0001f0 69 9e c4 3c fa f4 f3 bd 3c f1 61 be ce 18 02 3d
       0.024001317 -0.1191196 -0.2206468 0.031761937
000200 5e 89 41 3d f1 cd 6f 3d 31 f5 ec bc 76 c9 a1 3d
       0.047250144 0.05854601 -0.02892551 0.07899754
000210 1a c8 38 bd ef ee e0 bd 3b fb 98 bd ae f2 77 3c
       -0.045112707 -0.10983073 -0.074697934 0.015133543
000220 de 9d 8b 3d a3 d3 a4 bd 64 e3 5b be 0e e9 52 3d
       0.0681722 -0.08048179 -0.21473461 0.05149179
000230 91 7d cf 3d 52 c9 2c 3e 14 21 e8 bd 5f 5d 8c 3d
       0.10131372 0.16873673 -0.11334434 0.068537466
000240 d3 94 92 3d bf 4b 5d bd 33 f4 0e 3e fd 9b 89 3e
       0.07157292 -0.054027315 0.13960342 0.26876822
000250 fb 3a 58 3d 5f 89 55 bd 98 31 c2 bd 6a 8a c2 3d
       0.052790623 -0.05213296 -0.094821155 0.09499057
000260 80 ad a3 bc 06 bd c2 3d 14 b1 81 bd c5 63 f0 bc
       -0.019980192 0.095087096 -0.06332603 -0.029344449
000270 b8 4b 77 3d 0b 05 d5 3b 72 42 11 be 73 e9 65 3d
       0.060374945 0.0065008453 -0.14185503 0.056130838
000280 79 aa d9 bd 5c 93 e3 3c 03 c0 1e 3e c1 48 2d 3e
       -0.10628218 0.027780227 0.15502934 0.16922285
000290 1c 69 82 bd 44 38 ed 3c e9 13 01 be 05 6b b0 bd
       -0.06367704 0.028957494 -0.12605251 -0.08614162
0002a0 78 73 13 3e 8f 11 27 3c 32 e4 05 bd 53 d9 1f bd
       0.14399517 0.010197057 -0.032688327 -0.039025616
0002b0 fe 60 f7 3d 7d cf 04 be 59 de 82 bd b7 25 d2 bd
       0.12079047 -0.12969775 -0.06390066 -0.102611
0002c0 7f 38 ac bd f0 73 04 3d e7 c8 95 bd 22 e5 fc bc
       -0.08409213 0.03233713 -0.0731371 -0.030870978
0002d0 d7 3e 30 3a a0 c0 cf 3c 30 8c a3 3d c3 2e 8e 3c
       0.0006723231 0.025360405 0.07985723 0.017356282
0002e0 2c be 8d bd 04 f4 8c 3d 62 51 97 bc 6c e5 00 3d
       -0.06921038 0.0688248 -0.018471424 0.031468794
0002f0 34 cf 2b 3c be bc 5e bb 0b 41 76 3d 24 50 87 3d
       0.010486413 -0.003398701 0.060120624 0.066070825
000300 c2 e7 18 be 38 53 54 3d 52 17 45 3e 33 85 2a 3d
       -0.14932159 0.051837176 0.19247177 0.041630935
000310 1b ce 9b bd 5f 52 f1 bd 1a b2 0d bd 62 2f 97 be
       -0.07607671 -0.11783289 -0.03459368 -0.29528338
000320 08 91 56 3d dd 64 46 bc 4c 9d 4b bd 6e 18 a2 3c
       0.052384406 -0.012109009 -0.049710557 0.01978704
000330 1d d3 bb 3c 71 93 44 bd b4 70 c8 bc 39 88 38 3c
       0.022927815 -0.047992174 -0.024467804 0.011262947
000340 19 a9 7d bc 5a d5 6e bd 46 26 6a bd 30 37 04 3d
       -0.015482211 -0.058308937 -0.057165407 0.032279193
000350 18 5f 26 3c 9b ff fb 3c 48 07 d7 3b 86 74 ba bb
       0.010154508 0.03076153 0.0065621473 -0.00569016
000360 f8 0a fa bc e3 f9 03 3e 8f 67 99 3b cc ef c4 bd
       -0.030522808 0.12888293 0.0046815346 -0.0961605
000370 60 a1 a5 3e d5 46 6d bd b4 b1 12 3d a4 d8 c8 3d
       0.32349682 -0.05792888 0.035814002 0.09806946
000380 84 8b 12 3e 3e bc bc bd 48 a6 56 3d db 08 93 3b
       0.14311033 -0.09215592 0.052404672 0.0044871396
000390 37 e1 4f 3c a7 a7 e7 3c 77 4e 54 3c 79 3a a3 3d
       0.012687973 0.028278185 0.012958161 0.07970137
0003a0 ce ee 03 bc cb 60 5f 3d b1 9b af 3d 44 39 9f bc
       -0.008052541 0.05453567 0.08574618 -0.019436486
0003b0 70 ad 71 3d ef e9 bd bd 41 a6 4d bd 21 9d 99 bd
       0.059003294 -0.09273135 -0.05020738 -0.07500673
0003c0 b0 a6 42 3c 25 22 9d 3d a3 45 4b bd b8 9c a0 bd
       0.011880562 0.07672528 -0.049626958 -0.07842392
0003d0 ed 7b 53 bd 48 cf 58 3d 79 46 0f 3d b8 51 a2 be
       -0.051631857 0.052932054 0.034979317 -0.3170297
0003e0 47 af ae 3d 95 49 07 3e 97 05 e2 3d 30 a7 11 bb
       0.08529525 0.13211663 0.110362224 -0.0022224896
0003f0 cc 9e 52 3d ca 13 bf 3c ff f8 be bd 29 d2 63 3d
       0.05142097 0.023324866 -0.09324836 0.055620346

fc1.bias f4 [64]
000000 d7 f9 2c be 9c d1 0f be 11 60 01 be d6 49 e1 bb
       -0.16892181 -0.14044803 -0.12634303 -0.006875257
000010 a3 67 20 be ab 7b f6 bd 05 40 84 be 18 ee 8e bd
       -0.15664534 -0.120353065 -0.25830093 -0.069790065
000020 46 9d d9 bd a5 ad 62 be 3e 35 d9 bd d6 38 a5 bd
       -0.10625701 -0.22136553 -0.10605858 -0.08067481
000030 2b 3c 22 be d1 1a 11 be da ed 94 bd c0 49 80 be
       -0.15843265 -0.14170386 -0.07271929 -0.25056267
000040 8c 6a 28 be 81 05 63 be 87 19 84 be c9 cf 2b bb
       -0.16446894 -0.22170068 -0.25800726 -0.002621638
000050 ef 68 98 be 83 26 38 bd ab c5 3b be fe ce cd bd
       -0.29767558 -0.044958603 -0.18337123 -0.10049246
000060 45 0b 19 be 39 16 8f be cb 17 b2 bd 5c 74 87 be
       -0.14945705 -0.27946642 -0.086959444 -0.26455963
000070 0a b1 60 be 52 65 d1 bd 4e 75 59 be e4 ef 95 bc
       -0.21942535 -0.102244034 -0.21236154 -0.018302865
000080 c6 8e de bd bb c1 5d be f9 f5 33 be 9f 63 09 be
       -0.108670756 -0.21655934 -0.175743 -0.13416909
000090 5e 8f 11 be 9e 63 88 bd 87 79 2f be 9d 2f 1b be
       -0.14214846 -0.066596255 -0.17136203 -0.15154882
0000a0 f4 f5 1d be e3 11 c7 be e3 41 9f bd d8 8c a7 be
       -0.15425855 -0.38880834 -0.07776239 -0.32724643
0000b0 16 19 7f be ba 63 30 bc 60 9d 1e be ce a1 6c bd
       -0.24911913 -0.010765964 -0.15489721 -0.057771496
0000c0 27 0f 21 be 0a 25 30 bd 80 22 36 be 18 59 cf be
       -0.15728436 -0.043004073 -0.17786598 -0.4049766
0000d0 80 0f 01 be cc da d8 bd 86 f7 73 3c f6 7f ec bc
       -0.12603569 -0.10588607 0.014890557 -0.02886961
0000e0 96 de 32 be 76 04 bd bd 7c 9b a7 bc 4b 43 16 be
       -0.17467722 -0.092293665 -0.020459883 -0.14674108
0000f0 5e 84 34 bd b9 ab 8c be 3f ff 6e bd 32 61 66 bd
       -0.044071548 -0.27474764 -0.05834889 -0.056245036

bn1.weight f4 [64]
000000 65 76 8a 3f 94 89 51 3f 1d bd 89 3f 58 ca 5f 3f
       1.0817381 0.8185055 1.0760838 0.8741813
000010 ff 5c 8a 3f 64 10 5d 3f 9b 3a 8b 3f 82 08 86 3f
       1.080963 0.86353135 1.087726 1.0471346
000020 b6 b2 93 3f 3e e2 6c 3f d7 69 85 3f 32 24 90 3f
       1.1538913 0.9253272 1.0422925 1.1261046
000030 5a 22 58 3f 39 eb 67 3f a4 42 60 3f 40 82 7f 3f
       0.84427416 0.90593296 0.87601686 0.9980812
000040 d4 55 9d 3f 8f 24 83 3f 3c 46 80 3f cf 83 76 3f
       1.2291818 1.0245532 1.0021434 0.96294874
000050 66 03 80 3f 50 cd 84 3f 28 64 64 3f b4 2d 6f 3f
       1.0001037 1.0375156 0.89215326 0.9342911
000060 0b b3 8f 3f d8 90 81 3f d6 03 6c 3f fd 34 6e 3f
       1.1226515 1.0122328 0.92193353 0.93049604
000070 00 86 70 3f 79 e1 59 3f dc 41 72 3f 58 d4 6f 3f
       0.9395447 0.8510967 0.94631743 0.93683386
000080 48 fe 78 3f 8a c7 6b 3f db 71 6e 3f 6c d3 84 3f
       0.97263 0.9210135 0.9314248 1.0377021
000090 a9 6e 68 3f 3f d9 6f 3f 3a a8 70 3f 1e fc 8b 3f
       0.90793854 0.93690866 0.94006693 1.0936315
0000a0 ba 17 91 3f 97 e2 86 3f 2a 23 83 3f 0f ef 6e 3f
       1.1335366 1.05379 1.0245106 0.93333524
0000b0 ac 8d 77 3f 22 d2 69 3f bc b9 62 3f 90 87 5b 3f
       0.9670055 0.9133626 0.8856466 0.85753727
0000c0 55 18 63 3f a3 8d 6a 3f 2d 6a 7a 3f 91 1e 8e 3f
       0.88709 0.9162237 0.9781826 1.1103078
0000d0 56 86 5b 3f 89 c4 69 3f 53 92 6c 3f 8f 8c 62 3f
       0.85751855 0.91315514 0.92410773 0.88495725
0000e0 20 93 72 3f 50 f8 60 3f 31 4a 6b 3f b1 75 6f 3f
       0.94755745 0.87878895 0.9191008 0.9353896
0000f0 4e 25 7b 3f a7 0d 79 3f c6 ae 61 3f f2 b9 73 3f
       0.981038 0.97286457 0.8815731 0.95205605

bn1.bias f4 [64]
000000 9d 99 ab bd 5e 9a fc bd cf 56 f1 bd d2 af 73 bd
       -0.08378909 -0.12334131 -0.117841356 -0.059493847
000010 a4 03 25 be a9 f5 0a be fa 8d c1 be da 07 50 3b
       -0.1611467 -0.13570274 -0.37803632 0.003174296
000020 5c e3 da 3a 14 97 a1 bd 81 d9 be bd c4 ce 0c bd
       0.0016699838 -0.07890144 -0.09318829 -0.034376875
000030 bc cd ea bd ab 9d f3 bd f1 d7 f6 bd e1 3c 1c be
       -0.11465022 -0.11895307 -0.12052906 -0.15257598
000040 9b 11 2c be e1 56 22 be 58 ee 3f be 9e b2 d6 bd
       -0.16803591 -0.15853454 -0.18743265 -0.10483287
000050 1d a0 8f be 29 ec 3a bd 57 38 67 be 0c 07 21 bd
       -0.28051844 -0.045635376 -0.22580086 -0.03931336
000060 5e 37 46 be c1 c8 9b bc ba 6a b5 bd 9c 35 6c bd
       -0.19357058 -0.019016625 -0.08858247 -0.057668313
000070 d3 18 10 be 06 6b 18 be fb 10 b1 be 64 e3 55 3d
       -0.1407197 -0.14884576 -0.34583268 0.05221881
000080 f0 42 06 be 87 81 44 bd e2 2d e4 bd 15 18 ab bd
       -0.13111472 -0.04797509 -0.11141564 -0.08354203
000090 16 3a 8b bd b8 67 30 be 8c dc 6e bd d2 77 d0 bd
       -0.067981884 -0.17227066 -0.0583158 -0.10179104
0000a0 55 b0 25 bd fd 49 42 bf 89 d4 2e bc 07 51 89 be
       -0.040451366 -0.7589415 -0.0106707895 -0.2681963
0000b0 76 c7 9e be 36 2f 14 be 4b 1e e3 bd fd cd ec bd
       -0.31011552 -0.14471135 -0.11089762 -0.11562727
0000c0 ff 8e 95 bd 50 f3 a3 bd 1a 4e 47 be c8 68 c7 be
       -0.07302665 -0.080053926 -0.19463387 -0.3894713
0000d0 e1 d0 6e be 87 1a 07 be 70 f2 b5 bd b4 b0 14 be
       -0.23321868 -0.13193713 -0.08884132 -0.14520532
0000e0 07 3d d7 bd a8 d5 e2 bd fe c6 8f bd 2b 2f c2 bd
       -0.10509687 -0.11075908 -0.070203766 -0.09481653
0000f0 57 85 c5 3c d6 6d 08 be 1d e3 33 bd 3b 10 bb 3d
       0.024111433 -0.13323149 -0.043917764 0.09133955

bn1.running_mean f4 [64]
000000 4c 71 97 be b8 65 ce be c7 35 69 be 43 92 55 be
       -0.29578626 -0.4031198 -0.2277442 -0.20856576
000010 41 eb 95 be fb a9 9e be cd 78 cf be 0e 79 dd be
       -0.29281047 -0.3098906 -0.4052185 -0.4325642
000020 da f4 70 be 19 35 8d be ae c5 5d be bc a5 3e be
       -0.23530903 -0.27579573 -0.2165744 -0.1861791
000030 6e d8 dc be d0 aa 29 be d7 f0 c4 3c ab 12 d4 be
       -0.43133873 -0.16569066 0.024040623 -0.41420493
000040 42 2a cf be 1c aa a3 be 21 a4 ae be 0a 81 92 be
       -0.40461928 -0.3196572 -0.34109595 -0.28614074
000050 98 f3 b6 be fb af 85 be c4 db cc be 07 a3 89 be
       -0.35732722 -0.26110825 -0.40011418 -0.26882192
000060 c8 35 9d be 68 26 cb be f7 81 67 be 53 f8 5b be
       -0.30705094 -0.3967774 -0.22608171 -0.21481447
000070 c0 f3 e4 be 9c 3a 9f bc 9c 01 ff be 0a ed 00 be
       -0.44717216 -0.019437127 -0.49805915 -0.12590423
000080 2f a0 87 be 95 2b 34 be d1 58 db be 30 bc ad be
       -0.26489398 -0.1759475 -0.428412 -0.33932638
000090 e3 a1 8f be d9 a7 7b be 0c 19 86 be b8 1d 95 be
       -0.28053197 -0.24575748 -0.26190984 -0.29124236
0000a0 b5 f9 90 be 9b 92 42 bf 98 ed 53 be 53 3b e3 be
       -0.2831551 -0.7600495 -0.20696104 -0.44381198
0000b0 a3 18 31 be bd 67 c0 bd 4d 2a 84 be a7 31 72 be
       -0.17294554 -0.093947865 -0.25813523 -0.23651753
0000c0 70 5e a3 be f0 53 67 be d9 02 77 be ec 2a 12 bf
       -0.31907988 -0.22590613 -0.2412218 -0.57096744
0000d0 53 3d 69 bd 9b 4b ba be af 22 86 3b 4e 0d a4 bd
       -0.05694325 -0.36385807 0.00409349 -0.0801035
0000e0 00 79 79 be 83 9c 9e be d7 e8 c3 3d 3c 0c 7a be
       -0.24362564 -0.30978784 0.09565895 -0.2441873
0000f0 88 f7 35 be 65 a4 b6 be d5 46 34 be d1 77 81 be
       -0.17770207 -0.35672298 -0.17605145 -0.25286725

bn1.running_var f4 [64]
000000 08 cb 6c 3f dd dc 7c 3f 90 a7 31 3f 62 0c 2f 3f
       0.924973 0.9877451 0.69396305 0.6837827
000010 b0 52 2a 3f 25 eb f4 3e bc 9f f3 3e fd 1c 29 3f
       0.6653242 0.4783565 0.47582805 0.6605986
000020 41 68 24 3f 84 2b f6 3e c1 91 d9 3e 8d 0f 27 3f
       0.6422158 0.48080075 0.42494014 0.65258104
000030 e0 59 13 3f 50 6b 2a 3f d7 c8 da 3e fb 6e ff 3e
       0.57559013 0.66569996 0.42731354 0.4988936
000040 68 be 50 3f 5e 6e 37 3f ae c2 23 3f db 03 d1 3e
       0.81540537 0.7165278 0.6396893 0.40823254
000050 48 2a 36 3f 17 12 2f 3f 23 59 24 3f de 30 6e 3f
       0.71158266 0.6838698 0.6419851 0.93043315
000060 47 70 06 3f 6b 6d 1b 3f 6c f4 22 3f 63 4c 06 3f
       0.5251507 0.60713834 0.6365421 0.52460307
000070 b9 c2 3a 3f 2a c4 e6 3e e4 de 41 3f 47 58 1d 3f
       0.72953373 0.45071536 0.7573073 0.61462826
000080 f8 e6 01 3f 75 25 ba 3e 66 45 60 3f 08 d5 2f 3f
       0.50743055 0.36356702 0.87605894 0.68684435
000090 01 37 0f 3f d3 a9 01 3f 15 97 0a 3f 64 2a f6 3e
       0.55943304 0.50649756 0.5413678 0.48079216
0000a0 a9 ab 26 3f c3 7f 56 3f 53 be e7 3e d2 7c 50 3f
       0.6510568 0.837887 0.45262393 0.8144046
0000b0 85 36 27 3f 1e f6 1d 3f 54 d0 f5 3e aa 80 07 3f
       0.65317565 0.6170367 0.48010504 0.529307
0000c0 8f b1 27 3f 2a ae fb 3e a8 81 28 3f cc bc 5e 3f
       0.6550531 0.49156314 0.6582284 0.8700683
0000d0 d4 d1 49 3f ce 01 14 3f 34 19 af 3e 2f d5 f1 3e
       0.788358 0.57815254 0.34198916 0.4723296
0000e0 76 b4 24 3f b6 1d 04 3f 36 20 e3 3e f1 b0 30 3f
       0.6433786 0.51607835 0.44360512 0.6901999
0000f0 6d 6f 1d 3f 92 ad 2a 3f 69 2d ad 3e d7 89 38 3f
       0.6149815 0.666711 0.33823708 0.72085327

fc2.weight f4 [32, 64]
000000 36 da 9b 3d b8 3c 04 3b 19 a9 6a bd 78 bc 8d bd
       0.0760998 0.0020177793 -0.05729017 -0.06920713
000010 12 57 09 bd 91 89 28 3d d7 d2 2b 3d de 4d 30 bd
       -0.033530302 0.04114682 0.04194912 -0.04304301
000020 7b 30 08 be e7 cf 91 bd 92 da d1 3d e2 d9 0c 3d
       -0.13299744 -0.07119732 0.10246767 0.034387477
000030 92 85 88 bc 7b 2f d0 3d 4f c3 db bb 83 ba 17 3d
       -0.016665254 0.10165306 -0.006706632 0.037043106
000040 4f f9 40 3e a6 cc b6 3d 84 13 42 3d a9 09 44 be
       0.18845104 0.08925752 0.047381893 -0.1914431
000050 05 bc 4c bc a8 18 76 3d e8 e7 cb bd 75 77 92 bb
       -0.012495999 0.060082108 -0.09956342 -0.004469807
000060 54 a5 28 3d a2 e1 46 bd 56 62 e6 bc e0 8f be ba
       0.041173294 -0.048555024 -0.028123062 -0.0014538728
000070 95 4a a6 3d b9 fc ec 3b 22 32 3e bd 97 b4 e8 bb
       0.08119694 0.0072322753 -0.04643453 -0.007101606
000080 97 9a 96 3d 8b e3 3e b9 19 20 8e 3d 5d b4 06 be
       0.073537044 -0.00018204578 0.06939716 -0.1315474
000090 33 8f 44 3d 75 07 19 3d d2 be ca bd 8f 86 99 bd
       0.047988128 0.037360627 -0.09899677 -0.07496368
0000a0 0a ae 30 bd 18 7a 45 be 15 d0 82 bc 91 ba b6 3d
       -0.043134727 -0.19284856 -0.015968362 0.089223035
0000b0 b2 98 a4 bc ac 08 0c 3d d5 6f 28 3d 81 24 7f 3d
       -0.020092342 0.034187958 0.041122276 0.062290672
0000c0 03 ba 7a bb 55 a0 c4 bd 29 80 9a 3d 86 4e 95 3d
       -0.0038257844 -0.096008934 0.07543976 0.07290368
0000d0 23 16 60 bb f6 5d 99 3d 76 b0 68 bd c1 36 11 3d
       -0.0034192882 0.07488625 -0.05680891 0.035452608
0000e0 4d 8f 1e 3d d4 ca 83 3d 3a 8c 8d bd a8 b3 21 bd
       0.03871088 0.06435171 -0.06911512 -0.039477974
0000f0 00 29 82 3d 94 49 06 be 63 cf 67 bd 39 7b 06 bd
       0.063554764 -0.13114005 -0.056594264 -0.032832358
000100 26 22 84 3d 81 db e5 bd 65 ce cd bd ba ca 24 3e
       0.06451826 -0.11223508 -0.10049132 0.16092959
000110 8e 78 14 39 dd 7e 1b 3c 7e 38 db 3c e0 80 9b 3d
       0.0001415929 0.009490696 0.026760336 0.0759294
000120 a8 fd 85 bd a0 ae f1 bd 7e e7 eb 3d 85 ed 7f 3d
       -0.06542522 -0.11800885 0.11518763 0.062482376
000130 8d aa 84 bd 36 2a e0 bb e4 4a 2b bd 5f 1d 7d bd
       -0.064778425 -0.0068409694 -0.04181947 -0.06179559
000140 26 0f 46 3c c3 2d e5 bc 91 5e a1 3d c8 ba 9a bc
       0.012088573 -0.027975922 0.07879365 -0.018887892
000150 45 bd 63 bd 53 20 e6 3b 16 51 44 be 05 34 91 3c
       -0.055600423 0.0070228963 -0.19171557 0.017725
000160 dd d6 47 3d e8 13 d1 3c 57 91 85 3c c8 90 06 be
       0.048788894 0.025522187 0.016304655 -0.13141167
000170 6a d6 a5 3c e1 a5 7a 3b 03 b7 f0 3d 40 5f 4e 3d
       0.020243842 0.0038245844 0.11753657 0.050383806
000180 7a cd a4 3d f8 2a c0 bd 99 85 98 bb 1c 1d fc 3d
       0.08047004 -0.09383196 -0.004654598 0.1231024
000190 c5 04 d3 bd 3c 7d 00 3e 87 5f 03 ba 2d c2 80 bd
       -0.10303644 0.12547773 -0.0005011488 -0.06287036
0001a0 55 ad 51 bc 33 10 35 be d1 02 b9 3d 12 36 93 3c
       -0.012797673 -0.17681961 0.0903374 0.017970119
0001b0 e5 97 84 3d 46 12 b6 3c d6 96 6d bb 8b 90 85 bd
       0.06474284 0.02222551 -0.0036253235 -0.0652171
0001c0 95 df 3f 3d ce f9 a1 3d 10 20 2a 3d f8 da 25 be
       0.046844084 0.079089746 0.041534483 -0.16196811
0001d0 3e cd 80 3d 82 de 60 bd ff 1c f4 3d b2 a1 9a bd
       0.06289147 -0.0548997 0.11919593 -0.07550372
0001e0 01 5b 14 3d 56 37 45 3c cd af 6c bd ec 4b 0d 3e
       0.0362196 0.012037119 -0.057784844 0.13798493
0001f0 36 7c 23 3d 98 90 51 be 74 4a 05 bc 0b 2b 0d 3d
       0.03991338 -0.20465314 -0.008135427 0.034464877
000200 66 41 15 3d 55 fa b7 3d d6 41 c7 3d 38 0d d4 3c
       0.036439322 0.08983294 0.09729354 0.02588521
000210 4d 7e d1 3c af 5b e8 3b 39 31 eb bd e0 f5 ae bc
       0.02557292 0.0070910077 -0.11483998 -0.021357477
000220 02 f6 68 be 59 94 ce 3d ed a7 ec 3d 2d dc 98 be
       -0.22750095 0.10086889 0.11555467 -0.2985548
000230 76 8b fc bc d7 20 c1 bd 6f 2f 37 3d ef 8c 17 3d
       -0.030828219 -0.09430092 0.04472297 0.03699964
000240 b4 48 a1 b7 92 de 08 3e ce fa 3a 3e 0d 86 46 bd
       -1.922655e-05 0.13366154 0.18259737 -0.048467685
000250 d7 1f 14 be 71 06 e9 3a 4f 8f 17 bd 3f a6 2d 3e
       -0.14465271 0.0017778409 -0.037001904 0.16957949
000260 53 51 73 bc 90 0c b8 3b fb bc 07 3d ec 49 51 3d
       -0.014850932 0.005616732 0.03313921 0.051095888
000270 93 c2 6a 3d 60 06 5b 3d e7 2e 9d 3d f8 c6 7f bb
       0.057314467 0.053472877 0.076749615 -0.0039028507
000280 d1 e0 95 bc af 3f 09 bc a7 78 1e 3d 60 de 1e be
       -0.018295677 -0.008377 0.03868928 -0.15514517
000290 71 27 82 3d 48 67 23 bd d0 98 96 3d 3e 46 a1 3d
       0.06355179 -0.03989342 0.073533654 0.07874726
0002a0 9d 15 a7 bd 01 c5 87 3d 6f 80 7e bd 4c 5d 77 be
       -0.08158419 0.066293724 -0.062134203 -0.24156684
0002b0 30 14 8d 3d 76 d1 e6 bc 75 e6 ba bd 5f 9a df bd
       0.06888616 -0.02817605 -0.091259874 -0.10918116
0002c0 b7 44 31 bd d6 b3 31 3e 8c 0d ff 3a c1 b7 9e bd
       -0.043278422 0.17353758 0.0019458993 -0.07749892
0002d0 7f 11 38 bc 27 75 b0 3c 0f 7a f8 3c 47 b6 8c bd
       -0.01123464 0.021540238 0.03033164 -0.06870704
0002e0 ab a4 c1 3c 9d 7b c7 bc 7d 72 35 bd db a1 0b be
       0.02363809 -0.024350936 -0.044298638 -0.13635962
0002f0 9b 48 d7 bc ec a5 21 bd 0b 47 38 3d 35 c0 b4 bd
       -0.026279738 -0.039464876 0.044989627 -0.08825723
000300 67 1f 85 bd 60 ed 16 bc fd 09 a4 bd 6f 5c 0c be
       -0.0650013 -0.009211868 -0.080097176 -0.13707136
000310 46 f4 95 3c 53 0c 78 bd fb 30 38 3e 52 7e a5 3c
       0.018304955 -0.06055863 0.17987435 0.020201836
000320 9d 81 aa 3d dc 71 c9 3d 12 a7 54 be 5a 46 8a 3c
       0.08325503 0.0983617 -0.20766857 0.01687925
000330 50 38 52 bd b6 93 0b 3d 85 66 ec bd 1e fe c8 3c
       -0.051323235 0.034076415 -0.115429915 0.024535235
000340 24 26 57 bc d2 0d fb bd d3 7f 9d 3d 7e bf 0b bd
       -0.013131652 -0.122584954 0.07690396 -0.034118168
000350 4f 6a 90 3d 57 c5 17 ba 2b e4 7d 3c dc ce 4e bd
       0.07051527 -0.0005789599 0.015496294 -0.050490245
000360 df 15 9f bc fe 2b bb 3d 6b 9b 2b 3c 38 64 86 bd
       -0.019419609 0.0913925 0.010474066 -0.06562084
000370 58 b0 01 be 19 5a c1 b8 72 5a 31 be fb 06 10 be
       -0.12664926 -9.219739e-05 -0.17319658 -0.14065163
000380 22 f6 02 be b8 dd 81 3d d1 76 df 3d ce a6 ed 3d
       -0.12789205 0.063411176 0.10911334 0.11604081
000390 cb aa 20 bd 90 85 72 3d 70 1f 9a 3d 35 fc e0 bd
       -0.03922538 0.059209406 0.075255275 -0.10985605
0003a0 03 d0 9e bd 02 e4 53 be 2f c1 22 3d 50 85 a4 bd
       -0.07754519 -0.20692447 0.039735015 -0.0803324
0003b0 a3 84 a8 3c 2f 80 c2 bc 60 e1 86 3d d2 ac 24 3c
       0.020571059 -0.023742763 0.065859556 0.010050969
0003c0 08 db c5 bc a5 e3 47 3d 69 a9 8a 3d d9 5f c5 bd
       -0.024152294 0.048801083 0.06770594 -0.09637422
0003d0 7e 1f 91 bd a0 12 76 3d 1f 97 60 bc 47 22 78 bd
       -0.07086085 0.060076356 -0.013707905 -0.060579564
0003e0 e6 73 ee bd 4f 3c 8c 3d 3f 11 b3 3d ad 8f 14 bd
       -0.116431996 0.068474405 0.08743524 -0.036269832
0003f0 df ca 35 3e c8 0c 49 be d5 9f cd bc ad 49 f6 3d
       0.1775317 -0.19633782 -0.025100628 0.12025771

fc2.bias f4 [32]
000000 05 ac 80 bc d9 be 7b 3d dc 59 0f 3d d6 5f ff 3d
       -0.015707025 0.061461303 0.034997806 0.12469451
000010 33 cd 4b 3e bb fc ca bd f1 20 11 3e d1 90 7d 3e
       0.19902496 -0.09911486 0.14172722 0.24762274
000020 7d 55 87 3d 4c 41 92 3d d7 eb 10 3d d8 16 2e 3e
       0.066081025 0.07141361 0.035381164 0.17000902
000030 ca 3d 3f 3d 70 dc 89 3c 45 2b 92 3e 6f 3e fb 3d
       0.046689786 0.016828746 0.28548637 0.12267768
000040 29 7f bb 3d e7 47 33 3e d2 d3 0d 3e fc 1b 4b 3e
       0.09155113 0.17507897 0.13850334 0.19834894
000050 ba b5 d5 ba a5 26 cb 3e 6a 8d d9 3d 7c 60 92 bc
       -0.0016304769 0.3967792 0.10622676 -0.017868273
000060 c7 48 a0 bc 3d e6 4b 3d 04 1e f5 bd 2f 8b b6 3d
       -0.019565953 0.04978012 -0.11968616 0.08913266
000070 c7 0f ea bd b6 b7 34 bc e1 6d 49 3e 49 f3 5f 3d
       -0.114287905 -0.011030128 0.19670822 0.054675374

bn2.weight f4 [32]
000000 36 e9 86 3f 74 35 83 3f 3b d1 93 3f 8d 7a 98 3f
       1.053992 1.0250688 1.1548227 1.19124
000010 e4 23 8e 3f c0 ea 7a 3f 31 f4 86 3f fe 29 98 3f
       1.1104703 0.9801445 1.0543271 1.1887815
000020 15 1e 8f 3f 7b fd 74 3f b4 9d 77 3f 76 5f a8 3f
       1.1181055 0.9569928 0.9672501 1.3154132
000030 e6 8f 93 3f 5b 5d 82 3f e2 b1 a4 3f b5 15 93 3f
       1.1528289 1.018474 1.2866786 1.1491
000040 b9 cb 90 3f 5b ec 94 3f ce 79 a5 3f df 91 a4 3f
       1.1312171 1.163463 1.2927797 1.2857016
000050 e5 9c 74 3f 98 b5 8f 3f 81 0d 87 3f 63 2f 80 3f
       0.955519 1.1227293 1.0550996 1.0014461
000060 af 5b 93 3f a4 a3 a6 3f 56 ca 7c 3f 19 b7 99 3f
       1.1512355 1.3018689 0.9874624 1.2009002
000070 93 b4 8c 3f 5c b5 a3 3f f9 55 a8 3f 65 03 a5 3f
       1.0992607 1.2789721 1.3151237 1.2891661

bn2.bias f4 [32]
000000 f9 1e e3 bc a1 b1 0e bd 55 9c 4d 3e fc d9 5f 3e
       -0.02772473 -0.03483737 0.20079167 0.21860498
000010 fe d8 0e 3e 8b 2a d7 bd 9c 61 3d 3d c6 d1 45 3e
       0.13949963 -0.10506161 0.046235666 0.19318303
000020 ac b8 0d 3e 27 d7 80 bd 1d f6 08 bd 56 59 bc 3e
       0.13839978 -0.06291037 -0.033437837 0.36786908
000030 68 fb 29 3e b5 2e 8b 3c 30 9c 92 3e 8b 6f c0 3d
       0.1659981 0.016990045 0.28634787 0.09396275
000040 4a 47 e0 3d e8 25 27 3e db 64 97 3e 74 f9 a7 3e
       0.10951097 0.16323054 0.29569134 0.32807505
000050 89 3d a1 bd 0d 10 2a 3e 2c d1 2a bd de d0 1a bd
       -0.07873065 0.16607685 -0.041703388 -0.037796848
000060 2e fd 71 3c 7a 5b 72 3e 2d eb 9c bc 0e cf 3a 3e
       0.014769835 0.23667708 -0.01915511 0.18243048
000070 24 47 d9 bc 61 61 84 bc 5f 05 30 3e ae b6 88 3e
       -0.02652318 -0.016159715 0.17189549 0.26701874

bn2.running_mean f4 [32]
000000 ac f8 81 bc 94 42 dc 3d 42 df 0a be ad 9d 7a bd
       -0.015865646 0.10754886 -0.13561729 -0.061185528
000010 ac 6f 08 bd 91 75 b4 be 6b 0c 7e be 58 21 1d bc
       -0.033309624 -0.35245946 -0.24809425 -0.009590469
000020 bd e4 68 3e 07 1a f4 bd 4f 0a b6 bd 31 af be bd
       0.22743507 -0.11919027 -0.08888685 -0.09310759
000030 a2 69 96 bd 77 78 cd be 2b 26 49 3f 44 bf 87 3e
       -0.073443666 -0.4013097 0.78573865 0.26513112
000040 4c 93 82 bd 74 6e 83 bd aa d6 ef bc ac 75 2a be
       -0.06375751 -0.06417552 -0.029277164 -0.16646451
000050 d6 d6 c2 bd 33 d7 e3 3d e2 ea 51 be ed d3 e3 bd
       -0.09513633 0.1112503 -0.20499757 -0.11124406
000060 37 dd 04 3f f8 7b 1d be 69 98 73 be 4c ab 92 bd
       0.5190005 -0.15379322 -0.23788609 -0.071615785
000070 a9 37 18 be d9 22 39 be c0 0a f7 bd 00 c0 f0 bc
       -0.14864983 -0.180797 -0.12062597 -0.029388428

bn2.running_var f4 [32]
000000 89 5d fe 3d f5 35 1a 3e 2c ad f3 3e 79 4e 5b 3e
       0.12420184 0.15059645 0.47593057 0.21416654
000010 c0 b2 4d 3e 3f 95 42 3e 6f dd 8c 3e 22 a4 91 3e
       0.20087719 0.19002245 0.2751269 0.28445536
000020 c8 68 b7 3e cf b8 2f 3e 62 00 21 3e 1c 77 1e 3e
       0.3582213 0.17160343 0.15722802 0.15475124
000030 3d d4 1b 3e ab 5c d6 3e 45 69 f2 3e 29 d8 64 3e
       0.15217681 0.41867575 0.4734594 0.22348084
000040 19 3a 33 3e f8 a1 9d 3e 2f b0 6a 3e aa ee c2 3e
       0.17502631 0.30787635 0.22918771 0.3807271
000050 1a 1f 80 3e 13 81 3a 3e 22 77 8c 3e 04 b8 05 3e
       0.2502373 0.182133 0.2743464 0.13058478
000060 ff 21 6c 3e 76 e8 9b 3e 83 7a bd 3e 13 63 29 3e
       0.23059843 0.3045079 0.37007532 0.165417
000070 c2 6e b4 3e c2 50 a9 3e de 41 d0 3e 80 88 9a 3e
       0.35240752 0.33069426 0.40675253 0.30182266

fc3.weight f4 [5, 32]
000000 8a f1 54 3d 5b ca 24 3c 3b 60 86 3e d5 ac 3c 3e
       0.051988162 0.010058011 0.26245293 0.18425305
000010 97 b1 86 3e 1f 58 8a bd 5d ba 63 bd 2c 47 3c 3e
       0.26307365 -0.06755089 -0.05559765 0.18386525
000020 8a e5 6b 3e 0f a0 11 3c 57 43 81 bb cd c6 fe 3d
       0.23036781 0.008888259 -0.003944795 0.12440262
000030 ee 21 04 3e 85 84 a8 bd 51 9b ca 3d 21 75 9d 3d
       0.12903568 -0.08228401 0.098929055 0.07688356
000040 17 37 09 3c fa c7 7e 3e ae 99 fd 3d 20 99 d0 3c
       0.008374951 0.24880973 0.12382828 0.02546364
000050 a0 d6 2e bd 98 6c 06 3e c2 4b 00 3d dd 73 40 bd
       -0.04268515 0.13127363 0.03132225 -0.046985496
000060 d9 0c 61 bd 05 84 2b 3e 00 51 e0 bc 5c 0e 5b 3e
       -0.054943893 0.1674958 -0.027382374 0.21392196
000070 2d 9f 91 3d 53 a3 f7 3d 4c b8 88 3d 5d 94 5b 3e
       0.071104385 0.120916985 0.06675777 0.21443315
000080 a0 fe 68 bc 43 56 47 3d b7 f3 72 3e 62 00 29 3d
       -0.014220864 0.04866625 0.23725782 0.04126013
000090 d2 87 07 3e c2 a4 07 be cf 0d b2 bd e1 b8 0a 3e
       0.13235405 -0.13246444 -0.0869404 0.13547088
0000a0 eb 97 52 3e 90 7e ec 3d 4e 89 d1 3d a5 6b ba 3d
       0.20565765 0.115475774 0.10231267 0.09102563
0000b0 3c f5 5a 3d 36 22 44 bc 4a d4 ad 3d 13 c2 ac 3d
       0.05345653 -0.011971047 0.084877566 0.08435454
0000c0 24 67 91 3d 00 3f 03 3e 3c b4 5b 3d bf c9 01 bc
       0.07099751 0.12817001 0.05363868 -0.007921635
0000d0 c5 4c a2 be c6 27 bb 3d 0e 00 89 be c1 d0 8a be
       -0.31699196 0.091384456 -0.26757854 -0.27112392
0000e0 f3 83 e6 3b 63 8a 01 3e e5 fa 3a be 84 b9 c8 3d
       0.0070347725 0.12650447 -0.18259771 0.09801009
0000f0 3f 34 27 be b3 78 30 be dc 5d 69 be 80 74 2f 3e
       -0.16328524 -0.17233543 -0.22789711 0.17134285
000100 d1 01 d9 bd 85 d5 22 be 62 a1 88 bb 74 cc 1d be
       -0.105960496 -0.15901764 -0.004169629 -0.15410024
000110 8f 61 68 be 8b ca 2e 3e 18 7d c2 bc c2 c4 3b be
       -0.22693466 0.17069452 -0.02374129 -0.18336776
000120 26 b3 34 3c 43 d5 80 3d 2f 5f 10 be 9d db 15 be
       0.01102904 0.062906764 -0.1409881 -0.14634557
000130 90 69 f0 bd 08 9c 1f bc fe a0 92 3d 30 3a 51 3d
       -0.117388844 -0.009741791 0.07159613 0.051080883
000140 27 e3 64 be af 52 8b bb 16 96 0c be ef 40 9b be
       -0.22352277 -0.0042518 -0.13729128 -0.30322978
000150 42 71 15 3d 60 56 50 be bf d5 94 be 18 57 96 3d
       0.036484964 -0.2034545 -0.29069325 0.073408306
000160 f9 97 c8 3d ca 8f 51 be 1d f5 2e be 9e 61 7a 3c
       0.097946115 -0.20465007 -0.17085691 0.015282063
000170 ee fb ec 3d 21 57 27 3d 37 32 1f be de 74 c3 3c
       0.11571489 0.040854577 -0.15546499 0.023859438
000180 cb d7 5e be 70 b1 cb bd 06 77 9d be 51 23 cf be
       -0.21762006 -0.09945953 -0.3075487 -0.40456632
000190 0d 66 21 be 16 8e 0d be 62 90 cb be 95 8e 04 bd
       -0.15761586 -0.13823733 -0.39758593 -0.03236254
0001a0 65 35 7f be a8 10 56 bd fd 19 c8 3c 6b a7 dc be
       -0.24922712 -0.05226198 0.024426455 -0.4309648
0001b0 41 78 2d be 5d 12 8c be a2 9f 9e be 24 f6 3c be
       -0.16940404 -0.2735776 -0.30981165 -0.1845327
0001c0 95 fe 01 be 42 1a 97 bd 4a a1 bd be 0e 0e c7 be
       -0.12694772 -0.07378055 -0.37037116 -0.3887791
0001d0 c5 cf 01 be 1a 43 02 be 9b bb 35 bd 2c 9e 4c be
       -0.12676914 -0.1272091 -0.044368368 -0.19982213
0001e0 2d 1c c3 be 98 ac 1a be 83 d0 2c be a1 11 55 be
       -0.38107434 -0.15104902 -0.16876416 -0.20807506
0001f0 85 56 44 be 43 8f 1a be b2 d9 eb be 89 5b 29 be
       -0.1917363 -0.15093713 -0.46064526 -0.16538824
000200 7f b2 cd bd 7d c3 a7 be 0a 06 59 be a6 7d a1 3d
       -0.10043811 -0.32766333 -0.2119371 0.07885294
000210 03 d4 17 bc a2 62 c3 3b c7 e0 ce 3d d8 b9 b1 be
       -0.009266856 0.0059626857 0.101014666 -0.347121
000220 5a b0 88 be 54 f7 38 be a9 13 ab be 9d b3 61 3c
       -0.26697046 -0.18063098 -0.33413437 0.013775733
000230 9d e3 06 3e 2a 2a 28 3e c9 d9 94 be db ff bd be
       0.13172765 0.16422334 -0.29072407 -0.37109265
000240 34 06 ca be 22 c3 b1 be 4f c5 95 bd 42 75 ae bb
       -0.39457858 -0.34719187 -0.07313024 -0.005324037
000250 04 86 ac 3c 0e 27 4f bd 34 f2 da bd ad 39 d0 bd
       0.021059997 -0.050574355 -0.10690728 -0.10167251
000260 11 94 b2 be 67 d2 76 be 2d f3 de 3b f6 9b 19 be
       -0.3487859 -0.241037 0.006803891 -0.150009
000270 ed b2 a2 be 62 46 d1 be 0c c8 76 3d 74 b7 ac be
       -0.31777135 -0.4087401 0.060249373 -0.33733714

fc3.bias f4 [5]
000000 86 04 37 3e 30 83 0a 3d d6 99 25 3d c7 e6 cc be
       0.1787282 0.033816516 0.040429913 -0.4001982
000010 a9 ac 82 bd
       -0.063805886
